agent1_target.pth (torch_old, 49849 bytes, 10 tensors)

fc1.weight f4 [128, 24]
000000 98 f6 e4 bd 2a 56 a9 bc de 4f 7d 3e 6e 8b f3 be
       -0.111798465 -0.020670969 0.24737498 -0.47567314
000010 d7 5a 69 be be 72 0a 40 5e 4e ae 3e 29 08 09 bf
       -0.22788559 2.1632533 0.34044164 -0.53528076
000020 97 a6 14 3e 90 81 5b 3d b6 c5 82 3e f7 36 24 bf
       0.14516674 0.053590357 0.25541466 -0.6414637
000030 99 5a ac bc 58 3b 50 3f 3d b4 51 3e bf 17 12 bf
       -0.021039294 0.8134055 0.20478912 -0.57067484
000040 2e 87 1b 3e 2a 2a c9 bd 39 ed 44 3e dc 2a d2 3b
       0.15188286 -0.09822495 0.19231118 0.0064138006
000050 d4 5d 76 3c 75 99 47 bf 13 42 40 3e 9c d9 be 3c
       0.015037019 -0.7796853 0.18775205 0.023297124
000060 c9 2f f2 be 77 6c cc bf 35 8e 59 3e 43 22 c7 3d
       -0.47302082 -1.5970601 0.21245654 0.09723332
000070 ae d8 04 3f b8 cc e7 be 0a ae 90 3d 3b c9 49 3d
       0.51893127 -0.45273376 0.07064445 0.049264174
000080 d3 38 43 bf 86 69 f7 bf 88 e7 81 be 98 37 7e be
       -0.7625858 -1.9329078 -0.25371957 -0.24825895
000090 e5 00 1c 3e e2 6a c5 be 51 51 7c be 41 d9 8c be
       0.15234716 -0.38558108 -0.24640395 -0.27509502
0000a0 49 18 16 bf 6d 2d 09 c0 06 58 0d 3d 0b 3e 49 be
       -0.58630806 -2.1433976 0.034507774 -0.19652574
0000b0 3c 23 2f bc 4f 17 58 bf d7 21 86 bd fb 93 9b be
       -0.010689553 -0.84410566 -0.06549423 -0.30386338
0000c0 d4 6c 1f bf 78 27 9c bf fc af 21 3e 8e 3b 11 bf
       -0.62275434 -1.2199545 0.15789789 -0.567315
0000d0 71 e0 77 3d 91 c1 b2 3f 65 80 28 3e c0 95 09 bf
       0.06051678 1.3965322 0.16455229 -0.53744125
0000e0 f8 e9 09 bf b1 8d 86 bf 20 12 b0 bd 21 a6 5b bf
       -0.53872633 -1.0511991 -0.08597207 -0.8580037
0000f0 65 d7 1e 3d 44 76 d6 3f de bb 61 bc 43 9a 64 bf
       0.038779635 1.6754842 -0.013777701 -0.89297885
000100 49 7d ed be 00 70 9e bf fa 51 e3 3c 65 f5 64 bf
       -0.46384647 -1.237793 0.02774905 -0.8943694
000110 ba aa 45 3d 3a f1 01 40 84 be e4 3d 71 d3 81 bf
       0.04825852 2.0303483 0.111691505 -1.0142652
000120 3c 49 a7 3e 6e 9e cc be 53 cb 1b bc 41 ce 6a 3e
       0.3267306 -0.39964622 -0.0095089255 0.22930242
000130 cc 5b 91 bf 53 0b da bf 45 70 70 bd ff dd 6d 3e
       -1.1356139 -1.7034706 -0.05870082 0.23229216
000140 f2 63 a0 3e e4 9d d2 be 15 79 a9 bd 67 f2 21 bd
       0.31326252 -0.41136086 -0.08275048 -0.039537814
000150 67 69 9e bd 42 f3 a7 bf c6 e4 16 be 0f db 6c bd
       -0.07734948 -1.3121111 -0.14735708 -0.057826098
000160 3c 61 c1 3e 49 91 25 bf 5d 61 01 bd 3b 02 37 bf
       0.37769496 -0.6467481 -0.031586993 -0.7148778
000170 4c aa 9f 3f 63 5b bb be 5e a2 4b 3c c4 c9 0f bf
       1.2473845 -0.3659316 0.012428848 -0.56167245
000180 10 b8 77 3d 74 03 cd be bc 4f 0c 3e cb a8 e1 be
       0.06047827 -0.40041697 0.13702291 -0.4407409
000190 20 dd 1a 3e e8 8d da 3f 3d 1f 48 3e 7b 62 ea be
       0.15123415 1.7074556 0.19543166 -0.4577826
0001a0 ab a6 35 bc b4 18 a5 be 19 f0 84 3d 9d b1 8a be
       -0.0110871 -0.3224541 0.064911075 -0.27088633
0001b0 4d ba 68 3d da cc 4e 40 31 ae 0a 3d ae 10 9d be
       0.056818295 3.2312531 0.033857528 -0.30676788
0001c0 68 a1 a9 bd 3c 0e ce be f6 b3 d4 3d 47 75 88 be
       -0.08282739 -0.40245235 0.10385887 -0.26651976
0001d0 07 3a 02 3d 6d 0f 4d 40 23 13 af 3d 10 7b 42 be
       0.03179362 3.2040665 0.08548572 -0.18992257
0001e0 a7 23 40 bf 6a d0 6c 3f 49 c7 01 be 01 6d 3f be
       -0.750544 0.92505515 -0.12673678 -0.18693925
0001f0 9d 91 23 3d 62 5b 3a bf 98 61 99 bd a7 b5 a2 be
       0.03993379 -0.7279569 -0.07489318 -0.31779215
000200 59 ab 26 bf 39 26 7d 3f 21 43 65 3d b0 41 20 3f
       -0.65105206 0.9888645 0.055972222 0.6260023
000210 e8 82 cc 3e 4b 4c be bf 8b 6d 96 3b 44 9c fc 3e
       0.39943624 -1.4867033 0.0045906953 0.4933797
000220 c3 60 1a bf 44 e6 98 3f a6 ed 06 3d c3 d0 ff bc
       -0.60303897 1.1945271 0.032941483 -0.031227475
000230 47 4e 29 3f d2 6e ec bf c4 83 0a 3e d4 a9 35 3d
       0.66135067 -1.847132 0.13526827 0.044351414
000240 cb e6 87 3e cb b3 a6 be 8f 82 57 3d 65 ff 14 3f
       0.2654327 -0.32559046 0.052614745 0.582022
000250 6d d4 87 be 2e 0a a2 3d ff 39 4d bc 5b 8c 1e 3f
       -0.26529256 0.07912098 -0.012526034 0.61932915
000260 2e d1 51 3f 12 ad be 3b 65 a3 89 3d 78 cb 6a 3f
       0.8195981 0.0058189714 0.06720618 0.9171672
000270 15 b0 7f bd 22 ce cf be 06 20 37 3e eb 1d 6e 3f
       -0.062423784 -0.40586954 0.1788331 0.930144
000280 13 b8 91 3f 47 71 79 3e 00 1a 11 be 3d ce da 3e
       1.13843 0.24359618 -0.14170074 0.42735472
000290 59 56 04 3e 2f 6e 0c bf e1 5d c9 bd e5 55 c4 3e
       0.12923564 -0.54855627 -0.09832359 0.38346782
0002a0 0c 3e 58 3f 36 71 13 3f 4b cb 9b bc 35 d0 16 3f
       0.84469676 0.5759462 -0.019017836 0.5891145
0002b0 40 d5 a8 3d c3 3e 7f bf b0 d2 9e bd dd 7b 06 3f
       0.08243799 -0.9970514 -0.07755029 0.5253275
0002c0 b0 f8 0a 3f 89 0f 39 3f 94 a8 a3 3e 1f 24 c1 3d
       0.54285717 0.7228933 0.31964552 0.09430718
0002d0 ab 7f 0e 3e de 46 50 bf 9a a7 c6 3e c1 c9 6b 3c
       0.13915889 -0.81358135 0.38799745 0.014391364
0002e0 df 4c ba 3e ad 98 35 3f c2 d6 04 bd f9 05 ef bd
       0.36386773 0.7093609 -0.03243137 -0.11671061
0002f0 82 f5 3a bd 2d c3 5c bd ec f0 62 3c db 8e aa 3c
       -0.04564429 -0.05389707 0.013851386 0.020820072
000300 2f 05 2e bf 12 df 0c 40 b9 6d e6 bc bf ee 26 3f
       -0.6797666 2.2011151 -0.028128492 0.6520805
000310 da 32 ef 3e 38 29 cc 3d 20 11 ce 3c d5 57 40 3f
       0.46718484 0.09968799 0.02515465 0.7513402
000320 f0 fb 35 bf 62 ec 19 40 98 93 39 3e cf 08 94 3b
       -0.7108755 2.4050527 0.18122709 0.0045176516
000330 b1 ef e4 3d 1f 2a 2b be 79 e5 08 3e 25 84 98 bd
       0.1117853 -0.16715287 0.13368787 -0.074470796
000340 e5 20 3c bf 74 51 11 40 99 ff 4f bd 03 af dd be
       -0.73487693 2.2705965 -0.050780866 -0.43297586
000350 16 01 4f be e6 c9 08 be b6 c6 41 be de 3a c0 be
       -0.20215258 -0.13358268 -0.18923458 -0.37544912
000360 2d bb 0c 3f d3 ec a0 3e 54 1d bb bd 31 e2 ae 3c
       0.5497311 0.31430683 -0.09136453 0.02134809
000370 3a 30 e8 be 3e e6 88 bf 62 3a 67 bd 9f c8 87 bd
       -0.45349294 -1.0695264 -0.056452163 -0.06630062
000380 79 6c c2 3e 6c 5b 83 3e 8f 42 0e 3d 17 fe eb bd
       0.37973383 0.25655687 0.034731444 -0.11523073
000390 b7 61 f3 be d4 40 43 bf 79 be e3 3c 83 d7 57 bd
       -0.47535488 -0.76270795 0.027800785 -0.052695762
0003a0 29 f7 e5 3e 21 8c 2f bd d1 f8 90 3e 52 fd b2 bf
       0.4491513 -0.042858247 0.28314832 -1.3983557
0003b0 49 e7 a4 be 6a 19 3f 3e 34 25 bb 3e bc a9 a6 bf
       -0.32207707 0.18662038 0.3655182 -1.3020549
0003c0 99 fb 19 bf cd 01 f0 be a8 7b 20 be 1c 50 09 3e
       -0.6014953 -0.46876374 -0.15672171 0.13409466
0003d0 85 3e 80 bf b2 6c a0 bd 42 d9 36 be 59 45 f9 3d
       -1.001908 -0.07833232 -0.17856315 0.1217143
0003e0 f4 96 04 bf 38 51 8d bd 9d dc 9c be b0 2e 89 3f
       -0.51792836 -0.06900257 -0.30637065 1.0717373
0003f0 34 ac 2b bf 97 60 07 3f 98 c3 98 be fd 07 86 3f
       -0.67059636 0.5288176 -0.29836726 1.0471188

fc1.bias f4 [128]
000000 23 4b 80 bf d4 00 61 be ec 35 88 bd f6 08 95 bf
       -1.002293 -0.21972972 -0.0665091 -1.164336
000010 e8 8f f3 bf 91 34 ff be 90 2c d9 bf 1f 38 02 be
       -1.9028292 -0.49844792 -1.6966724 -0.12716721
000020 c7 64 0b be 13 29 83 bd 1e f3 81 be 41 a1 0b bd
       -0.13612662 -0.06404319 -0.25380796 -0.03408933
000030 66 19 f2 be 82 09 f7 bf ea ee e8 be da 3a 94 be
       -0.47285002 -1.9299777 -0.45494777 -0.2895115
000040 f4 d9 96 bf 91 b1 b2 be 19 ac ba bf 61 19 39 bf
       -1.1785264 -0.34901097 -1.458377 -0.7230435
000050 77 7b 6f bf 94 c5 b5 bf 3a fc 00 3f ba e0 05 bf
       -0.9354777 -1.4200921 0.5038487 -0.5229603
000060 2c b4 a5 bf bb 23 18 bf 6a b6 2a bf ef 1c 3c bf
       -1.2945609 -0.5942952 -0.6668459 -0.7348165
000070 db 54 8a be 1a df 28 bf fa 5f b1 bd d1 2e 15 bf
       -0.27017865 -0.65965426 -0.08660884 -0.5827456
000080 dd 0d 82 be 19 f6 75 bf 63 c7 c4 3e eb 0e c9 3d
       -0.25401202 -0.9607864 0.3843337 0.098172985
000090 55 3d 94 bd f2 e7 77 bf 9a fb 5c bd 5e f0 a8 3d
       -0.07238261 -0.96838295 -0.053950883 0.082489714
0000a0 15 25 07 bf 9a 2c 28 bf f1 05 89 bf f5 8d d0 bf
       -0.5279096 -0.65693057 -1.0704938 -1.6293322
0000b0 b5 8a 8a bd a2 1e 95 bf 13 b3 02 3e d5 01 08 bf
       -0.067647375 -1.1649973 0.12763624 -0.53127795
0000c0 fb d0 a3 be 11 af ce bf 32 e9 2d bf 22 ee 8d be
       -0.31995377 -1.6147176 -0.6793395 -0.27720743
0000d0 34 72 4d bf 56 28 93 bf 6f a7 5e bf 41 65 99 be
       -0.80252385 -1.1496685 -0.86974233 -0.29960063
0000e0 55 36 53 bf 0d 8e 34 bf 73 e9 87 bf a4 a6 d3 be
       -0.8250478 -0.7052925 -1.0618118 -0.41338074
0000f0 ba 9d d6 3d e7 9f a1 3e 77 a2 4e bf 17 36 89 bf
       0.10479303 0.31567308 -0.8071665 -1.0719632
000100 bd 75 67 bd 67 7e ad 3e 04 07 a8 be 8a 78 c5 3e
       -0.05650877 0.338855 -0.32817852 0.38568527
000110 f8 3f 1d bf 30 2b a8 3e 2a 50 59 be a1 c4 07 c0
       -0.61425734 0.3284545 -0.21221986 -2.1213763
000120 0f e5 30 bf 15 7e ea be 64 b1 22 bf 2d f8 45 bf
       -0.69099516 -0.45799318 -0.63551927 -0.7733181
000130 c1 57 d0 be 95 fa 56 be 2d 78 17 3e 94 99 5a be
       -0.4069195 -0.20994027 0.14791937 -0.21347648
000140 14 d6 fe bf 23 d2 78 bf 58 89 cc be 74 e2 0c bf
       -1.9909081 -0.97195643 -0.39948535 -0.5503304
000150 18 3b a2 be d0 ce a6 bf 1d de 84 bf 62 59 9f 3f
       -0.3168571 -1.3031864 -1.0380284 1.2449152
000160 fd 40 62 bf 32 00 1f 3f aa 15 b8 be 4c da 98 bf
       -0.88380414 0.62109673 -0.35954028 -1.1941619
000170 82 49 9e be c0 db 7f bf 12 c2 a9 bf 5a bf 64 3d
       -0.30915457 -0.99944687 -1.326235 0.05584655
000180 c1 08 b7 bf 59 43 f9 bd f1 3d 67 bf 38 98 01 3e
       -1.4299546 -0.12171049 -0.9032889 0.12655723
000190 4f 47 87 be d1 f0 0a bf 23 5e c6 3d f7 92 1e bf
       -0.26421592 -0.54273707 0.09685924 -0.61943
0001a0 01 ff 0d bf a4 d2 07 bd 00 ad a2 be 77 bf a1 bf
       -0.5546723 -0.033159867 -0.31772614 -1.2636555
0001b0 5a bb bd bf 03 db 0b bf 4c f8 81 bf d3 0b 1a 3f
       -1.48228 -0.5463106 -1.0153899 0.6017429
0001c0 35 4d 81 be 54 06 3e bf 86 66 51 bf 5e ae b5 bf
       -0.25254217 -0.74228406 -0.81797063 -1.4193838
0001d0 db 3b 1e bf 95 5a b1 be c5 cc df 3e 87 71 05 bf
       -0.6181008 -0.3463942 0.43710914 -0.52126354
0001e0 84 97 56 bf e5 ce cb be 57 a5 5f bf f1 d0 55 bf
       -0.83824944 -0.39806286 -0.87361664 -0.83521944
0001f0 13 ed 74 bf 78 12 33 bf fa ee 90 be ea 61 53 bf
       -0.95674247 -0.69950056 -0.28307325 -0.8257128

bn1.weight f4 [128]
000000 fb ca 29 3e e1 f7 33 3f 83 9f 76 3e 68 0f 54 3f
       0.16581337 0.7030011 0.24084286 0.8283601
000010 65 ad a1 3f 95 21 49 3f cf 72 1d 3f 0e fc 57 3f
       1.2631041 0.7856687 0.6150331 0.8436898
000020 77 2c 6f 3f 95 a3 c5 3e 7f 80 0f 3e f3 af d6 3f
       0.9342722 0.38601366 0.14013861 1.6772445
000030 e8 78 fd 3e 54 5e b2 3f 7a 3e ed be e3 3f 94 3e
       0.49506307 1.3935037 -0.46336728 0.28954992
000040 f8 b9 d3 3e 4a 0e ce 3e 42 b1 51 3f c1 d6 56 3f
       0.4135282 0.40245277 0.819111 0.8392144
000050 5d 93 fd 3d 7d c8 84 3f 64 6f a1 3f f3 67 a0 3f
       0.12381623 1.0373684 1.2612119 1.2531723
000060 5b ca 11 3f 14 c7 bd 3e 12 76 d4 3e a0 84 ad 3e
       0.56949395 0.37065947 0.4149633 0.33890247
000070 ab 40 db 3e 32 c6 9b 3e c6 c4 f4 3e 72 3a 11 3f
       0.42822775 0.3042465 0.47806376 0.56729805
000080 49 ca 6e 3e 60 8e 3c 3f 30 83 d7 3e 05 24 93 3f
       0.23319353 0.73654747 0.42092276 1.1495367
000090 d8 ce 2d 3e c4 f1 d0 3e 0f 15 2f 3d 10 68 ac 3f
       0.16973436 0.40809453 0.042744692 1.3469257
0000a0 66 21 73 3f 95 d1 cf 3e 24 ab 7a 3f 83 aa 00 40
       0.94972837 0.40589586 0.9791739 2.0104072
0000b0 2a ab 76 3f 40 a8 25 3f 6b 38 3a 3f 92 3f 01 3f
       0.96354926 0.64709854 0.72742337 0.50487626
0000c0 76 2a 2a 3f c2 d2 95 3e ea 5c 57 3e 21 07 cf 3e
       0.6647104 0.29262358 0.21031538 0.40435126
0000d0 4b 17 b1 3f 7a a7 19 3f 1c c0 63 3f d5 bf 0b 3f
       1.3835233 0.60021174 0.8896501 0.5458959
0000e0 77 6e 0c 3f eb b3 04 3f c1 e0 f8 be 95 c3 d7 3e
       0.54856056 0.51837033 -0.48608974 0.42141405
0000f0 13 da 13 3f a4 a9 1a 3f 21 48 b1 be 3d 48 c2 3f
       0.5775463 0.604151 -0.34625342 1.5178295
000100 ed a3 03 3f ff 2a 5d 3e 45 0b a5 3f 13 3a b3 3e
       0.51422006 0.21598433 1.2894064 0.35005245
000110 af 31 cd 3f 55 6b 89 3f be 1f c7 3f 04 c0 1f 3f
       1.6030787 1.073588 1.5556562 0.6240237
000120 54 e8 c0 3f 8a a7 6a 3f 3d 7c a4 3f 24 92 c4 3e
       1.5070901 0.91661894 1.2850415 0.38392746
000130 24 ff ca 3d 32 ff f0 3e 64 fb 60 3f 66 20 ca 3f
       0.099119455 0.470697 0.8788359 1.5791137
000140 cf 23 0e 3f 59 2f cd 3e ea 0a 37 3f a3 bd 20 3f
       0.5552339 0.40075186 0.7150103 0.6278936
000150 7c 55 93 3e 13 96 63 3f c4 a2 6d 3e 4c 1c 41 40
       0.28776157 0.8890087 0.23206621 3.017352
000160 6d 2c 09 3f 25 47 b0 3f 33 01 bc 3f 8c ba 6f 3f
       0.53583413 1.3771712 1.4687866 0.9364402
000170 a7 96 8a 3e a6 62 bd 3f 05 d4 8d 3e 12 b5 7f 3f
       0.27068064 1.479573 0.2770082 0.99885666
000180 04 03 df 3e 3b 9a 48 3f b2 21 e8 be 3a 52 f8 3e
       0.43556988 0.78360337 -0.45338207 0.48500234
000190 a9 95 30 3f 00 e0 f6 3e db 7e c5 3f 2b 53 59 3f
       0.68978363 0.48217773 1.5429338 0.8489253
0001a0 89 64 08 3f 00 05 cf 3f 14 7e 15 3f 8e 59 91 3e
       0.53278404 1.6173401 0.58395505 0.28388637
0001b0 2d c6 c1 3e 5d 77 0c 3f 66 50 27 3f 34 55 b5 3d
       0.3784651 0.54869634 0.65357053 0.08854142
0001c0 82 38 5d 3f 54 9b 2f 3f f5 04 19 3f 97 82 39 3f
       0.8641435 0.68596387 0.5977319 0.7246489
0001d0 e6 ce 59 3f fd 9e 3a 3f e2 02 36 3f 80 0c b6 3e
       0.85081327 0.72898847 0.7109815 0.35556412
0001e0 80 4d f3 3e 55 70 9c 3f 93 76 1a 3f c7 44 ea 3e
       0.47520065 1.2221781 0.6033718 0.45755598
0001f0 c6 83 1d 3f 53 c1 9e 3f d0 3b be 3e 9e 91 2b 3f
       0.61529195 1.2402748 0.37155008 0.6701907

bn1.bias f4 [128]
000000 a9 b2 8f bd 63 91 c5 3e 81 bd d6 3e 2e e3 d5 3d
       -0.070164986 0.38587484 0.41941455 0.10443722
000010 44 a8 c3 3d 1e da 15 3d 18 70 a7 3e a5 5a 99 3e
       0.095535785 0.036584966 0.32702708 0.2995197
000020 46 a0 e5 3e 51 bb 1d 3d ea ba 9d 3e d6 af 59 bd
       0.4484884 0.038508717 0.30806667 -0.053146206
000030 74 38 c2 bd 14 fc 08 3f ca 40 fe be bb 08 78 be
       -0.09483424 0.5350964 -0.49658805 -0.2422208
000040 8a a0 86 3f 66 c2 56 3d 35 10 bc 3e 6f 0b ca 3d
       1.0517743 0.052431487 0.36731115 0.09865462
000050 e7 04 89 3f b6 32 83 3e ec 76 a5 3e 25 40 da 3e
       1.0704621 0.25624627 0.32317293 0.42627063
000060 3b 5e 10 3e e1 47 38 3d 27 03 21 bf 41 ca 49 3f
       0.14098446 0.044990424 -0.62895435 0.7882424
000070 e3 35 f4 be be c9 36 3f 68 6f 3d 3f 26 1d 44 3f
       -0.47697362 0.71401584 0.7399812 0.76606977
000080 aa 30 f1 bb 92 1b df be fa 27 c2 3e a2 70 8c 3e
       -0.0073605375 -0.43575722 0.37921125 0.27429682
000090 e3 21 d9 3e 7d 09 e5 3e 0b 34 33 3b 61 4b cf 3e
       0.42408666 0.447338 0.0027344252 0.40487197
0000a0 ab e3 35 3f d7 87 f8 be 82 61 3e 3f a2 15 af 3e
       0.7105052 -0.48541138 0.74367535 0.34196192
0000b0 04 a0 1e 3f 93 12 c6 ba b9 49 12 be 93 04 cd 3e
       0.61962914 -0.0015111737 -0.14285935 0.40042552
0000c0 ed 3f 22 3f ac 19 40 be 22 81 a1 3e 81 0b f9 3e
       0.63378793 -0.18759793 0.31543833 0.4864159
0000d0 ba 6d e7 3e 23 16 04 3f 57 a8 93 bd 12 3b 92 3f
       0.45200902 0.5159628 -0.07209843 1.1424277
0000e0 7e 1f 92 3e bb 8c dd be 52 fe 95 3f ff 0a 22 3f
       0.28539652 -0.4327143 1.1718237 0.6329803
0000f0 3d 89 28 be 90 a9 ba 3e 7e 67 19 be 4c 64 a0 3f
       -0.16458602 0.3645749 -0.14980885 1.2530608
000100 3e 97 3d bd 02 ab 61 3d c7 b4 fd 3e 28 4f 91 3e
       -0.046286814 0.055094726 0.49551985 0.28380704
000110 47 11 2e 3f 32 1c 66 3e 97 59 c9 bc ad 99 4b 3e
       0.67995113 0.22471693 -0.024578853 0.19882841
000120 fb a0 0b 3f 4d e2 af 3d 46 72 3c 3f 25 8c 5f 3d
       0.5454251 0.08588085 0.7361187 0.05457701
000130 11 a9 2a 3e 00 40 ad 3d ee 02 13 3e a8 9f 2d 3e
       0.16666056 0.08459473 0.14356586 0.16955435
000140 44 22 6e bb 09 80 c6 3c b2 1e fd bc 77 42 82 be
       -0.0036336342 0.024230974 -0.030898426 -0.25441334
000150 5f bd f5 bd 0c 27 17 be 6c 01 a6 3d 2f 44 02 be
       -0.1199901 -0.14760989 0.0810574 -0.12721322
000160 28 55 75 3c 33 ac b9 3e 9f 84 e8 3e de 6a 93 3c
       0.014973916 0.3626419 0.45413682 0.017995294
000170 2a fa 37 3f 8e a1 ad be df 64 a3 be 0c 92 21 3f
       0.71866095 -0.3391232 -0.31912896 0.63113475
000180 2f 96 7d bd da 10 41 bd 17 a6 37 3f 0d 29 25 3f
       -0.061910804 -0.04713521 0.7173781 0.64515764
000190 02 17 78 be 75 bd 53 3f 6e c2 00 3f b2 48 b4 3e
       -0.24227527 0.82710963 0.50296676 0.35211712
0001a0 51 5b 26 3e 4c 1d 97 3d d4 4a 22 3f f3 ec d5 be
       0.16245772 0.07378635 0.6339543 -0.4178234
0001b0 c4 ba 19 3c a6 80 bb be 70 f4 bf 3e f8 1b 80 be
       0.009382907 -0.36621588 0.3749118 -0.25021338
0001c0 39 60 9d 3f cd 4e 67 be 41 f2 82 3f 68 45 3e bd
       1.229499 -0.22588654 1.023018 -0.04645291
0001d0 74 c7 8a b9 66 49 6c be 6d 26 5b bc 30 93 bf bd
       -0.00026470015 -0.23074874 -0.013375861 -0.09354246
0001e0 f7 9b 36 3e 14 13 b0 3d e9 be 65 3f bc 3a 72 3e
       0.17832933 0.08597389 0.8974443 0.23655218
0001f0 68 53 f0 3e d0 77 4f 3e f6 2d 9f be ce 50 0b 3e
       0.46938634 0.20260549 -0.31089753 0.13605043

bn1.running_mean f4 [128]
000000 5d 3d 69 41 10 aa 0e 41 43 fd 05 42 37 0e 06 3c
       14.577481 8.916519 33.497326 0.0081821
000010 bb 87 05 42 af d2 9b 40 b0 b5 fd 3e 3c b4 89 3f
       33.38255 4.869468 0.4955268 1.0758128
000020 8f f9 6b 41 de 5c 2e 40 87 3b 97 41 2e 1a 4e 3f
       14.748427 2.7244182 18.904066 0.805087
000030 4f 84 db 3f 91 0c d3 40 d8 2f 2b 40 25 69 09 41
       1.7149752 6.595284 2.6747952 8.58817
000040 a4 54 f2 3f 5b 03 4c 3d e9 a9 e2 3e 73 ae 08 0e
       1.893208 0.049807888 0.44270256 1.6847288e-30
000050 a9 0a 89 3e 11 83 c7 3f aa 57 83 41 06 e8 d7 40
       0.26765946 1.5586873 16.417805 6.747073
000060 95 d8 b1 3f 6a f6 a2 3f b7 24 06 40 e1 ab e4 3c
       1.389422 1.273145 2.095991 0.02791399
000070 82 d6 28 41 bd d1 98 40 36 fb 13 42 d3 08 16 3f
       10.55237 4.775603 36.995323 0.58607215
000080 de 5b 1e 41 70 3c 08 3f 89 4d a8 40 cd b0 12 40
       9.8974285 0.5321722 5.2594647 2.292041
000090 d3 22 2e 40 fc 02 4d 3d 0e 55 aa 41 3d b0 30 40
       2.7208755 0.050051674 21.29153 2.7607567
0000a0 ad 60 d0 40 b7 2e 6e 40 df 70 75 40 c4 92 b2 3f
       6.5118012 3.7216012 3.835014 1.3951039
0000b0 e4 8c 40 41 b0 e1 c8 3b 3c 46 22 40 d9 73 0b 41
       12.034397 0.0061304197 2.5355368 8.715783
0000c0 70 5f 09 41 f5 4a 70 3f 8a 99 dc 40 7d e0 4d 41
       8.5858 0.93864375 6.8937426 12.867307
0000d0 74 b4 e3 41 ce 52 b8 40 09 8f d3 38 6b 81 ee 40
       28.463112 5.760108 0.000100879064 7.453298
0000e0 52 4f ca 3f 7d 04 82 3f b0 dd 54 3f 07 09 aa 41
       1.5805457 1.015762 0.8315077 21.254408
0000f0 49 42 50 41 3d d3 a9 41 42 61 54 3b 09 d1 96 40
       13.016183 21.228144 0.0032406603 4.713017
000100 4f 13 c6 3b 5a 34 97 41 88 95 c5 41 62 de 88 41
       0.006044782 18.900562 24.698013 17.108585
000110 fe 11 2d 40 e6 06 03 41 8c 03 58 3f 43 80 d9 3f
       2.7042232 8.189184 0.8438041 1.6992267
000120 b2 89 02 41 f7 0b 99 3e bc 20 ef 3b 94 c6 56 3f
       8.158617 0.2989194 0.0072976034 0.83896756
000130 38 6e 62 3f 1e df 9a 3e a2 4a 4a 3e 3c a5 24 40
       0.8844943 0.3024835 0.19755033 2.572585
000140 69 f0 84 3b 82 19 09 3e c7 d4 4c 3f c9 5b 5c 3f
       0.0040569794 0.13388637 0.8001217 0.86077553
000150 08 cf e6 40 8c 64 b5 40 04 00 00 00 30 06 c5 40
       7.2127724 5.668524 6e-45 6.1570053
000160 1b 1f a8 40 69 b6 f4 40 63 f0 3a 3f 90 5f 5d 3f
       5.253797 7.647267 0.7302305 0.8647394
000170 47 4b 2d 41 76 60 49 41 cb 1f 6c 40 bb a9 e6 3f
       10.830878 12.58605 3.6894405 1.8020548
000180 3f 56 e4 3f ed 5a f1 3e a7 2c 33 3f 5f bf ee 41
       1.783882 0.47139683 0.6999001 29.843443
000190 04 00 00 00 19 60 1c 40 12 c8 56 40 1a 25 70 41
       6e-45 2.4433653 3.3559613 15.009058
0001a0 fe da 19 41 2a ac 4d 41 8f a4 96 40 93 ce 5c 3f
       9.615965 12.854532 4.7075877 0.8625271
0001b0 11 9d 49 3e fd d5 a6 3b 6a 22 53 40 48 63 7a 41
       0.19688822 0.0050914274 3.2989755 15.649239
0001c0 07 5c c3 40 c0 3f d0 39 cd c9 00 41 04 00 00 00
       6.104984 0.0003972035 8.049268 6e-45
0001d0 04 44 cc 3e dc 26 13 3f 60 66 b1 41 46 a6 66 41
       0.39895642 0.5748117 22.174988 14.415594
0001e0 77 2c e2 40 25 71 7e 3f 4b 18 87 3f ce c0 8f 3d
       7.067928 0.99391395 1.0554289 0.070191965
0001f0 c6 12 00 3c 54 75 10 41 18 45 59 41 f3 59 2c 3f
       0.007816976 9.028645 13.579369 0.6732475

bn1.running_var f4 [128]
000000 7e c5 83 43 0a e0 bf 42 e6 9b a1 43 86 61 d4 3c
       263.5429 95.93758 323.21796 0.025925409
000010 1b ea 81 43 b9 3f 83 42 d5 62 a6 40 a3 4b f6 40
       259.82895 65.62446 5.1995645 7.696733
000020 c2 78 df 42 83 74 6d 42 c1 aa ca 43 b4 38 fa 40
       111.735855 59.36378 405.334 7.819422
000030 4b 42 cf 41 10 c5 a6 42 85 4a 23 42 48 a3 68 43
       25.90737 83.38489 40.822773 232.63782
000040 5d 1f ed 41 81 86 ef 3e 03 b6 3d 40 e4 50 a5 0d
       29.640314 0.46782306 2.964234 1.0188384e-30
000050 2a 93 19 40 fe de 6f 41 42 f3 ab 43 30 ba 33 42
       2.3996072 14.991941 343.90045 44.931824
000060 4b 94 79 41 52 2f 87 41 4e 4a 1f 42 aa d0 12 3e
       15.598704 16.898106 39.822563 0.14337412
000070 ab 10 3f 43 7a 7f 78 42 62 d1 6e 43 b1 79 dd 40
       191.06511 62.12449 238.8179 6.921105
000080 68 76 4b 43 8b ab a7 40 af fe e0 42 f8 48 ce 41
       203.46252 5.2396903 112.49743 25.78563
000090 1f 4c 15 42 0d 33 eb 3e 40 8a 9c 43 6d 20 98 41
       37.324337 0.45937386 313.08008 19.015833
0000a0 0a 20 65 42 45 d5 7b 42 9b 25 bf 42 4a 47 c9 40
       57.28129 62.95827 95.57345 6.2899523
0000b0 e3 4b 1c 43 84 97 7b 3d f1 2c dd 41 8c 83 d9 42
       156.29643 0.061423793 27.646944 108.75693
0000c0 6e 90 c0 42 bc 8b 32 41 51 07 40 43 95 5b 2d 43
       96.28209 11.159115 192.02858 173.35774
0000d0 98 bd 7b 42 af ae c4 42 61 32 6a 39 8b 62 2f 43
       62.93515 98.34118 0.00022334747 175.38493
0000e0 53 68 97 41 9b 45 7f 41 33 41 2d 41 53 84 b6 43
       18.92594 15.9544935 10.828418 365.03378
0000f0 14 13 8d 43 24 af ac 42 ed a8 07 3c 63 9f 55 42
       282.14905 86.34207 0.008280021 53.40565
000100 93 4d 1f 3d 74 90 2b 43 c9 26 e4 42 f7 05 8b 43
       0.03889234 171.56427 114.07575 278.0466
000110 33 44 84 41 73 94 98 42 40 61 03 41 f3 d6 80 41
       16.5333 76.28994 8.211243 16.104956
000120 ec 72 8f 42 bc 61 6f 40 d8 07 f0 3c 13 a0 1c 41
       71.72446 3.7403402 0.029300615 9.789081
000130 a9 9c 21 41 94 b8 34 40 d0 7a fc 3f ae df 3f 42
       10.100747 2.8237658 1.9724979 47.968437
000140 15 c1 97 3c 33 f8 7f 3f 27 5a 45 41 d5 b9 dc 40
       0.018524686 0.99988097 12.33451 6.8976846
000150 64 bb 5d 43 e0 1f c8 42 04 00 00 00 aa cb 35 41
       221.732 100.062256 6e-45 11.362223
000160 40 2e c9 42 e0 ab ca 41 97 eb ae 40 b5 01 05 41
       100.59033 25.333923 5.4662585 8.312917
000170 0c ee 99 43 d9 ce 84 43 0d 18 91 42 67 32 e6 41
       307.85974 265.616 72.546974 28.77461
000180 5b a6 f5 41 f6 7a 6e 40 68 06 df 40 22 5f 17 43
       30.706228 3.726255 6.969532 151.37161
000190 04 00 00 00 9e a3 d4 41 8d 78 9a 41 d5 30 71 43
       6e-45 26.579891 19.308863 241.19075
0001a0 44 39 43 43 d7 34 08 42 c8 06 b9 42 78 89 72 41
       195.2237 34.0516 92.513245 15.158562
0001b0 9c db fe 3f 28 8d d4 3c 96 89 de 41 0f 21 80 43
       1.991077 0.025946215 27.81718 256.25827
0001c0 d4 d0 7a 42 e6 ee dc 3a 52 46 02 43 04 00 00 00
       62.703934 0.0016855865 130.27469 6e-45
0001d0 5b 36 2b 40 0e b3 92 40 ef c8 73 43 59 9c 86 43
       2.6751926 4.5843573 243.7849 269.22147
0001e0 3a d5 44 43 91 19 00 41 de bf 35 41 16 f4 39 3f
       196.83292 8.006242 11.359343 0.7263807
0001f0 cf af 29 3d eb f6 6b 42 20 cc e2 43 e4 d1 c9 40
       0.04142743 58.99113 453.59473 6.3068714

fc2.weight f4 [64, 128]
000000 c3 d7 97 bd 6a f5 06 3d 60 fd 8f bd c1 0c 36 3e
       -0.074142 0.03294889 -0.07030749 0.17778303
000010 08 a2 50 3f 12 41 64 bf cb 00 41 3e dc 87 b0 3d
       0.8149724 -0.8916179 0.18847959 0.08619663
000020 9c 8e 0d bf 30 3b ad be 2b e7 b5 bd ac b4 76 3e
       -0.5529573 -0.3383422 -0.088819824 0.24092358
000030 46 6f 94 3d 9b 7f 9a 3f 8d c9 e2 3e 71 54 7a 3f
       0.07247786 1.2070192 0.44294396 0.977851
000040 e8 79 d3 bc 6a 5f d9 bd 08 41 78 3e c5 25 fb 3d
       -0.025814965 -0.10613902 0.24243557 0.12263063
000050 6d b8 99 be a7 33 76 3e 99 a6 cd bd d4 fc 39 be
       -0.30023518 0.24043141 -0.100415416 -0.18162853
000060 15 c4 62 3e 91 67 f4 3e 9d 85 2d 3e 9f 01 06 bf
       0.22145112 0.47735265 0.169455 -0.52346224
000070 cb 06 ae bc c4 d3 41 bf 04 d1 21 3d 60 da 3d be
       -0.021243474 -0.75713754 0.039505973 -0.18540335
000080 8c 1e 00 bf 4e 0d 3a 3e ef 1f 02 be 62 ae f8 3e
       -0.5004661 0.18169138 -0.12707494 0.48570544
000090 8d 53 a5 be 7e 47 99 bf cc 00 37 bf e7 31 61 bf
       -0.32290307 -1.1974943 -0.7148559 -0.8796677
0000a0 ec 6d 02 bf 3b c4 9d 3e fd 90 2f be 6a e6 96 3f
       -0.5094898 0.30813774 -0.17145152 1.1789067
0000b0 0e 90 06 3f 4e 34 9a be a7 7f 79 be f2 30 85 be
       0.5256356 -0.3011803 -0.24365102 -0.26013905
0000c0 91 df 09 bf a1 be 6c 3e 2b d2 89 3e 6c cb be be
       -0.5385676 0.23119594 0.26918158 -0.37264574
0000d0 78 be e7 3e f4 ba d3 bd 6d e2 04 bf 73 6d 72 3d
       0.45262504 -0.10338393 -0.51908 0.05918641
0000e0 7d 8e 4c be 63 0e 23 3f aa 8f 09 bf de 0e 9a 3e
       -0.1997623 0.6369383 -0.5373484 0.30089468
0000f0 4f 40 bc 3d bd bb 6b bf f1 91 9f 3e 5a 16 62 bf
       0.091919534 -0.9208334 0.31166032 -0.88315356
000100 94 61 2d be 78 a3 5f bf 85 2b 41 3f 6c ae 33 be
       -0.16931754 -0.8735881 0.7545703 -0.17547005
000110 52 75 f5 be 28 e6 dd be ca 00 08 be 72 1b 1e 3f
       -0.4794107 -0.43339658 -0.13281551 0.6176063
000120 73 09 a7 3e 4c 5c 4f be 9f 5c db be cc d3 7b bf
       0.32624397 -0.20250052 -0.42844102 -0.9837005
000130 b4 9f 60 be 7e c8 ac be 87 6d 5a 3e 0d f4 bc 3d
       -0.21935922 -0.33746713 0.21330844 0.092262365
000140 f8 3a fc bd 05 61 fc 3c 4a 4e 03 3f 71 3e a0 3c
       -0.12315935 0.030807981 0.51291335 0.019561024
000150 6a f1 17 3d a3 d9 78 3e f2 21 51 3e 23 de 8f be
       0.037095465 0.24301772 0.20423105 -0.28099164
000160 bd c8 4c be ae 81 bf bf 40 21 28 bf 1d a2 46 3f
       -0.1999845 -1.496145 -0.65675735 0.77591115
000170 3a d3 ea 3e 53 20 00 3f 2c 21 9b be e2 15 64 bf
       0.45864278 0.5004932 -0.30298746 -0.8909589
000180 90 23 d5 be a4 47 26 bf 55 cc ac be 51 a3 35 3e
       -0.41628695 -0.64953065 -0.33749643 0.17738082
000190 3f 9e cd 3e a8 03 37 bf be ef 97 3e 9a 29 74 3e
       0.40159795 -0.71489954 0.29675096 0.23843995
0001a0 8f 7c 46 3e 7b 9e 33 3f cf f2 66 bf 9f 2e 73 be
       0.19383453 0.70163697 -0.90214247 -0.23748253
0001b0 c3 40 39 3d 86 5d 3a bf c5 e1 58 3e ce 7b 27 bd
       0.045227777 -0.72798955 0.21179874 -0.040889554
0001c0 5d 0f 9e bd 38 8e 10 3d 60 45 10 3e ae c6 b6 be
       -0.07717774 0.03529188 0.14088964 -0.35698456
0001d0 42 ba 11 3e 24 3d 2e be a5 f3 ee be d3 60 cd bd
       0.14231208 -0.17015511 -0.4667026 -0.100282334
0001e0 8e 45 58 3e d0 89 e1 be 12 47 51 3e 6c a9 a6 bd
       0.21120283 -0.44050455 0.20437267 -0.081377834
0001f0 43 e2 a9 be b5 2d 98 3c 87 49 db 3e 72 83 06 3f
       -0.33180436 0.018576482 0.42829534 0.5254432
000200 0f d8 86 bd cc 14 ec 3e f5 28 0f 3f 0d 98 21 be
       -0.06584179 0.46109617 0.5592187 -0.15780659
000210 a2 3f 91 3f 71 a9 d4 3e aa a6 50 be d0 eb 75 be
       1.1347544 0.41535524 -0.20376077 -0.24015737
000220 12 aa f8 bd 1e bf fe 3e 22 97 48 3e ed 3b 36 be
       -0.12141813 0.49755186 0.19588903 -0.17796297
000230 41 43 13 be 79 50 9b 3e 76 db 1c be 45 4f d2 3d
       -0.14381124 0.30334833 -0.15318093 0.10269026
000240 2e ea 71 be 2f fb 93 bd a3 a4 e6 be ff 96 e9 3d
       -0.23624489 -0.07225644 -0.45047483 0.11405753
000250 75 26 89 be 22 bb 0f 3f fd 85 26 be d2 f7 79 3f
       -0.26787153 0.56144917 -0.1626205 0.9764377
000260 35 e6 00 be 79 7c 86 3f ad d1 55 3e 7f 7e 0e 3e
       -0.12587817 1.0506736 0.20880766 0.13915442
000270 34 9d 7a 3a 5b e5 9f 3c 4d 07 67 3d b4 f2 3e be
       0.0009560168 0.019518545 0.056403447 -0.18647271
000280 df 5f c2 3d 89 03 d0 be b9 95 48 3e 54 fc d8 3b
       0.09490942 -0.40627697 0.19588365 0.0066218767
000290 ea 62 1d bd 1f 19 b0 bd 9c 87 14 bc ec b9 62 3f
       -0.03842441 -0.085985415 -0.009065535 0.88564944
0002a0 5d 0f 9a 3e 3f fb 92 be 66 c9 26 bf 6a da 6f 3d
       0.30089846 -0.2870731 -0.6515106 0.058557905
0002b0 82 54 29 3e 0c b5 a5 3e 00 39 11 bf db 02 e3 be
       0.16536143 0.3236469 -0.567276 -0.44338116
0002c0 a6 73 32 3f 43 cc 7c 3e 3e 5d f2 3e 77 cf 28 3e
       0.69707716 0.24687295 0.47336763 0.16485392
0002d0 b1 59 6e bf 70 fb a3 3e 0d c4 58 3f 37 17 01 be
       -0.9310561 0.3202777 0.8467415 -0.12606512
0002e0 4d 16 15 3d b7 a1 2d be 64 50 f9 be 76 4b 93 3c
       0.03639822 -0.1695622 -0.48694146 0.017980319
0002f0 e4 94 10 3e 00 ae 26 3e 55 4a 18 3e bc b5 c7 be
       0.14119297 0.16277313 0.14872105 -0.3900584
000300 ce 95 d8 be 06 9f 00 be db c4 18 3e 8e 49 9e 3b
       -0.42301792 -0.12560663 0.14918844 0.0048305457
000310 85 2b 08 be c9 b9 ca bd 66 5d 4a 3e 15 7e ae 3e
       -0.13297851 -0.09898717 0.19762191 0.34080568
000320 0c c0 c5 bd f4 50 db bc 98 4a aa bd 9d 24 83 3f
       -0.09655771 -0.026772 -0.08315009 1.0245548
000330 07 c1 06 be eb 09 ac bc 4f 99 c0 3e b3 a0 6a 3f
       -0.13159572 -0.021000823 0.37616965 0.9165146
000340 76 ec e9 3e e5 f8 4a 3e 6c 41 ff bd 06 39 2d bf
       0.45688218 0.19821508 -0.1246365 -0.67665136
000350 53 e8 14 3e ce 75 d1 be 59 d2 f3 bd 64 04 c4 3f
       0.1454175 -0.4091019 -0.11905355 1.531384
000360 b8 41 f0 3e f4 3e 9a 3d b4 95 28 3c a4 ec 44 be
       0.4692514 0.075315386 0.010289598 -0.19230896
000370 ff 4d b8 3d b6 4f 3b 3f 91 93 2c be e0 c7 47 be
       0.089992516 0.73168504 -0.16853167 -0.1950984
000380 23 2b 8a 3f 56 34 de 3e 97 76 40 3f b8 34 2a 3f
       1.0794414 0.43399304 0.75180954 0.6648669
000390 6c f2 90 3e ad 07 89 3e 01 67 47 3d fc 3d 3f be
       0.28309953 0.2676367 0.048682217 -0.18675989
0003a0 87 92 6d 3e 2d 9c b9 3f ec 65 2c be af 68 d9 3d
       0.23200427 1.4500786 -0.16835755 0.1061567
0003b0 42 e6 25 3f 8a 9c 44 3f 01 27 c9 3e 85 76 3b 3e
       0.6480447 0.7680136 0.3928757 0.1830693
0003c0 c8 54 13 bf a1 03 e0 bd c6 4c eb be 21 06 29 3d
       -0.5755124 -0.10938192 -0.4595701 0.04126561
0003d0 4d 8c ed be 12 e3 37 3e 31 90 b8 3e e0 41 e7 3d
       -0.46396104 0.17957714 0.3604751 0.112918615
0003e0 0c b5 ea be 0a 41 2e 3e 1f e9 05 bf e1 38 0e bd
       -0.45841253 0.17016998 -0.5230884 -0.034722213
0003f0 3f cd c9 be 22 54 b9 3e 90 f4 d5 3e af 4c 1d 3f
       -0.39414403 0.36197 0.4178815 0.61445135

fc2.bias f4 [64]
000000 75 81 86 be 1a bd c2 be 6d a8 dc be ff 6b 84 be
       -0.26270643 -0.38034898 -0.4309725 -0.25863644
000010 83 42 ee be de 4d 33 be 7d bb b1 be 66 62 6b bf
       -0.4653512 -0.17510173 -0.34713355 -0.9194702
000020 ee e6 22 bf de c8 63 bc 91 fb 82 3d 2e f2 23 be
       -0.6363362 -0.013902871 0.06395639 -0.16010353
000030 11 e2 77 bd b4 cf 0b be 43 6c 91 3e 36 81 dd bd
       -0.060518328 -0.13653451 0.2840291 -0.10815661
000040 a4 3c 2a bf 0d f2 01 be 76 e8 db be dd 87 23 be
       -0.6649878 -0.12689991 -0.4295079 -0.15969796
000050 92 29 a0 be f0 5a ff be bd 7b ee 3c 14 8f a0 bd
       -0.31281716 -0.49874067 0.029111737 -0.0783979
000060 34 42 b0 be a6 55 83 3e d3 39 03 bf 89 b3 d3 be
       -0.3442551 0.25651282 -0.5126011 -0.41347912
000070 82 49 0d bf 1d e9 2e 3e c7 6b 8c be d4 51 24 3e
       -0.5519029 0.17081113 -0.27425978 0.1604684
000080 dd 6e 9c bc 14 a8 ee be 6d f5 eb be d0 98 1f bf
       -0.019095832 -0.46612608 -0.46085683 -0.6234255
000090 44 58 aa be b4 89 d5 be dc fa 1e bf 90 6a 1f 3e
       -0.33270466 -0.41706622 -0.6210153 0.15567994
0000a0 47 2c 8c bd 29 38 06 be 31 a0 07 be 5a 16 41 bf
       -0.06844383 -0.13107361 -0.13244702 -0.7542473
0000b0 4c 12 b2 bd 39 56 90 bf bb 5a 0f be 29 a5 19 be
       -0.08694896 -1.1276313 -0.13999455 -0.1500441
0000c0 5d ec 0e bf 61 91 77 bd a6 f1 15 bf 86 36 03 bf
       -0.5582941 -0.06044138 -0.5857185 -0.5125507
0000d0 88 09 73 be 45 5f 02 be 42 2b 54 be f5 f8 be bb
       -0.23734105 -0.12731655 -0.20719627 -0.005828018
0000e0 43 55 c4 bc 4d c7 27 be 3a ad 62 be b1 8a c2 3d
       -0.023966437 -0.16384621 -0.22136393 0.094991095
0000f0 19 ff bb be b0 e9 fa be 8d 7e 70 3e df 63 0e bf
       -0.36718062 -0.49006414 0.23485775 -0.5562114

fc3.weight f4 [2, 64]
000000 5d 1c a6 bf dc b7 89 bd cb 9f 65 bf 67 f2 93 bf
       -1.2977406 -0.067245215 -0.8969695 -1.155835
000010 49 d1 4c 3f 80 00 8f 3f bd 01 2b 3f 51 4a 81 bf
       0.80006844 1.1172028 0.6679953 -1.0100805
000020 38 f0 5f 3f 7d 36 0a 3f 6b 3e ac 3e 9d 58 f8 bd
       0.8747592 0.5398939 0.3364137 -0.12126277
000030 b0 a8 ca 3d 5f ba b0 be f7 0c d4 bd 40 36 28 be
       0.09895456 -0.3451719 -0.10354035 -0.16426945
000040 57 7d 9a 3d 62 c6 94 bc 69 90 b1 3f 93 b8 c3 bd
       0.07543438 -0.018161003 1.3872195 -0.09556689
000050 82 28 73 bf d7 94 9d bf cf ea 93 be 72 39 9d bf
       -0.94983685 -1.2311047 -0.28890082 -1.2283156
000060 99 49 68 3f e5 6d 1d be e5 98 d6 be 7c 72 50 3d
       0.907373 -0.15373953 -0.41913524 0.05089043
000070 0e be b0 be b8 5f d3 3d 07 c2 82 3e 6e 1b 21 3e
       -0.3452 0.10320991 0.25538656 0.1573312
000080 9f 35 f2 3e d3 3b 63 bf d0 af 7e 3e 15 12 64 bf
       0.47306535 -0.8876316 0.24871755 -0.8909009
000090 f0 c6 99 bf 06 4e 66 be fe 52 a9 3c dc 31 3f 3e
       -1.2013836 -0.22490701 0.020669457 0.18671364
0000a0 bf 39 2f bf 71 6b 0b 3f 5c 9c 15 bf 73 20 6f 3f
       -0.6844749 0.5446082 -0.5844171 0.9340889
0000b0 db 93 09 3f f9 97 a0 be 69 d0 9e 3f 54 cc 23 3f
       0.53741235 -0.31365946 1.2407352 0.63983655
0000c0 fe e0 6f bf 22 44 aa 3c cd 65 fe 3e 2b 05 ba 3e
       -0.93702686 0.020784441 0.49687043 0.36332068
0000d0 5d fe 2d bf ff 68 72 bd bc 44 cb 3f 16 f4 85 3d
       -0.6796625 -0.059182163 1.5880351 0.06540696
0000e0 98 81 16 be 18 fb cc be fe d2 ad 3e 2a c7 e9 3d
       -0.14697874 -0.4003532 0.33950037 0.11414941
0000f0 50 12 34 bf 40 5f 14 3f c3 49 15 bf b9 f4 0c 3f
       -0.7034044 0.5795784 -0.58315676 0.5506092
000100 47 ce cd bf c9 72 84 bf 5e 82 5f bf 88 5a 32 3e
       -1.6078576 -1.034753 -0.873083 0.17417347
000110 e3 56 9e bf 3d 63 99 bd a7 a3 69 3f e9 cf a9 3f
       -1.2370266 -0.07489631 0.9126534 1.3266574
000120 50 73 08 bf fe 32 d5 3d fd e3 b4 bf 9d 97 57 3e
       -0.5330095 0.104101166 -1.4132077 0.2105393
000130 58 8d 7d 3f 29 fa 14 40 87 7f 2d 3f c8 f5 43 bf
       0.990438 2.3277686 0.67772716 -0.7654691
000140 aa b6 95 be d7 78 cd bf 47 62 0e bf 86 09 d0 3f
       -0.29240924 -1.6052502 -0.5561871 1.6252906
000150 80 55 28 3f e2 86 8a bf 0a 28 66 3e b1 39 94 be
       0.6575546 -1.0822413 0.22476211 -0.28950265
000160 b6 12 39 3f e9 85 21 3f 45 07 9f bf 36 5c ae 3f
       0.72294176 0.63094956 -1.2424093 1.362189
000170 26 28 ef 3f 54 eb 22 c0 1d 80 6c bf c3 8c 51 bf
       1.8684127 -2.5456133 -0.92382985 -0.8185541
000180 af 5b d9 bd 17 ad 5e 3f 51 24 44 bf 0b b8 21 3f
       -0.106131904 0.86982864 -0.76617914 0.6317145
000190 0d 7d 18 3f 72 3e 6c 3f be c0 bf 3f 3e 03 c2 3e
       0.5956581 0.92282784 1.4980695 0.378931
0001a0 d3 88 fc be 28 68 8c bd a8 80 9d 3f 23 bf ac be
       -0.4932314 -0.06855804 1.2304888 -0.33739576
0001b0 e0 dc 66 bf 56 37 80 3f 91 91 2b 3e 90 ba 50 3f
       -0.9018078 1.0016887 0.16754748 0.8153467
0001c0 17 f7 87 bb aa 69 64 3f 9b 99 df bf bf 52 89 be
       -0.0041493285 0.8922373 -1.7468752 -0.26820943
0001d0 43 de 88 be f3 42 a4 be 00 0a 66 bf be 99 9c 3f
       -0.26732072 -0.32082328 -0.8985901 1.2234418
0001e0 6e 09 cb 3e 64 2f b1 3f f6 2f ae 3e d7 5f 4a 3f
       0.39655632 1.3842587 0.34020966 0.7905249
0001f0 12 f5 d3 be fa 84 1d bd af 5a 1a 40 fc 79 1a 3e
       -0.4139791 -0.038456894 2.411785 0.15085596

fc3.bias f4 [2]
000000 c9 4a a9 3d fa cc b9 3e
       0.08266217 0.36289197
