agent1_local.pth (torch_old, 49849 bytes, 10 tensors)

fc1.weight f4 [128, 24]
000000 e6 87 00 be 7d e3 2a bc 1a 0b 8a 3e 1b 40 e3 be
       -0.12551841 -0.010430214 0.26961595 -0.44384846
000010 79 69 73 be 04 5a 0a 40 64 b1 b9 3e 7c e2 00 bf
       -0.23770703 2.161744 0.3626815 -0.5034559
000020 32 60 0d 3e 17 84 99 3d b4 fe 91 3e de 06 22 bf
       0.13806227 0.07495897 0.28514636 -0.6329173
000030 a3 b4 da bc cf 95 4e 3f 57 26 70 3e c5 e7 0f bf
       -0.026697462 0.8069734 0.23452125 -0.5621303
000040 a0 f4 10 3e 04 d0 92 bd ce 76 31 3e d9 19 1f bb
       0.14155817 -0.07168582 0.17330477 -0.002427688
000050 7b 8a 48 3c 8f 27 49 bf b2 cb 2c 3e 59 d6 6c 3c
       0.012240048 -0.78575987 0.16874579 0.014455401
000060 0f f9 f6 be 60 67 cd bf 96 a6 3d 3e 00 2c 51 3d
       -0.48236892 -1.6047173 0.18520579 0.051067352
000070 cf 00 02 3f 3a 36 fb be 78 bf 31 3d 42 16 4b 3b
       0.50782484 -0.4906481 0.04339549 0.0030988608
000080 b2 5f 46 bf 55 84 f7 bf a9 b2 87 be 18 6a 69 be
       -0.7748977 -1.933726 -0.26503494 -0.22794378
000090 f4 fa 16 3e 0e 04 d7 be c9 f3 83 be 57 72 82 be
       0.14744169 -0.4199528 -0.2577193 -0.2547786
0000a0 4f 07 17 bf 8f f4 08 c0 6c c5 4e 3d b6 9c 53 be
       -0.5899553 -2.1399267 0.050481245 -0.20665249
0000b0 7c d4 6d bc 97 34 5d bf e4 d4 4a bd 36 c3 a0 be
       -0.014515992 -0.8640837 -0.049519435 -0.31398934
0000c0 a2 67 20 bf 53 86 9d bf 31 d1 1e 3e 1f 4c 11 bf
       -0.6265813 -1.2306617 0.15509488 -0.56756777
0000d0 61 c0 83 3d 30 b0 b0 3f 80 a1 25 3e 54 a6 09 bf
       0.06433178 1.3803768 0.16174889 -0.5376942
0000e0 5b e2 0a bf 1b b1 87 bf 1a ed ae bd b4 8f 59 bf
       -0.5425164 -1.0600923 -0.08541317 -0.849849
0000f0 d9 1b 2b 3d cb 02 d5 3f d8 96 58 bc c5 83 62 bf
       0.041774604 1.6641477 -0.013219558 -0.88482314
000100 f3 4e ee be 63 d3 9f bf d2 4e 0d 3d 4f 6e 69 bf
       -0.46544608 -1.2486385 0.034498997 -0.9118394
000110 75 43 52 3d e0 88 01 40 e9 90 f2 3d e2 0f 84 bf
       0.051333863 2.0239792 0.11844046 -1.0317347
000120 84 44 ac 3e bf 1f c4 be 07 a5 ef bc 05 86 6d 3e
       0.33646023 -0.3830547 -0.029253496 0.23195656
000130 a4 1b 94 bf 4c 17 dd bf af a7 a0 bd 9d 95 70 3e
       -1.1570935 -1.7272735 -0.07844483 0.23494573
000140 7b f3 aa 3e d2 9a c9 be fb d8 75 bd e1 63 15 bd
       0.33388886 -0.3937593 -0.06002138 -0.036472205
000150 2b 52 ca bd 18 e5 aa bf a6 3c ff bd 48 4c 60 bd
       -0.098789535 -1.3351164 -0.1246274 -0.054760247
000160 d3 6c cc 3e 17 ac 20 bf ae f7 3d bc ad 2c 36 bf
       0.39926776 -0.6276259 -0.011594696 -0.7116192
000170 95 e1 9c 3f c9 2b c3 be 56 cb 04 3d 37 f4 0e bf
       1.2256342 -0.38119343 0.03242048 -0.5584139
000180 f3 d0 80 3d ae 25 cc be eb 9e 17 3e 56 ef e0 be
       0.06289854 -0.39872497 0.14806716 -0.439326
000190 f9 89 22 3e 9b c1 d9 3f 2c 6e 53 3e f2 a8 e9 be
       0.15872945 1.7012209 0.20647496 -0.45636708
0001a0 bf e1 ae bb b5 82 a6 be 3e 8e 9e 3d c0 f7 90 be
       -0.0053369696 -0.32521597 0.07741974 -0.28314018
0001b0 da 5f 5f 3d 1f 9d 4e 40 ee ea 3d 3d bf 56 a3 be
       0.05453477 3.22834 0.046366625 -0.3190212
0001c0 da 87 a8 bd b1 e8 d1 be c3 62 d7 3d 3c 48 8f be
       -0.08229037 -0.40997842 0.10516884 -0.27984798
0001d0 5a 39 d5 3c 5a 9b 4b 40 11 c2 b1 3d 2f 21 50 be
       0.026028324 3.181357 0.08679593 -0.20325159
0001e0 af 90 40 bf a1 85 74 3f 31 4d 1b be d8 58 5a be
       -0.7522077 0.955164 -0.15166165 -0.21322954
0001f0 da 26 a0 3c 27 dc 36 bf be 6d cc bd 5c 2b b0 be
       0.019549776 -0.71429676 -0.09981869 -0.3440808
000200 14 2d 26 bf cd 77 81 3f c9 ca 9d 3d 5b 3d 23 3f
       -0.64912534 1.0114685 0.07704694 0.63765496
000210 42 ad c5 3e b4 f1 bc bf 91 41 d2 3c f8 49 01 3f
       0.38608748 -1.4761262 0.02566603 0.5050349
000220 af e1 17 bf e1 62 9c 3f d8 9d 70 3d 34 b2 d1 bc
       -0.5932874 1.2217675 0.05874428 -0.02559767
000230 80 da 26 3f cd 0a eb bf 86 ef 24 3e 07 b8 4c 3d
       0.65177155 -1.8362671 0.16106996 0.04998019
000240 d5 0c a3 3e 29 83 98 be ef 05 80 3d fc e3 16 3f
       0.31845728 -0.29787567 0.06251132 0.58941627
000250 e0 fa 88 be 20 f9 f7 3c f4 44 2c bb fa 70 20 3f
       -0.26753902 0.03027016 -0.0026286216 0.6267239
000260 7c a2 55 3f 59 4d 1e 3d 6e 50 f8 bc 1d dd 6e 3f
       0.83451056 0.038647983 -0.03031179 0.9330614
000270 79 ad 83 bd f7 b8 ed be c2 87 a6 3d 8f 2f 72 3f
       -0.06429572 -0.4643018 0.081313625 0.9460382
000280 3e dd 94 3f bb d6 8b 3e 24 47 00 be 1e 66 d6 3e
       1.1630018 0.27312264 -0.12527138 0.41874784
000290 cc 2f 04 3e 1d c3 1d bf 42 b8 a7 bd d0 ed bf 3e
       0.12908858 -0.61625844 -0.08189441 0.37486124
0002a0 86 aa 58 3f 9b ae 1d 3f e7 b7 c9 bc ba 49 12 3f
       0.846352 0.6159455 -0.024623824 0.5714375
0002b0 36 cf c2 3d 24 80 7a bf 5e 4d aa bd 6a f5 01 3f
       0.095121786 -0.9785178 -0.08315538 0.507651
0002c0 f1 90 0c 3f 6e 38 41 3f 61 4a a8 3e 70 de 7f 3d
       0.54908663 0.7547673 0.32869247 0.062467992
0002d0 63 f8 25 3e 33 e4 4d bf 52 49 cb 3e 9f ec 8e bc
       0.16208033 -0.8042633 0.39704376 -0.017446814
0002e0 40 3c b7 3e f7 ce 39 3f 07 db 40 bd 92 bd 24 be
       0.35788155 0.7258143 -0.04708388 -0.1608794
0002f0 76 e1 54 bc 96 06 54 bd c0 2a 52 ba a0 49 bf bc
       -0.012993207 -0.051764093 -0.00080172345 -0.023350537
000300 10 29 2c bf d7 89 0f 40 9c e4 da bc 21 db 20 3f
       -0.67250156 2.242788 -0.026720338 0.62834364
000310 26 05 ec 3e 2c 1a c0 3d d7 98 d9 3c 21 44 3a 3f
       0.46097678 0.09379992 0.026562138 0.72760206
000320 17 bc 33 bf a2 de 1b 40 ed e3 4a 3e a8 42 81 bc
       -0.7020888 2.4354634 0.1981351 -0.015778854
000330 96 db e4 3d e2 c5 34 be ee 35 1a 3e cd 14 c2 bd
       0.11174695 -0.17653611 0.15059635 -0.09476624
000340 c5 59 37 bf 5c 80 12 40 79 c1 02 bd 87 1c ea be
       -0.7162135 2.2890844 -0.03192279 -0.4572489
000350 76 5b 46 be 65 25 1a be b6 76 2e be 82 a8 cc be
       -0.19370827 -0.15053327 -0.17037472 -0.3997231
000360 80 c8 06 3f ff bd aa 3e ca 5e bc bd 15 fb b0 3c
       0.5264969 0.3334808 -0.09197767 0.0216041
000370 16 6e f0 be 91 77 88 bf 8b bd 69 bd bc 41 87 bd
       -0.4695899 -1.0661489 -0.057065528 -0.06604335
000380 c0 4d b5 3e 81 89 8b 3e b3 7c 7e 3c 60 b2 fe bd
       0.3541088 0.27253345 0.01553266 -0.12436366
000390 7c fd fc be 7e 5c 42 bf a3 ef 0c 3c f6 40 7d bd
       -0.49412143 -0.7592238 0.008602056 -0.06182953
0003a0 e6 cf db 3e a2 9e ea bc c3 18 95 3e 0f 3f b4 bf
       0.4293205 -0.028640095 0.29120454 -1.4081744
0003b0 4e 12 af be 36 62 44 3e 0a 45 bf 3e 7a eb a7 bf
       -0.34193653 0.1917809 0.3735736 -1.3118737
0003c0 ce ca 11 bf fd 6d f9 be 50 de 14 be 30 1e 21 3e
       -0.5695008 -0.48716727 -0.1453793 0.15734172
0003d0 05 21 80 bf 33 f3 ae bd da 3b 2b be d5 70 14 3e
       -1.0010077 -0.0854248 -0.1672205 0.14496167
0003e0 f8 be f8 be 77 94 a6 bd ca 19 9c be 5c 88 8c 3f
       -0.48583198 -0.08133786 -0.30488425 1.0979114
0003f0 40 07 2e bf 3f 8b 04 3f bd 00 98 be b9 61 89 3f
       -0.6797981 0.5177497 -0.29688063 1.0732948

fc1.bias f4 [128]
000000 69 43 7e bf b7 d5 7f be b0 94 9f bd 99 cf 97 bf
       -0.9932161 -0.2498387 -0.07792032 -1.1860229
000010 3d 0a f3 bf 04 ac fe be c0 27 df bf 15 4b f5 bd
       -1.89875 -0.49740613 -1.7434006 -0.119772114
000020 ab d6 14 be 92 4c 8a bd 53 80 8c be fd 7c 76 bd
       -0.14535014 -0.06752886 -0.27441654 -0.060177792
000030 b2 0d e8 be 71 8a f6 bf 07 17 e5 be d8 73 96 be
       -0.4532295 -1.9260999 -0.4474413 -0.29385257
000040 77 04 99 bf e9 ba bf be f4 78 b8 bf 18 1c 39 bf
       -1.1954488 -0.3744729 -1.4411912 -0.7230849
000050 41 27 73 bf bd 6d be bf 9b 60 f4 3e 37 31 09 bf
       -0.9498177 -1.487724 0.47729954 -0.5359072
000060 95 b8 a1 bf 94 3b 22 bf 67 51 33 bf ef a9 42 bf
       -1.2634455 -0.6337216 -0.70046085 -0.7604055
000070 94 35 8b be 32 32 25 bf 36 86 aa bd 30 c4 15 bf
       -0.27189314 -0.64529717 -0.0832638 -0.58502483
000080 0b 05 73 be ae 73 74 bf 33 f7 b9 3e e0 7b c5 3d
       -0.23732392 -0.95489013 0.3632141 0.09642768
000090 c1 9c 4d bd af 4a 74 bf 7f 98 0f bd 49 63 ea 3c
       -0.05019832 -0.9542646 -0.03505754 0.028611796
0000a0 4c b1 09 bf 8a 32 2e bf 96 e6 87 bf b3 17 cf bf
       -0.5378616 -0.68045866 -1.0617244 -1.6179107
0000b0 2f f6 2d bd 69 17 95 bf 96 09 05 3e ab 64 03 bf
       -0.042471107 -1.1647769 0.12991938 -0.5132548
0000c0 27 40 97 be c1 4f cc bf b0 9a 30 bf 35 8b 90 be
       -0.29541132 -1.5961839 -0.68986034 -0.28231207
0000d0 f1 7a 4b bf cd d4 93 bf 8a ac 5e bf 8e 92 8e be
       -0.7948447 -1.1549317 -0.86982024 -0.27846187
0000e0 51 76 47 bf 46 28 36 bf 9f 28 87 bf 01 fc dd be
       -0.7791491 -0.711552 -1.0559272 -0.43356326
0000f0 56 8c 20 3e 3a db a5 3e 5b 2b 56 bf 67 11 88 bf
       0.15678534 0.3239382 -0.83659905 -1.0630311
000100 e2 57 77 bd ad 11 a5 3e d1 f6 a4 be 90 1a ca 3e
       -0.060386546 0.32240048 -0.32219556 0.3947339
000110 33 91 18 bf 53 d1 9b 3e 78 ef 4f be 0d 33 09 c0
       -0.59596556 0.3043314 -0.20306194 -2.143741
000120 2a 77 36 bf 48 88 e9 be 1e 04 2a bf dc f2 44 bf
       -0.7127558 -0.45611787 -0.6641253 -0.76933074
000130 a3 7d cf be ec 36 41 be 98 91 02 3e 0f d0 6f be
       -0.4052554 -0.18868607 0.12750852 -0.23419212
000140 7b e8 00 c0 f7 d4 73 bf ea a9 d2 be 42 ee 0c bf
       -2.0141895 -0.95246834 -0.4114526 -0.5505105
000150 fd 87 9d be a4 c2 a6 bf aa de 84 bf 24 be a1 3f
       -0.30767813 -1.302815 -1.0380452 1.2636151
000160 81 f6 5e bf e0 ba 1e 3f 78 14 b1 be a6 48 9a bf
       -0.87094885 0.620039 -0.3458593 -1.205342
000170 e8 91 91 be ed 4d 79 bf e7 2c ad bf f3 d9 a1 3c
       -0.2843163 -0.9738453 -1.3529328 0.019757247
000180 ce 12 b4 bf d3 19 01 be 25 2c 6f bf 7a 60 03 3e
       -1.4068239 -0.12607507 -0.93426734 0.12829772
000190 25 47 87 be d6 a7 0b bf 89 8d 79 3d 94 80 11 bf
       -0.26421466 -0.5455297 0.060925994 -0.5683682
0001a0 d4 ee 08 bf d5 1d e6 b9 ad 2e 96 be 12 8c a1 bf
       -0.5348942 -0.00043891245 -0.29332486 -1.2620871
0001b0 89 76 c0 bf 78 13 0e bf 43 d1 78 bf 3c 32 18 3f
       -1.5036174 -0.55498457 -0.9719431 0.5945165
0001c0 aa 4c 83 be b7 52 3f bf 39 3c 52 bf 4b b1 b5 bf
       -0.25644428 -0.7473559 -0.8212314 -1.419473
0001d0 71 d7 1e bf 10 23 ae be 75 8b e0 3e 88 aa 0f bf
       -0.6204749 -0.34011126 0.43856397 -0.56119585
0001e0 95 a3 57 bf 32 82 c3 be d7 0a 66 bf 1d 1e 5b bf
       -0.8423398 -0.3818527 -0.8986029 -0.85592824
0001f0 cf 8c 72 bf 39 03 35 bf 30 c9 91 be 89 e3 4f bf
       -0.94746107 -0.7070804 -0.28473806 -0.81206566

bn1.weight f4 [128]
000000 2e c8 23 3e 95 02 3a 3f 79 f2 7a 3e 06 89 4f 3f
       0.15994331 0.7266019 0.24506558 0.81068456
000010 fa 17 9f 3f 18 4e 48 3f e0 c0 19 3f c0 ea 56 3f
       1.2429192 0.7824416 0.6005993 0.8395195
000020 3e 6e 69 3f 5f 2f b8 3e 3f d6 db 3d 9c 3b d7 3f
       0.9118384 0.3597364 0.107342236 1.6815066
000030 50 f7 f6 3e 0e ea b2 3f 3d f9 d7 be ae 5d 90 3e
       0.4823556 1.3977678 -0.4218234 0.28196472
000040 5e c5 e8 3e 52 24 d2 3e ba 0d 4c 3f 10 d5 56 3f
       0.4546308 0.41043335 0.79708445 0.8391886
000050 32 51 c5 3d a5 ec 84 3f b2 90 a2 3f 77 67 9c 3f
       0.096346274 1.0384718 1.2700408 1.2219075
000060 0e f9 09 3f f7 98 b8 3e 46 6a d2 3e 7e 42 b3 3e
       0.5389565 0.36054203 0.41096705 0.35011667
000070 aa 4c d7 3e a3 2d 98 3e b3 57 e5 3e cc 75 fd 3e
       0.42050678 0.29722318 0.44793472 0.49503934
000080 80 e3 6f 3e 64 bf 3b 3f 64 39 d2 3e e6 3a 99 3f
       0.23426628 0.73338914 0.4105941 1.1971099
000090 cc db 28 3e db a8 c9 3e fa a3 48 3d e2 ad b0 3f
       0.16490096 0.3938664 0.048984505 1.3803065
0000a0 b2 41 72 3f e1 09 d6 3e e9 e1 7a 3f 29 71 01 40
       0.94631493 0.41804412 0.9800096 2.0225317
0000b0 48 90 6c 3f de 23 27 3f 45 7b 3d 3f cb 2c 00 3f
       0.92407656 0.65289104 0.7401622 0.5006835
0000c0 34 2c 33 3f 92 ce 8b 3e 57 3d 49 3e c4 17 d4 3e
       0.69989324 0.27306038 0.19652306 0.41424382
0000d0 2a 97 af 3f ea ab 17 3f 97 9c 63 3f 57 19 09 3f
       1.3718007 0.59246695 0.8891081 0.5355429
0000e0 01 f7 09 3f c9 e1 02 3f 0b 53 06 bf 7c f6 d3 3e
       0.53892523 0.5112577 -0.52470464 0.4139899
0000f0 64 18 17 3f 99 5e 20 3f 34 e8 a7 be c5 fd c5 3f
       0.5902159 0.62644345 -0.32794344 1.5468069
000100 56 f3 06 3f 00 25 4c 3e c9 c5 a3 3f 9f fb b5 3e
       0.5271505 0.1993599 1.2794734 0.35543534
000110 18 2d cd 3f 87 ed 89 3f fe 10 c5 3f 75 0c 26 3f
       1.6029387 1.0775613 1.5395811 0.6486276
000120 17 56 c1 3f f6 3d 6b 3f 76 a0 a5 3f f7 81 bc 3e
       1.5104398 0.9189142 1.2939594 0.36817905
000130 57 a2 bc 3d 2b 55 ee 3e b3 8d 64 3f 10 7a cb 3f
       0.09210651 0.46549353 0.89278716 1.5896626
000140 1a 15 0b 3f 60 64 d2 3e 96 da 33 3f f0 ae 21 3f
       0.54329073 0.41092205 0.7025541 0.6315756
000150 11 b2 87 3e 10 70 68 3f 8d a0 6d 3e 77 ac 41 40
       0.2650304 0.90795994 0.23205777 3.0261514
000160 a2 90 06 3f 04 fc b2 3f ea e3 bf 3f 42 62 76 3f
       0.5256444 1.3983159 1.4991429 0.9624368
000170 8b a8 87 3e 6b f0 c3 3f b7 9b 95 3e 7a f5 7e 3f
       0.26495776 1.5307745 0.29220363 0.9959332
000180 e2 af db 3e 06 ee 4c 3f 4c 80 e9 be ad 1f f7 3e
       0.42907625 0.80050695 -0.45605695 0.48266354
000190 8d 97 30 3f bf 4b ef 3e 70 7c c8 3f f4 20 5c 3f
       0.6898125 0.46737477 1.5662975 0.8598778
0001a0 a6 7c 04 3f 1f be cd 3f 68 f9 0b 3f bc f3 9d 3e
       0.517527 1.6073645 0.5467744 0.30850017
0001b0 c3 47 c4 3e 76 6b 12 3f 67 63 32 3f ef cb a7 3d
       0.38336 0.5719522 0.69682926 0.08193194
0001c0 13 1e 5c 3f a1 19 2e 3f df bc 0f 3f 26 0c 39 3f
       0.8598339 0.68007857 0.5614757 0.7228416
0001d0 da 79 60 3f 68 70 35 3f 11 09 33 3f 88 9e b2 3e
       0.8768593 0.70874643 0.6993571 0.34886575
0001e0 60 c9 e0 3e e3 5d 99 3f b2 46 18 3f e7 a5 ef 3e
       0.43903637 1.1981777 0.5948287 0.4680626
0001f0 a8 70 16 3f fa e0 9b 3f 06 07 b5 3e f7 00 31 3f
       0.5876565 1.2178032 0.3535692 0.691421

bn1.bias f4 [128]
000000 d4 92 86 bd bb 33 b7 3e 37 3d c9 3e 9a 69 f1 3d
       -0.06570974 0.35781655 0.39304516 0.1178772
000010 de f9 88 3d a1 8e 68 3d 9d a4 96 3e 42 1d 9e 3e
       0.066882834 0.056776647 0.29422465 0.30881697
000020 7b 59 e7 3e a3 11 67 3d 3d ea 99 3e 99 29 48 bd
       0.45185456 0.056413304 0.30061522 -0.048867796
000030 86 50 a2 bd fe 1f 03 3f 65 c3 04 bf a2 d0 7f be
       -0.07925515 0.5122069 -0.5186065 -0.24981931
000040 62 04 88 3f 5a 70 6e 3d b8 f7 bc 3e cf 48 b6 3d
       1.0626338 0.058212616 0.36907744 0.08900606
000050 c2 b9 8b 3f 92 8f 80 3e 61 60 af 3e f9 9b d9 3e
       1.0916064 0.25109535 0.3425322 0.4250181
000060 4e d7 12 3e 92 93 17 3d 0e 9f 1e bf 06 3f 4f 3f
       0.14339945 0.03700597 -0.6196145 0.8095554
000070 f8 ec f7 be 4e 5c 3a 3f 41 f1 3a 3f cb e5 44 3f
       -0.4842298 0.72797096 0.73024374 0.76913136
000080 2c 4a 9a bc b2 2b e5 be f2 4c ba 3e e7 f7 85 3e
       -0.018834196 -0.447599 0.3638683 0.26165697
000090 3f 8e de 3e 89 af e8 3e a1 ac 57 3b a0 78 cc 3e
       0.434679 0.45446423 0.0032909291 0.3993578
0000a0 a1 9c 33 3f 44 a1 00 bf 8f 0f 3e 3f b3 fb a8 3e
       0.7016087 -0.5024607 0.7424249 0.3300453
0000b0 38 3d 23 3f 6c 8e a6 bc 8e 64 ee bd 6a 8d c5 3e
       0.6376529 -0.020331584 -0.11640273 0.38584453
0000c0 e9 43 20 3f 9f bf 40 be 59 2d 9f 3e fe 87 f4 3e
       0.6260362 -0.18823098 0.31089285 0.47760004
0000d0 0b 1b e3 3e 13 12 0b 3f fe 26 9b bd a8 60 94 3f
       0.4435657 0.54324454 -0.075757965 1.1591997
0000e0 a3 2c 90 3e 09 cb d8 be 50 a5 97 3f be 8f 23 3f
       0.28159055 -0.42342404 1.1847324 0.6389121
0000f0 85 b8 31 be 86 22 b5 3e 4e fe 1f be ec 57 a2 3f
       -0.17355545 0.35377902 -0.15624353 1.2683082
000100 a7 12 31 bd bc 83 4c 3d 39 c1 f4 3e fd f3 87 3e
       -0.04323068 0.04993032 0.47803667 0.26553336
000110 f8 4c 2d 3f e6 43 70 3e bc d7 1f bb 4c 59 43 3e
       0.6769557 0.23463401 -0.0024390062 0.19077033
000120 52 53 05 3f db 5f 9a 3d 06 cc 3c 3f 28 d9 12 3d
       0.5208026 0.07537814 0.73748815 0.035851628
000130 2f c9 16 3e fe 4e 83 3d dd 5c 17 3e 1b a1 17 3e
       0.14725183 0.06411551 0.14781518 0.1480755
000140 30 29 07 bc c1 ff a6 b9 62 b6 19 bd 28 56 89 be
       -0.008249566 -0.0003185254 -0.03752745 -0.26823545
000150 84 d4 ee bd 28 fe 10 be 9f 2a bc 3d e4 e2 0b be
       -0.11661628 -0.14159453 0.09187817 -0.1366077
000160 4d 59 98 3c 75 24 c0 3e 07 94 e5 3e 43 ba f1 bb
       0.01859727 0.37527815 0.44839498 -0.0073769405
000170 14 9f 3b 3f 01 86 b5 be 8b 4d 9c be b6 d0 22 3f
       0.7328961 -0.354538 -0.3052791 0.6359972
000180 7f 10 c4 bd 80 5c 44 bd 56 6c 36 3f da 9c 1f 3f
       -0.09573459 -0.047939777 0.7125906 0.6234871
000190 a5 53 82 be b1 4f 55 3f 33 88 fe 3e ac 9f a9 3e
       -0.2545444 0.83324724 0.49713287 0.33129632
0001a0 1f e7 47 3e 46 81 58 3d 15 a7 26 3f d8 90 db be
       0.1952176 0.05285766 0.65098697 -0.42883945
0001b0 1a d0 58 bc f8 b7 b7 be d6 76 b3 3e 0b bf 7e be
       -0.013233209 -0.35882545 0.35051602 -0.24877565
0001c0 a7 7c 9e 3f 9b c3 5e be 53 45 84 3f 5d f7 e0 bc
       1.2381791 -0.21754305 1.0333656 -0.027461702
0001d0 4b f7 63 3b 3c c9 6f be d9 6f 96 bc c9 b1 d4 bd
       0.003478485 -0.23416609 -0.01836388 -0.10385472
0001e0 15 9e 34 3e 98 49 cc 3d 09 b1 65 3f 6f 2f 6c 3e
       0.17638429 0.099749744 0.8972326 0.2306497
0001f0 f4 e7 e5 3e b9 c9 4d 3e 5f d9 a0 be 2b 96 db 3d
       0.4490353 0.20096482 -0.3141584 0.10722002

bn1.running_mean f4 [128]
000000 ce 97 75 41 90 d1 0a 41 dc 28 05 42 31 7c a0 3b
       15.349562 8.676163 33.2899 0.0048976173
000010 3b be 05 42 63 e8 aa 40 1b f1 72 3e ca 8d 90 3f
       33.435772 5.3408675 0.23724787 1.129327
000020 5f ed 69 41 76 1c 2b 40 13 2d 95 41 0d a9 09 3f
       14.620452 2.673612 18.647009 0.53773576
000030 40 88 f6 3f a3 83 d8 40 59 0d 44 40 96 9c 02 41
       1.926033 6.766069 3.0633147 8.163229
000040 5a 4b e1 3f 33 4c 4c 3d 26 05 15 3f 19 c3 42 12
       1.760112 0.049877357 0.5821098 6.1456083e-28
000050 da b1 a4 3e 72 5d 85 3f d2 a9 81 41 9c ed d1 40
       0.3216694 1.0419142 16.20792 6.560255
000060 39 5e d9 3f 3a 9a 8b 3f 58 ce c6 3f 21 22 54 3c
       1.698188 1.0906441 1.5531721 0.01294759
000070 3f ca 24 41 19 4f a3 40 6a 39 12 42 a8 90 1e 3f
       10.2993765 5.1034055 36.55607 0.6193948
000080 89 76 29 41 31 63 f9 3e bd d8 a5 40 f6 1a 11 40
       10.591439 0.4870849 5.1827073 2.2672706
000090 1d e1 31 40 6f 2e 83 3d ce 7b ac 41 83 ae 1b 40
       2.7793648 0.06405341 21.560452 2.4325264
0000a0 97 81 ce 40 e6 d5 75 40 04 71 87 40 65 50 bf 3f
       6.453319 3.8411803 4.232546 1.494641
0000b0 4a 74 44 41 db 26 26 3c 66 4f 21 40 4a e2 0f 41
       12.278391 0.0101411 2.520471 8.992746
0000c0 bc 68 0d 41 06 1d 86 3f 2c bc e0 40 c5 56 50 41
       8.83807 1.0477607 7.02297 13.021184
0000d0 13 f4 e4 41 3d 22 bd 40 9b 75 6f 34 f5 50 f0 40
       28.619177 5.9104295 2.2301394e-07 7.5098825
0000e0 26 8e 0c 40 57 2f 59 3f 68 6d 85 3f 23 e7 a5 41
       2.196176 0.8483786 1.0424013 20.73786
0000f0 b1 db 5a 41 d2 ad aa 41 74 11 31 3a 58 4e 98 40
       13.678636 21.334873 0.0006754615 4.7595634
000100 e7 9b ab 3b ad 86 95 41 64 86 c5 41 dc db 8c 41
       0.005237091 18.69076 24.69062 17.607353
000110 ec 29 34 40 b5 f6 08 41 69 87 70 3f 09 4f b3 3f
       2.8150587 8.560231 0.9395662 1.4008495
000120 91 28 00 41 aa 13 be 3e f7 89 8f 3b f0 21 79 3f
       8.009904 0.37124377 0.0043804604 0.9731741
000130 68 0d 6f 3f 2c f7 f6 3e 08 09 1b 3e 12 a5 14 40
       0.9337983 0.48235452 0.15140164 2.322575
000140 4d 76 d3 3a 0b c4 8f 3e 5a 60 44 3f ca 53 61 3f
       0.0016133279 0.28079256 0.7670952 0.88018477
000150 23 0b f8 40 46 59 b9 40 04 00 00 00 f0 d7 c3 40
       7.7513595 5.7921476 6e-45 6.1201096
000160 a2 e5 a7 40 45 d5 ee 40 d5 38 79 3f c0 8e 50 3f
       5.2467813 7.463534 0.97352344 0.8146782
000170 ba 1f 30 41 b7 f0 4d 41 3c 74 73 40 83 81 c2 3f
       11.007746 12.871268 3.8039694 1.5195774
000180 b0 bf 2a 40 2b 6a 1a 3f 7e aa 03 3f d8 c0 ef 41
       2.6679497 0.6031825 0.51432025 29.969162
000190 04 00 00 00 ec 54 18 40 f6 3f 29 40 f9 ec 7b 41
       6e-45 2.3801832 2.6445289 15.745355
0001a0 95 7a 1d 41 93 67 51 41 58 45 b2 40 18 18 19 3f
       9.842427 13.087787 5.570965 0.5980239
0001b0 94 2f 1f 3e 10 d0 80 3a 22 c7 79 40 00 fe 79 41
       0.15545493 0.0009827632 3.902779 15.624512
0001c0 4e 50 bb 40 2b 78 9d 3a b5 c1 f4 40 04 00 00 00
       5.853553 0.0012013962 7.648646 6e-45
0001d0 09 bb 03 3f 1a 1d 4c 3f 35 ad b1 41 4c 71 58 41
       0.5145727 0.79731905 22.209574 13.52766
0001e0 b6 57 d5 40 36 c7 a6 3f c7 2f 55 3f 1f 2f 6a 3d
       6.666957 1.3029544 0.8327603 0.057173844
0001f0 8d bd 24 3c c9 ce 0f 41 a1 cb 58 41 b1 ad 61 3f
       0.010054958 8.987985 13.549714 0.8815566

bn1.running_var f4 [128]
000000 ab bd 96 43 58 b7 b9 42 1d 39 9f 43 43 c9 b3 3c
       301.48178 92.85809 318.4462 0.021946555
000010 5d 23 8f 43 f3 3f 92 42 d2 89 f3 3f 1f 5b ff 40
       286.27628 73.1249 1.9026434 7.979873
000020 c0 c2 dd 42 42 fc 67 42 cb 41 c6 43 a9 ca 71 40
       110.88037 57.996346 396.514 3.7779944
000030 1c 94 ee 41 65 40 ad 42 9e 44 46 42 1a e6 5e 43
       29.822319 86.62577 49.56701 222.89883
000040 6e 7e cf 41 81 ef 03 3f eb 5c 89 40 35 5b eb 11
       25.936733 0.5153733 4.2925925 3.7132673e-28
000050 04 cf 4d 40 7b 82 0e 41 ad 3b ac 43 eb 9c 44 42
       3.2157602 8.906856 344.46622 49.15324
000060 13 6c 99 41 3f 0e 61 41 87 eb d4 41 ec 86 57 3d
       19.17777 14.065978 26.615004 0.052618906
000070 f6 b5 35 43 20 35 8a 42 50 0b 7c 43 87 b8 ed 40
       181.71078 69.10376 252.04419 7.4287753
000080 dd 0b 5c 43 ec e9 95 40 dd 91 d3 42 d6 ae d2 41
       220.04634 4.684805 105.78489 26.33537
000090 35 b5 10 42 57 0c 39 3f 6c b9 99 43 d1 c7 89 41
       36.17696 0.72284454 307.4486 17.222567
0000a0 ab 96 6b 42 b4 35 81 42 09 9b d5 42 44 ba d6 40
       58.897137 64.60489 106.8028 6.7102375
0000b0 f9 c8 1d 43 c2 41 b1 3d 5c 4e dd 41 01 44 ed 42
       157.78505 0.086551204 27.663261 118.63282
0000c0 03 3a ce 42 aa a8 51 41 d1 9f 42 43 c7 a0 2f 43
       103.113304 13.103678 194.62428 175.62804
0000d0 29 6c 7b 42 e7 98 cf 42 19 77 04 35 7a 6c 30 43
       62.855625 103.79864 4.934714e-07 176.42374
0000e0 df dc e0 41 f0 7e 40 41 04 7e 6a 41 ab de b5 43
       28.107847 12.030991 14.655766 363.7396
0000f0 dd f5 9a 43 6b 00 a7 42 b1 f7 04 3b d4 72 56 42
       309.9208 83.50082 0.0020289237 53.612137
000100 63 5b 06 3d 4b f2 2d 43 c8 33 f1 42 4f c0 84 43
       0.032801997 173.94646 120.601135 265.5024
000110 d8 4c 88 41 ad fc a3 42 ac 8b 0b 41 ac 0f 58 41
       17.037521 81.99351 8.7216 13.503826
000120 cc 7a 93 42 ee ed 9c 40 87 8b 7f 3c ea 21 33 41
       73.73984 4.904044 0.015597231 11.19578
000130 2e 21 24 41 35 57 98 40 5a 33 ce 3f 05 5a 2a 42
       10.2581005 4.7606454 1.6109421 42.58791
000140 a7 96 d4 3b b0 d3 33 40 05 f1 2e 41 fc 63 e0 40
       0.0064876857 2.8097954 10.933843 7.012205
000150 20 af 77 43 42 4a d8 42 04 00 00 00 b9 fe 2d 41
       247.68408 108.145035 6e-45 10.874688
000160 eb 83 c7 42 0e 96 b9 41 f0 35 08 41 4b 9d 01 41
       99.75765 23.198269 8.513168 8.100902
000170 ad 2c 97 43 e0 74 8b 43 ad 9d 8f 42 dc c8 bb 41
       302.34903 278.9131 71.80796 23.473076
000180 c4 32 55 42 b6 c3 a4 40 1f 45 89 40 d2 3a 1a 43
       53.299576 5.1488905 4.2896876 154.22977
000190 04 00 00 00 0b 0f cc 41 3e d1 6b 41 78 dc 79 43
       6e-45 25.507345 14.7385845 249.8612
0001a0 58 4b 44 43 99 77 0e 42 6a eb e4 42 ba 82 1e 41
       196.29431 35.616795 114.45979 9.906916
0001b0 fe 3c b2 3f a3 5b ea 3a e7 b8 f8 41 2c 93 7a 43
       1.3924863 0.0017880093 31.090284 250.57489
0001c0 c0 37 77 42 e0 4d ef 3b e2 31 02 43 04 00 00 00
       61.804443 0.0073029846 130.19485 6e-45
0001d0 b7 7d 67 40 38 00 d2 40 8b 9c 73 43 9c de 82 43
       3.617048 6.5625267 243.6115 261.73914
0001e0 df e1 3c 43 a4 67 2f 41 e3 1d 1b 41 7b 3f fa 3e
       188.88231 10.962803 9.694797 0.48876557
0001f0 75 85 46 3d e8 0c 72 42 b8 9d e8 43 82 04 06 41
       0.04846712 60.512604 465.23218 8.376101

fc2.weight f4 [64, 128]
000000 27 61 91 bd 4f 28 69 3d c5 9a 65 bd 5e a5 51 3e
       -0.070986085 0.056923207 -0.056055803 0.20473239
000010 92 16 50 3f ac 3f 64 bf 2b 87 43 3e d0 82 8f 3d
       0.8128444 -0.89159656 0.19094531 0.070073724
000020 31 9f 0d bf 46 94 a5 be 84 fe b7 bd 75 81 74 3e
       -0.5532103 -0.32339686 -0.08984092 0.23877509
000030 d0 7b a7 3d 03 bd 9a 3f 3b 5c e6 3e 48 b5 79 3f
       0.08177912 1.2088932 0.4499224 0.9754224
000040 bc 5a a0 bc 0d 89 c3 bd 63 ee 79 3e a6 f0 fe 3d
       -0.019574516 -0.09547625 0.24407344 0.12448244
000050 0d f0 99 be c0 84 7d 3e 32 96 dc bd 34 96 3c be
       -0.30065957 0.24757671 -0.10770835 -0.18416673
000060 3c 16 89 3e c0 0b f6 3e f0 5e 2c 3e 09 2a 05 bf
       0.26774776 0.4805584 0.16833091 -0.52017266
000070 e1 7e ca bc ce 7f 41 bf eb 45 8d 3d 46 10 2c be
       -0.024718704 -0.7558564 0.068981014 -0.16803083
000080 ab 36 fc be 66 0f 41 3e f3 71 02 be 3a c6 01 3f
       -0.49260458 0.1885353 -0.1273878 0.50693095
000090 d1 bd a3 be 62 9d 97 bf 3c cc 35 bf 8b 6f 63 bf
       -0.31980756 -1.1844904 -0.7101476 -0.88842076
0000a0 1f 7d 0e bf 91 34 9e 3e 8e 7e 27 be de 2d 98 3f
       -0.5565967 0.3089948 -0.1635687 1.1888998
0000b0 2c 60 04 3f e6 aa 85 be d5 cf 75 be 6c aa 89 be
       0.51709247 -0.26106948 -0.24005063 -0.26887834
0000c0 11 70 05 bf 5e 96 65 3e 1e 05 8e 3e 04 71 bf be
       -0.52124125 0.22420642 0.2773828 -0.37390912
0000d0 1e c4 e9 3e 09 9d 05 be b7 6d 05 bf 00 90 86 3d
       0.45657438 -0.13048185 -0.52120537 0.065704346
0000e0 43 dc 46 be 44 b4 21 3f d1 b1 0a bf 59 fa 98 3e
       -0.1941996 0.6316569 -0.54177576 0.298785
0000f0 47 29 b9 3d b1 f2 6b bf b0 4b 93 3e 01 f8 61 bf
       0.09041076 -0.9216719 0.28768682 -0.8826905
000100 43 60 28 be c9 a6 5d bf 5b df 47 3f 8a c4 35 be
       -0.16442971 -0.8658262 0.7807519 -0.17750755
000110 94 4b fd be 64 fe e5 be 16 01 02 be 37 8e 2b 3f
       -0.49471724 -0.44920647 -0.12695727 0.6701388
000120 fa 41 9f 3e 76 f3 4f be 19 d7 d9 be 87 22 78 bf
       0.31105024 -0.20307717 -0.4254692 -0.96927685
000130 ba fc 63 be ce 4c 8a be 72 7f 60 3e 17 95 b9 3d
       -0.22264376 -0.27011722 0.21923617 0.0906164
000140 1a ca ef bd 88 86 13 bb 6a 43 11 3f fb 4b d2 3c
       -0.1170847 -0.0022510607 0.5674349 0.025670996
000150 9b ee 3c 3d 44 55 85 3e e2 15 53 3e a5 95 98 be
       0.04612599 0.26041615 0.20613816 -0.2980167
000160 c0 4c 27 be 77 ac c1 bf 9f 8c 1f bf bb 3e 47 3f
       -0.16337872 -1.5130757 -0.62323946 0.77830094
000170 3c 23 ec 3e 7b 8f 09 3f 05 dd 9e be f6 11 65 bf
       0.46120632 0.5373456 -0.31028 -0.8948053
000180 fc 74 c9 be 64 ea 24 bf 58 ac a9 be 5a f8 32 3e
       -0.39347064 -0.6442015 -0.331393 0.17477551
000190 4d a6 cc 3e d2 9f 38 bf df 8e 95 3e be b7 8a 3e
       0.39970627 -0.72118866 0.29210564 0.2709331
0001a0 50 68 38 3e 21 db 2e 3f b8 8d 63 bf 2f 1a 6e be
       0.18008542 0.68303114 -0.8888812 -0.23252176
0001b0 13 32 cc 3d 07 d9 3a bf a1 5b 83 3e f5 8e 34 bd
       0.099704884 -0.7298741 0.25655845 -0.044081647
0001c0 eb 2b a0 bd c2 23 23 3d 11 3b 04 3e 8f d7 b6 be
       -0.07820877 0.039829023 0.12913157 -0.35711333
0001d0 c7 c1 3c 3e 58 58 34 be 8e fb e6 be 6c 30 b8 bd
       0.18433295 -0.17611825 -0.45113796 -0.08993611
0001e0 30 97 6b 3e 95 4e dd be 46 d1 4e 3e b5 65 aa bd
       0.23006892 -0.43224016 0.20197019 -0.0832018
0001f0 38 f1 a8 be cf 05 26 bc a1 c7 db 3e ef 4d 08 3f
       -0.32996535 -0.010133221 0.42925742 0.5324392
000200 e9 0b 27 bd 3b c6 ed 3e 11 19 12 3f 7e 46 30 be
       -0.040782843 0.464403 0.570695 -0.1721439
000210 29 27 93 3f d9 31 de 3e da 6e 7e be 5c 7c 88 be
       1.1496326 0.43397406 -0.24846974 -0.2665738
000220 7e 31 0e be f1 b5 02 3f e6 ea 2a 3e 67 92 31 be
       -0.13886067 0.5105887 0.16691169 -0.17341004
000230 90 63 03 be eb 4a 99 3e 7e a5 0f be c5 dc a8 3d
       -0.12830949 0.2993997 -0.14027974 0.082452334
000240 e4 c5 7f be bf a8 a7 bd 11 59 ed be 12 8c cb 3d
       -0.24977833 -0.08186483 -0.46357015 0.09938826
000250 12 c9 91 be e3 89 14 3f d6 fe 62 be 67 92 7a 3f
       -0.28473717 0.580229 -0.22167525 0.9787964
000260 b6 4a cc bd df 71 83 3f 44 a9 65 3e 6b aa f5 3d
       -0.099751875 1.0269126 0.22427851 0.11995395
000270 30 d1 05 3b af 61 96 bb d3 7b 53 3d f2 04 29 be
       0.0020418875 -0.0045892815 0.05163176 -0.16505793
000280 dd 0b fd 3d a7 99 c6 be 68 6e 3a 3e f6 69 ca 3c
       0.12355778 -0.38789102 0.18206179 0.02470873
000290 0e 7b 3f bd fd 10 a7 bd 47 75 74 bc 98 97 69 3f
       -0.046748213 -0.08157537 -0.014920539 0.9124694
0002a0 5f 6c 9c 3e 79 aa 92 be 79 60 2a bf 88 8c 38 3d
       0.3055143 -0.28645685 -0.66553456 0.045055896
0002b0 f7 31 11 3e ee bc aa 3e 0f 5e 10 bf 93 f5 eb be
       0.14179216 0.33347267 -0.5639352 -0.46085796
0002c0 f2 45 42 3f 01 20 90 3e 09 ec ee 3e 6c a8 2e 3e
       0.7588798 0.28149417 0.46664456 0.17056435
0002d0 c9 5b 69 bf 96 30 99 3e a3 e3 58 3f e0 76 0d be
       -0.9115568 0.2991988 0.84722346 -0.13814878
0002e0 80 be 93 3d 3a b3 13 be a8 cd 00 bf e8 66 d4 bc
       0.07214069 -0.14423838 -0.50313807 -0.025927976
0002f0 02 21 f9 3d 62 8b 27 3e 46 12 17 3e 06 1a db be
       0.12164499 0.16361764 0.14753065 -0.42793292
000300 b0 7a d8 be 54 95 f3 bd ec 5b 2b 3e 17 b2 10 3c
       -0.42281103 -0.118937165 0.16734284 0.008831522
000310 08 00 0f be 88 b0 c7 bd fd c0 55 3e e7 02 ae 3e
       -0.13964856 -0.097504675 0.208744 0.3398659
000320 e4 6c a7 bd 72 03 33 bc e3 65 cc bd 68 af 83 3f
       -0.08175066 -0.010926114 -0.09980371 1.0287905
000330 c3 00 1d be a6 97 f9 bc d2 30 b8 3e b4 a5 69 3f
       -0.15332322 -0.03046782 0.35974747 0.9126847
000340 a6 7d e9 3e ca 3c 45 3e 13 a9 c6 bd 82 fc 31 bf
       0.45603675 0.1926147 -0.09700217 -0.6952592
000350 31 2b 34 3e 9c 80 d9 be 9c 78 0a be d1 97 bf 3f
       0.17594601 -0.42480934 -0.13522571 1.4968206
000360 3c 71 06 3f 52 79 b1 3d dc ea 38 3d 2f 16 49 be
       0.5251653 0.08665718 0.045145854 -0.19637369
000370 96 65 9d 3d 3f 3f 48 3f 83 cd 2b be 59 d6 51 be
       0.076853916 0.78221506 -0.16777615 -0.20491923
000380 38 84 8c 3f 97 30 e2 3e 3b 33 3d 3f 7a e7 24 3f
       1.097785 0.44177696 0.73906296 0.64415705
000390 ff c3 97 3e ec a1 87 3e 41 99 54 3d a3 2a 16 be
       0.2964172 0.26490724 0.051903967 -0.14664702
0003a0 d1 0d 62 3e 0d 4b b6 3f c8 d9 21 be 8b 41 fe 3d
       0.22075583 1.4241654 -0.15805733 0.12414845
0003b0 14 bb 2a 3f 9a eb 46 3f f1 18 db 3e 36 7f 41 3e
       0.6669171 0.7770325 0.42792466 0.18896183
0003c0 ec 92 19 bf d0 79 cb bd 51 35 f4 be 6e b0 54 3d
       -0.5998981 -0.09935343 -0.47696927 0.05192607
0003d0 f3 2c ec be cf 29 58 3e 53 8a d6 3e 6e a4 20 3e
       -0.46128044 0.21109699 0.41902408 0.15687725
0003e0 01 2a db be 4d e5 56 3e 98 16 12 bf fd 3a 61 bc
       -0.42805484 0.20985909 -0.57065725 -0.013746974
0003f0 e7 aa d0 be 0b 47 b4 3e 3d 7e e0 3e 20 49 25 3f
       -0.40755388 0.3521045 0.43846312 0.64564705

fc2.bias f4 [64]
000000 a8 70 85 be 5e 62 c9 be 66 8b c3 be 9f 27 96 be
       -0.26062512 -0.3933286 -0.3819229 -0.29327103
000010 04 d3 e9 be 0c c0 32 be 21 d1 bc be ff 48 68 bf
       -0.45668805 -0.17456073 -0.36878303 -0.90736383
000020 0e 41 23 bf f0 45 cb bc a8 00 db 3d b7 8f 01 be
       -0.6377114 -0.024813622 0.106934845 -0.12652479
000030 ca a9 68 bd 98 06 f2 bd 4c 32 87 3e 1a be a5 bd
       -0.05680255 -0.11817664 0.2640556 -0.080928996
000040 98 3f 2a bf f7 c1 00 be 8b e8 d8 be b4 22 44 be
       -0.66503286 -0.12573992 -0.42364916 -0.19153863
000050 4f 63 a2 be af 88 02 bf 22 1f aa 3c 8b 7a 9d bd
       -0.3171639 -0.5098981 0.020766798 -0.07689389
000060 7a 3d bc be b5 0d 73 3e 00 dc 00 bf af 8e d7 be
       -0.36765653 0.23735698 -0.50335693 -0.42101046
000070 8b 41 05 bf 07 3c 25 3e b1 cd 8f be c2 6c 14 3e
       -0.52053136 0.1613618 -0.28086618 0.14494613
000080 11 45 16 bc 45 5c fb be 2a 4f ef be 37 bc 24 bf
       -0.00917174 -0.49093834 -0.46740085 -0.64349693
000090 d9 33 a8 be c3 ce d9 be cd b5 1e bf 90 d0 33 3e
       -0.32852057 -0.4254056 -0.61996156 0.17560029
0000a0 66 3e 8a bd d2 09 0a be 31 ba 10 be 99 89 46 bf
       -0.06750183 -0.13480309 -0.14133526 -0.7755371
0000b0 16 49 b5 bd 93 49 8f bf e4 1a 0b be 66 73 09 be
       -0.08851831 -1.1194328 -0.13584477 -0.13422927
0000c0 8c ef 0e bf dc 1b 21 bd 5c 0f 18 bf 1f 44 03 bf
       -0.5583427 -0.03933321 -0.59398437 -0.5127582
0000d0 65 2d 84 be 1d ca 01 be 06 d9 61 be 97 ee f9 bc
       -0.25815883 -0.12674756 -0.22055444 -0.030509276
0000e0 e5 d8 15 bd 90 ec 2a be 60 b6 5d be a6 70 97 3d
       -0.0365838 -0.16691804 -0.21651602 0.07394533
0000f0 a7 25 c4 be d6 37 fe be 58 44 72 3e 62 9c 0e bf
       -0.38309976 -0.49651974 0.23658884 -0.5570737

fc3.weight f4 [2, 64]
000000 63 8d a6 bf e5 7e 95 bd b8 27 71 bf 05 35 93 bf
       -1.3011898 -0.07299594 -0.9420123 -1.1500555
000010 71 22 50 3f ea 29 8a 3f e6 b0 29 3f 0b 23 83 bf
       0.81302553 1.0794041 0.6628555 -1.0245069
000020 c1 c1 59 3f da e8 08 3f 57 f8 b6 3e 64 55 2c be
       0.8506127 0.53480303 0.35736343 -0.16829449
000030 ee 87 fa 3d 70 fa b0 be 70 d6 e9 bd 6b f9 41 be
       0.12232958 -0.3456607 -0.11417854 -0.18942802
000040 5c 7e 9a 3d dc a1 07 bb 29 9f b0 3f cc 25 bf bd
       0.075436324 -0.002069584 1.3798572 -0.09333381
000050 1d 4f 72 bf ec d7 9c bf 92 bd 83 be 90 98 a2 bf
       -0.9465197 -1.2253394 -0.25730568 -1.2702808
000060 17 e7 5e 3f d1 0a 18 be c2 57 da be 99 ea 54 3d
       0.87071365 -0.14847876 -0.4264508 0.051981542
000070 7c 71 a8 be 06 18 9a 3d 94 ce 87 3e 77 78 10 3e
       -0.32899082 0.07524113 0.26524794 0.14108454
000080 af 11 f4 3e 78 17 5d bf 7a f0 81 3e 0a f7 66 bf
       0.47669742 -0.86363935 0.25378782 -0.902207
000090 e2 c0 9d bf 68 d5 7f be 44 d3 4f 3c 9c 38 51 3e
       -1.2324488 -0.24983752 0.012684647 0.20431751
0000a0 e8 c8 31 bf ce 1e 0a 3f fb 37 14 bf ff 87 6a 3f
       -0.69447184 0.53953254 -0.5789792 0.91613764
0000b0 3c b4 0c 3f 1b 28 a8 be ca fa 9a 3f 47 c7 26 3f
       0.54962516 -0.32843098 1.2107785 0.65147823
0000c0 a9 de 6f bf 13 6b 10 3d a3 fd 06 3f 73 d5 b9 3e
       -0.9369913 0.035258364 0.5273077 0.3629566
0000d0 98 3e 2b bf b1 ef 6e bd 1f 17 cb 3f ce 69 ad 3d
       -0.66892385 -0.058334056 1.5866431 0.08467446
0000e0 47 cc e9 bd 2a 90 cb be e2 c5 bb 3e 67 f7 d6 3d
       -0.11415916 -0.39758426 0.3667441 0.10496407
0000f0 9b 27 2f bf 50 a5 13 3f 5e 25 18 bf 11 c8 0c 3f
       -0.6841981 0.5767412 -0.5943202 0.5499278
000100 cf bc d0 bf 44 4a 85 bf 7a 45 5a bf d4 67 0f 3e
       -1.630762 -1.0413289 -0.8526226 0.14004451
000110 0f c8 a5 bf 3e b4 6f bd c9 5a 63 3f 38 7b ad 3f
       -1.2951678 -0.0585215 0.888104 1.3553228
000120 01 a6 08 bf 46 20 eb 3d 98 9c b4 bf ee e4 4e 3e
       -0.533783 0.11480765 -1.4110289 0.20204517
000130 ec 7b 7f 3f 24 47 16 40 b3 bc 30 3f 73 c1 49 bf
       0.99798465 2.348092 0.6903793 -0.78810805
000140 14 b3 95 be 39 c5 cd bf ff b1 11 bf 53 73 d1 3f
       -0.29238188 -1.6075813 -0.56912225 1.6363319
000150 cc 6e 22 3f 8b 71 8a bf b1 91 63 3e c6 bf 74 be
       0.6345031 -1.08159 0.22223546 -0.23901281
000160 f5 77 40 3f d1 f5 20 3f 0c 19 a0 bf 4c 03 b0 3f
       0.7518304 0.62875086 -1.2507644 1.3751006
000170 c4 a9 f1 3f 73 90 23 c0 ab 34 69 bf e2 aa 4f bf
       1.8879933 -2.5556915 -0.9109599 -0.8112012
000180 54 b3 bf bd d1 3c 5c 3f a3 c3 46 bf b1 e2 1e 3f
       -0.09360376 0.860303 -0.7764227 0.62064654
000190 86 23 10 3f 4b bb 6a 3f c4 28 bf 3f ce 04 ab 3e
       0.56304204 0.91692036 1.4934316 0.33402103
0001a0 93 c9 f8 be da 83 73 bd 8b e0 9d 3f 0a e7 ab be
       -0.4859129 -0.059451915 1.233415 -0.33574706
0001b0 1f 16 5b bf 5c b2 81 3f 75 86 1c 3e cb d7 5c 3f
       -0.8558063 1.0132556 0.15285666 0.86266774
0001c0 e5 f7 87 bb f8 4e 67 3f 04 15 de bf 81 51 89 be
       -0.0041494244 0.9035487 -1.7350163 -0.26819995
0001d0 80 24 8a be 7b b5 ad be 6c 98 65 bf 7b a1 95 3f
       -0.26980972 -0.3392752 -0.896857 1.1689905
0001e0 ee 53 cb 3e a6 29 b0 3f 43 c6 b9 3e ea c2 39 3f
       0.3971247 1.376271 0.36284074 0.7256304
0001f0 df 44 d2 be 07 38 90 bc 00 4e 1b 40 16 bf 12 3e
       -0.4106817 -0.01760484 2.4266357 0.14330706

fc3.bias f4 [2]
000000 15 b5 c6 3d 5f 9f b6 3e
       0.097025074 0.35668465
