agent0_target.pth (torch_old, 49841 bytes, 10 tensors)

fc1.weight f4 [128, 24]
00000000: a67d 2d3a 7764 afbe 4e04 8ebd 0dfd bcbb
00000010: a1c2 703f 610a 013f c44e c23c 5ae3 85bd
00000020: bb6e db3e 1029 8ebe 321a 923c e776 873d
00000030: 4222 e5be ba89 453f 274c 06bd b238 0c3e
00000040: 1132 693f 9fcb afbe 5723 803d b76c c4be
00000050: 7753 09c0 981b 6d3f 149a 6d3d 0fc8 bbbe
00000060: 2baa 393e 3c96 703f 55bd 25be 1d72 fb3e
00000070: 798b 3ebe 12b5 c4bf de7a 9bbe 60e3 e23e
00000080: f67d c73e f3e6 a13f a811 0abe 9c8d 643e
00000090: bf75 77be 7131 90bf 1494 02be 1a13 493e
000000a0: e3dd 323f d479 8f3f 7501 943e f813 96be
000000b0: 4c23 c6bd f318 fbbd 2e9c 413e df09 cdbe
000000c0: a693 213f e956 4c3f 1cbb 6a3d 9bf3 ea3b
000000d0: 76bc 22bf 4a01 0abf 83fe 823d aebd 173d
000000e0: 3c3b 463f 6fdf 813f 8a0e fcbd b3d1 68be
000000f0: ca5b 39bf faaa dfbe 2664 50bd fa50 86be
00000100: 9585 663f 65d3 ac3f 39c7 7e3d 3514 703f
00000110: 9312 52bf df59 55bd f1a8 153e 2362 513f
00000120: 7f98 0d3f d694 3bbf 86f7 be3e 7522 e2be
00000130: 0266 623f 143f 373f fcc7 a53e 9b9a e0be
00000140: 7a01 5d3f fee1 67bf 1243 a83d bc5f 06bf
00000150: 4a88 8a3e 2662 6a3f 45c9 8f3c 4d0e 0bbf
00000160: 5d51 6b3f 1c88 70bf 2f19 863c 8781 32be
00000170: 2243 82be 2ac7 8c3f b055 773d d6e8 acbc
00000180: 57bd 723e 65bf 36bf 75d2 68bd 2918 32bf
00000190: dde2 c2be 0b5e b8bf b65e cd3a f374 36bf
000001a0: 1a88 963e 01c2 39bf 1c41 4b3e ff1d 6f3d
000001b0: 9387 7dbe e96d c3bf 8c74 2b3e 5442 b83c
000001c0: 2917 bc3e 6ebc 8bbe 9b76 253e c6fe e43e
000001d0: ae56 7fbe 873b b3bf 41a6 123e be1b 063f
000001e0: 367c 28bf 3b76 903f abf2 3dbd fbc2 58be
000001f0: 1c8c 103f bad0 05bf d24e b33b af5f afbe
00000200: 34e1 41bf 0165 c93e da2b 063f 4ad4 27bf
00000210: f614 183e cb71 8c3e ae08 f23e 0fc7 49bf
00000220: b1ce 3dbf f0e5 093e 4bca 683e 1bca 76bf
00000230: 4301 1ebe 92fc 0f3f 48c8 a83e 6271 63bf
00000240: 2f1a 82be 0aef edbe 140c 24be 58ad 023e
00000250: 663f 9b3e 8eb6 16c0 c9c0 66be cde0 283e
00000260: 1953 803d a4a8 f9be 131e 973d 85dc 13bf
00000270: fcf9 c33e 8d38 aabf a0dd 3d3e 5e8a 10bf
00000280: 7991 7d3e 9811 ddbe 94cf 54bd 6096 c23d
00000290: f72b be3e 2817 6dbb 2297 0cbc e968 513d
000002a0: 7a28 f83e dcd3 1cbc b7a3 663d 5848 263e
000002b0: 99f8 223f aee5 433f 4bde 11bb fbea c93d
000002c0: 5f74 743f afe6 1e3f d47c 053d 7dfd 9b3f
000002d0: 665f 163f 0501 133e 9dbb ce3d d2c2 913f
000002e0: 5081 a13f eecb 653f a1c0 45bd aa95 233f
000002f0: 51de 9b3e 4e1f 45be 32ca 02bb 5acb 463f
00000300: 6b23 913f 56b1 9b3f ff4d 3bbe 736d 5a3d
00000310: 7b38 5e3d 9b71 f8bf 48be 04be 5b3f 1c3e
00000320: c215 673f e89b 243f d8f3 933d b0ca ac3b
00000330: 32d2 0f3e d017 8dbf 9656 ca3c c9f7 96bd
00000340: 977d eabe 40fb 5abe ae98 8f3d 40d3 373d
00000350: 5af1 59bc a7e7 ec3e 7cf5 8bbd afb8 d13d
00000360: 9ef2 3b3c 9221 cabd 771d 62bd b521 223e
00000370: b322 8fbd ae88 10c0 5c3a a6bc 99c2 903d
00000380: 69b7 b7be 6232 5bbd f246 8abd 1ea8 d63d
00000390: c60f 103f 0a94 eebf d778 98bd 625d 2b3e
000003a0: 5f48 33bf 54b7 3bbe bbd6 303d 5dc4 8b3e
000003b0: 6eed 8c3f 8b31 47bf 858e 003e b512 bd3e
000003c0: 895b e33e e902 20bf e152 d5be 2c73 38bf
000003d0: 1521 c53e 7dba 0b3f a881 e0be 8a9e 3bbf
000003e0: 8b45 1f3f d2e6 ecbe f93a 3fbe 4bd8 1c3d
000003f0: c07b 3c3e de00 e2be 1209 37be 6714 603c
0.00066181493 -0.34256336 -0.06934415 -0.0057674707 0.9404698 0.5040646 0.023719199 -0.065375045
0.42857918 -0.27765703 0.017834757 0.06614476 -0.447527 0.7716328 -0.03278747 0.13693503
0.9109202 -0.34335038 0.062567405 -0.38364193 -2.1457193 0.9262023 0.05800827 -0.3667607
0.1813132 0.9397924 -0.16185506 0.491105 -0.18607892 -1.5367758 -0.30367178 0.44314098
0.38963288 1.2648605 -0.13483298 0.22319645 -0.2416601 -1.1265088 -0.127518 0.19636193
0.6986982 1.1209054 0.28907362 -0.2931211 -0.09674701 -0.12260618 0.18907234 -0.40046594
0.6311592 0.79820114 0.057307348 0.0071701533 -0.6356882 -0.53908217 0.063962005 0.037046127
0.77434134 1.0146312 -0.123074606 -0.22736244 -0.72405684 -0.43685132 -0.05087676 -0.26233655
0.9004758 1.3502012 0.062201712 0.93780833 -0.8205959 -0.05208766 0.14615227 0.8179037
0.55310816 -0.7327398 0.3729822 -0.44166914 0.884369 0.71580625 0.32379138 -0.43867955
0.8633038 -0.9057921 0.08215918 -0.5248983 0.27057105 0.9155601 0.017552027 -0.54318696
0.91921026 -0.93957686 0.01636943 -0.17432223 -0.25441843 1.099828 0.060384452 -0.021107119
0.2370504 -0.71385795 -0.056841332 -0.69568115 -0.38063708 -1.44037 0.0015668485 -0.712722
0.29400712 -0.7256165 0.19849056 0.058378216 -0.24758749 -1.5267917 0.16743678 0.022492565
0.3673642 -0.27292198 0.16158526 0.44725627 -0.2493541 -1.4002541 0.14321233 0.5238608
-0.6581453 1.1286081 -0.046374004 -0.21168129 0.5646379 -0.52271616 0.0054720426 -0.34252688
-0.7573426 0.39334872 0.5241066 -0.655583 0.14851746 0.27430567 0.47272247 -0.78819364
-0.7414351 0.1346662 0.22733419 -0.9640214 -0.15430169 0.56244767 0.32965302 -0.88844883
-0.25410601 -0.46471435 -0.16020232 0.12761438 0.30321807 -2.3548923 -0.22534479 0.16492005
0.062658496 -0.48761475 0.07378783 -0.5775836 0.3827666 -1.3298508 0.18541574 -0.5646113
0.24762525 -0.43177485 -0.051955774 0.09501338 0.37142918 -0.0036177132 -0.008580955 0.05112544
0.4846838 -0.009571996 0.056308474 0.16238534 0.6366058 0.7652234 -0.002225774 0.09859272
0.9549007 0.62070745 0.03258975 1.2186733 0.58739316 0.14355858 0.10094378 1.138758
1.2617588 0.89764297 -0.04827941 0.63900244 0.3044305 -0.19250223 -0.0019956944 0.7765404
1.1338934 1.2163494 -0.18291472 0.053327035 0.054253083 -1.940967 -0.12963212 0.15258543
0.90267575 0.64300394 0.07224244 0.0052731857 0.14045027 -1.1022892 0.02469949 -0.0737148
-0.45798942 -0.21384907 0.07011543 0.044879198 -0.013302172 0.46270487 -0.06833932 0.10240304
0.011471419 -0.09869684 -0.05520388 0.1583317 -0.0698904 -2.2583423 -0.0202915 0.070683666
-0.35882118 -0.053514846 -0.06751813 0.104812846 0.5627407 -1.8638928 -0.07444923 0.16734841
-0.70032305 -0.18331653 0.043173533 0.2729825 1.1009958 -0.7780997 0.12554367 0.36928335
0.44405773 -0.6250444 -0.41664794 -0.7205074 0.38501802 0.54581434 -0.4384892 -0.73288786
0.6221549 -0.46269852 -0.1867484 0.03829221 0.18406582 -0.44141287 -0.17874554 0.013676739

fc1.bias f4 [128]
00000000: f766 00be 26dc 10bf 6d08 77be a339 2c3d
00000010: f238 3fbf 8547 103f a013 49bc 4b6c a4bf
00000020: 326a 08be 8e49 09bf 97d0 88bf 5f74 9bbf
00000030: 8222 e53d 16e9 d6bf e43d 8dbd cc82 6e3e
00000040: fbc2 b8bf ce6a 07be ce10 e4be d8f9 d3be
00000050: 498a 38bf 2a9c 56bf 37bf d4be 21c7 8abf
00000060: 52a5 653f 382f 003e 5af2 4fbe eab2 acbe
00000070: 0e04 34bf 2e95 adbe 7357 45bf 75e2 9fbf
00000080: 2988 67bf c673 63bf fb4c 90bf ef27 dfbe
00000090: cbbb 35be f758 5ebf 32aa e5be 7f5f ff3e
000000a0: 5db0 79bf 9192 3abf 882e 0abe 2f8b 113f
000000b0: 66d2 85bf 5353 2ebf 7a87 20bf 768d c1bf
000000c0: 9a53 0dbf 1bd1 25bf 3acd 9dbf a755 14bf
000000d0: 93d6 7f3e 91c4 8cbe b5ea 1ebe ebcc 303e
000000e0: 7908 33bf d3bc 92bd 138b f8be 01ff 6dbd
000000f0: 82a3 cdbe 8161 d33d 2454 46bf 8a6f 91bf
00000100: 966b 86be 4ce7 13bf ce55 acbf c8dc f7be
00000110: b12d 3dbf 2525 37bf 5c52 513e f35b 30bf
00000120: 9bff 9a3e 567c a33e 3ae7 e0bd 0bc4 9cbe
00000130: 8095 44bf d15e fbbe a388 053e 68fe aabe
00000140: 6642 18bf e8a5 8cbe 21a4 9cbf af55 0ebe
00000150: 208d 943f 3fe1 9fbf d336 7bbf 4aac 20bc
00000160: 4af7 10bf 75b8 923f bf2f b2bb 8585 a4be
00000170: 9448 49bf 0f05 69be eb85 d9bf 8ee3 98bf
00000180: 4dfb ccbf 9d27 6c3e 5b53 c3be fb85 89bf
00000190: b3cd 67be 1b9f 07bf c06a 33be 0167 82bd
000001a0: 3aec 7f3e 9412 9ebe 0dd1 22be c900 303d
000001b0: 27a4 9ebe fb36 45bf 3ad5 9abf 8a8a e3bf
000001c0: 0c77 6bbf b6ad bebe 4a71 5ebe 9fee 863e
000001d0: 8f0c 63be 6599 d7bf 9239 36bf 9cf1 6fbf
000001e0: 038a 07bf de40 ffbe 3c51 a6bd 9120 513e
000001f0: 24fb 80bf e4c8 2bbf ca54 5fbf 779c a9bf
-0.12539278 -0.5658592 -0.24124308 0.042047154 -0.74696267 0.5635913 -0.012272745 -1.2845548
-0.1332176 -0.5362786 -1.0688657 -1.2144889 0.111882225 -1.6789882 -0.0689657 0.23292083
-1.4434503 -0.13224337 -0.4454407 -0.41401553 -0.72086006 -0.8383204 -0.41552135 -1.0842019
0.89705384 0.12518013 -0.20307294 -0.3373025 -0.70318687 -0.33902878 -0.7708656 -1.2490984
-0.9044214 -0.8884853 -1.1273493 -0.43585154 -0.17747419 -0.868545 -0.4485641 0.49877545
-0.97534734 -0.7287989 -0.13494313 0.56853 -1.0454834 -0.6809589 -0.6270672 -1.5121295
-0.5520569 -0.64772195 -1.2328255 -0.57943195 0.24984197 -0.27493718 -0.15519221 0.1726567
-0.69934803 -0.071649216 -0.48543605 -0.05810452 -0.4016381 0.10321332 -0.7747214 -1.1362164
-0.26253957 -0.57774806 -1.3463686 -0.4841063 -0.73897845 -0.71541053 0.20441574 -0.68890303
0.30273136 0.31930798 -0.10981603 -0.3061832 -0.7679062 -0.49095777 0.13040404 -0.33397222
-0.59476316 -0.27470326 -1.2237588 -0.13899873 1.1605568 -1.2490615 -0.9813053 -0.009806702
-0.56627333 1.1462542 -0.0054378207 -0.32133117 -0.7862637 -0.22755836 -1.6993994 -1.1944444
-1.6014191 0.23061986 -0.38149533 -1.0744013 -0.22637062 -0.5297715 -0.1752119 -0.06367303
0.24992457 -0.3087355 -0.15900059 0.0429695 -0.30984613 -0.7703702 -1.2096322 -1.7776654
-0.91978526 -0.37241906 -0.21722904 0.26353928 -0.2217276 -1.6843687 -0.71181595 -0.9372804
-0.52944964 -0.49854177 -0.08120963 0.2042258 -1.0076642 -0.6710341 -0.8723875 -1.3250874

bn1.weight f4 [128]
00000000: 84fa 923f 0ed6 c93e 8b11 0e3f 6594 483f
00000010: 1b35 323f b813 223f 6932 333f c07f 353f
00000020: 9c30 863f 6e78 933f 9ada d03e b018 253f
00000030: 68a5 333f 5ae7 483f af5b 0340 932f b73f
00000040: d3d6 643f e7c1 a1bd 3110 243f 1642 4b3f
00000050: 8178 e03e 8f53 da3e 567b 7c3f 7c33 1f3f
00000060: a3f0 8e3f 566d 2f3f 3e54 6a3f 938a 87bc
00000070: 0736 e63e ac3e 353f 6bbd 313f a3a6 1040
00000080: 2c65 1a3f eb25 cf3f f021 203e 05c4 1a3f
00000090: f997 a33e dacf 433f c44d 753f b112 c13e
000000a0: d5a0 523e da55 773f 37dd 583f b6b3 943f
000000b0: cdc8 b53e f9b4 e13e a0ae 063f eebb 243f
000000c0: cfc9 b93e c089 0c3f 72d5 453f 644a 753f
000000d0: c69e 783f 7118 093f 5525 6f3f d933 0d3f
000000e0: f5fe 883e 6847 843f 8ed1 053f db31 b43f
000000f0: 6045 d73e f6df e23e ca0c ea3e 7bda 9c3e
00000100: d321 6f3f d6f8 9f3f 2db5 ef3e 7642 a83f
00000110: bd8f 343f 0e6b 0e3f 2da2 bd3f f70a 6b3f
00000120: 48b7 923f 9e02 fe3e d980 5c3f d09b 013d
00000130: a06c 493f d373 6c3f 2396 843f cf5d ac3f
00000140: 920e 083f b8e7 e63e 33b5 753f 9c1f 813f
00000150: dd5e 2a40 ea75 323e 10e1 ce3e cca5 2d3f
00000160: f672 dc3e 3137 0a3f 2b18 753f 566c e43e
00000170: 88a5 c23e 43d9 303f 9233 b33f 7264 9e3e
00000180: fcc2 193f 1dba 2f3f 4dac 093e 43e9 2c3f
00000190: 1100 ac3f 3ac4 563e 93a4 743f 1e7e a13e
000001a0: c357 a43e 7f92 453f c9d0 3f3f 3a6d 233f
000001b0: e829 60be 9bae d13f 7315 c73e 9461 393f
000001c0: 2929 383f 397c e63e 8a6e 4a3f 7912 a63f
000001d0: d227 943e 0b4f 6a3e 0ed2 d63f 5f4b f53e
000001e0: 356f bd3e df2f 3a3f 38e9 69be 35e8 863f
000001f0: 18e4 543f f5ff 3f3f c718 f53e ca46 013f
1.1482701 0.39421123 0.5549552 0.7835143 0.6961228 0.6331134 0.69998795 0.70898056
1.0483584 1.1521127 0.4079178 0.64490795 0.70174265 0.78478014 2.052471 1.4311393
0.89390296 -0.07898312 0.64087206 0.79397714 0.43841937 0.42641875 0.98625696 0.62187934
1.1167186 0.6852621 0.91534793 -0.01654557 0.44963095 0.70798755 0.69429654 2.2601707
0.60310626 1.6183447 0.15637946 0.6045535 0.31951883 0.7648903 0.95821786 0.37709573
0.20569165 0.96615374 0.8471255 1.1617343 0.3550476 0.44083384 0.52610207 0.6434926
0.3628678 0.5489769 0.77278817 0.95816636 0.9711727 0.5355292 0.9341634 0.5515724
0.26757017 1.0334291 0.5227288 1.4077715 0.42045116 0.44311494 0.45712882 0.30635437
0.93410987 1.2497814 0.46817914 1.3145282 0.7053183 0.556321 1.4815117 0.91813606
1.1462183 0.49611372 0.86134106 0.031642735 0.78681374 0.92364234 1.0358318 1.3466128
0.5314723 0.45098662 0.95979613 1.0087771 2.66204 0.17427793 0.40406084 0.6783111
0.43056458 0.53990465 0.9574 0.44613904 0.38016915 0.69081515 1.4000113 0.3093601
0.6006315 0.6864336 0.13444634 0.6754343 1.343752 0.20973292 0.9556362 0.31541532
0.32098207 0.7717666 0.74927956 0.6383854 -0.21890986 1.638141 0.38883552 0.7241452
0.71937805 0.4501665 0.7907492 1.2974387 0.2893663 0.22881715 1.6782854 0.47909066
0.36998907 0.72729295 -0.22842872 1.0539614 0.83160543 0.74999934 0.47870466 0.5049864

bn1.bias f4 [128]
00000000: c46f c93e 84c7 d5bd d1d8 27be 8931 603f
00000010: 8728 163f 6646 45bc c003 25be 1225 ac3e
00000020: 575f 183e 405c 333e af22 e43f 3bb1 fd3e
00000030: c0b7 0e3f a362 72bd 12b5 f13e 1c1e 203f
00000040: 0a5d a2be 0a5b 943b 45cb 963f 20c6 da3d
00000050: 7560 f43d 3a33 8fbd 121d e4bd 5a31 90be
00000060: efde 143f 7ef2 833f a2e3 1bbf 9f7a 31be
00000070: 6a4e 7e3e e562 2a3f 7167 8abd fb31 f13c
00000080: 353e 103f 625e f83e 8eda f0be 3f07 9bbd
00000090: 6ae1 2bbe 0a56 0d3f 000a 1c3d 0143 87be
000000a0: ad15 ccbc 84aa d83e 130a 43be 991d 803e
000000b0: ce09 c43e 3083 513f eca7 803e cd0a b8be
000000c0: fc92 0240 f53f dd3d 1e12 4b3e 90dd 043f
000000d0: b795 2f3f dc68 5a3f 3646 383e 3317 993e
000000e0: 8e6a 0d3f 6eb3 7dbd ffda a73f 72a9 2fbc
000000f0: fe18 683e b1f1 ca3e b5c6 6f3c 9a49 58be
00000100: 3128 c2bd 3474 be3d 647f 2d3f 9d29 793f
00000110: 1815 4e3f 313b e83e 3dd9 e53e a930 8e3d
00000120: aa63 243d c189 3fbf e106 fabd c63d dbbc
00000130: 46fa 1d3e 3a51 05be 0c24 683c 6356 efbc
00000140: 65c1 413e 8b31 8abd d853 b53e 8450 563f
00000150: 72fb a5be ae02 0dbe 6788 a8be 0436 ac3c
00000160: 662e 88be aad0 1e3f 8bfb c83e 2f5e 643f
00000170: 91f8 933c 9c61 fe3e 44d6 0b3f 55e9 793e
00000180: 3fbd f43c 9730 d8bb ed11 2abe 074b 753f
00000190: 6d0e 7f3f 7c2a eabd b17a 4abe 375a dbbd
000001a0: ea35 b73f 980b 2b3e 9e99 053d 183b a23d
000001b0: e860 213f 6f04 69be eb7c e13e 5a8a 13bd
000001c0: af5e 4a3f f617 413e 1f0e 5f3f 613d b93e
000001d0: d2ca 8d3c c2df 023e 14ee 823e 5586 883e
000001e0: 1857 afba 0c09 013f 8210 41bf e1e3 813f
000001f0: bb3c 82bd b879 f7be a86c 0e3f dd85 483e
0.39343083 -0.10438445 -0.16391303 0.87575585 0.5865559 -0.01204071 -0.16114712 0.33622032
0.1488012 0.1751566 1.7823085 0.4954928 0.5574913 -0.0591761 0.47208458 0.62545943
-0.31711608 0.0045274543 1.1780783 0.106823206 0.1193246 -0.069921926 -0.11138357 -0.28162652
0.5815267 1.0308378 -0.60894215 -0.17331932 0.248346 0.6655715 -0.06758011 0.029442778
0.5634492 0.48509508 -0.47041744 -0.075697415 -0.16785207 0.5520941 0.038095474 -0.26418307
-0.02491268 0.42317593 -0.19046812 0.2502258 0.3828873 0.818408 0.25128114 -0.3594574
2.0402212 0.108032145 0.1983113 0.5190058 0.6858782 0.8531625 0.17995533 0.29900512
0.55240715 -0.061938696 1.3113707 -0.010721551 0.22665784 0.3963752 0.014634778 -0.21121827
-0.09480322 0.09299508 0.6777251 0.9732912 0.80500937 0.4535766 0.44892302 0.06942875
0.04013411 -0.7481957 -0.12208343 -0.026762854 0.15427503 -0.13019267 0.0141687505 -0.029215997
0.1892143 -0.06747731 0.3541553 0.8371661 -0.324184 -0.13770553 -0.32916567 0.02102185
-0.265979 0.62037146 0.39254412 0.8920621 0.018062862 0.49683845 0.5462382 0.24405415
0.029875396 -0.0065975892 -0.166084 0.9581761 0.99631387 -0.114338845 -0.19773366 -0.107105665
1.4313328 0.16703641 0.032617204 0.079214275 0.6303849 -0.22755598 0.44040617 -0.036020614
0.79050726 0.18856797 0.8713092 0.3617964 0.017308626 0.1278067 0.25572264 0.26664987
-0.0013377396 0.5040443 -0.75415814 1.0147668 -0.0635924 -0.48335052 0.55634546 0.19582315

bn1.running_mean f4 [128]
00000000: 6cf0 9040 d2e2 d03e 0f2f a03e 64c1 1b41
00000010: 2db5 813e a12d c141 c22a c53e 6a8e cb3f
00000020: 45ab 623c a099 0240 2c53 1140 a491 a73f
00000030: e794 fc40 f677 4d3e f9fc 1e40 47ab 383f
00000040: cf89 ab3b b063 6d41 02f3 3841 efa8 2c3e
00000050: d13f 8f40 0400 0000 150e e03f f1cd 783b
00000060: 79b9 0442 0ae2 ef3d ef47 1f3f 5096 2f3f
00000070: 2c53 0241 4025 8940 c5b1 b13f 9475 1e40
00000080: 84ae 8940 205f 1a41 17d1 3040 bcc1 dc40
00000090: f60d f13f 940c ef41 fb2a 373f 669c 9541
000000a0: 2814 ad41 4740 c43e cbf9 4141 13d8 ab40
000000b0: 685f 053d 3692 213b 8590 e53f 40e1 963f
000000c0: 5d9e 6741 7dac bf3e 509f db3d 17c6 ca40
000000d0: ad5f 0541 d99f c83f 1e1c 5a3f b122 4a41
000000e0: ea18 c140 4674 8b3f 40f3 8841 89c0 0241
000000f0: 501a 2b40 09dd 7f41 0400 0000 5d88 af3f
00000100: abbc 343f a9fc ac3e 865e ce3f 2605 823f
00000110: 679d 8d40 d517 423f d2b9 573f 6330 8c40
00000120: 116a b740 b2e1 9041 5a4d 083f ff57 b541
00000130: faa3 933f 6588 d240 a9d6 8b40 32f6 e83e
00000140: 6941 bb3f 278f 7340 0400 0000 0294 4141
00000150: 74df a140 02dd 073e 72de 8e41 107b 2441
00000160: 7f05 e63f 87e9 8041 146e 7c3c bdf0 923c
00000170: 45af 1540 031e e43e 30ca 9541 3a9b e23c
00000180: 6555 d63e 6ae0 7541 be97 4f41 0440 7241
00000190: e96f 2841 2027 4c40 058a 7240 539f 3041
000001a0: d629 7a41 ae43 3240 f01e 8e3e 2959 c637
000001b0: 64ef 3541 1d4a 6841 62b1 d23e 974f e73f
000001c0: 8f99 2d40 8967 bb3f cddc 353f 0e4e 6441
000001d0: 29d4 c340 fbce 1241 e52f 8040 02cc 013e
000001e0: e303 e53f 8342 2f41 a995 2a41 6053 f83f
000001f0: 15a3 e03f 9f80 4f40 3431 9141 18d6 b83e
4.5293484 0.4079805 0.31285903 9.7347145 0.2533354 24.14728 0.38509184 1.5902836
0.013834779 2.0406265 2.2707014 1.3091321 7.8931766 0.20065293 2.4841902 0.7213635
0.005234934 14.836838 11.559328 0.16861318 4.47654 6e-45 1.7504297 0.0037964548
33.181126 0.117130354 0.62219137 0.68588734 8.145306 4.285797 1.3882376 2.4759264
4.302553 9.648224 2.7627618 6.898649 1.8832386 29.881142 0.7154996 18.701366
21.634842 0.3833029 12.123485 5.3701262 0.03256169 0.00246538 1.7934729 1.1787491
14.476163 0.37436286 0.10723746 6.336681 8.335858 1.5673782 0.85199153 12.63347
6.0342913 1.0894859 17.118774 8.172006 2.673481 15.991464 6e-45 1.371349
0.70600384 0.33786514 1.6122596 1.0157821 4.425464 0.75817615 0.84267914 4.3809066
5.7316976 18.110203 0.5324303 22.667967 1.1534417 6.5791497 4.3699536 0.45500332
1.4629337 3.8056123 6e-45 12.098635 5.058527 0.13267902 17.858616 10.280045
1.7970427 16.114027 0.015407104 0.017937059 2.3388226 0.44554147 18.723724 0.027661908
0.41862026 15.367289 12.974546 15.140629 10.527322 3.189888 3.789674 11.0388975
15.635214 2.7853808 0.27757978 2.3644958e-05 11.370945 14.518094 0.41150957 1.8071164
2.7124975 1.4640971 0.7104004 14.269056 6.1196485 9.175532 4.0058465 0.12675479
1.7891811 10.953738 10.661538 1.9400444 1.7549769 3.2422254 18.149025 0.3610084

bn1.running_var f4 [128]
00000000: 6111 c341 8c86 8140 3b08 3c40 0340 4f43
00000010: 948b 3b40 c116 ea43 73ae 3d40 f56f 6d41
00000020: bc82 a83d ada1 f441 5d1e 1742 df53 7141
00000030: b4aa 3543 a315 8d3f 49ee 2a41 1052 cc40
00000040: 3a7c 9f3c 2f23 be43 341d 7843 a849 933f
00000050: 193a 9142 0400 0000 e6c5 dd41 0f37 563c
00000060: 3d60 2143 9338 d63f 0b22 f940 aad9 da40
00000070: 3a86 2743 e4fd 5542 e2bf 8d41 4227 9241
00000080: c547 8442 a727 6842 8104 7142 f6ad 1543
00000090: a108 0542 3eb1 8443 feb2 4941 6cec 8743
000000a0: b715 e643 9d4a 1840 da77 4643 8b65 2c42
000000b0: bbe5 543e be02 183c 5da6 b641 0946 5a41
000000c0: b618 9443 e507 7e40 b0e1 3e3f c638 9442
000000d0: 6def 1e43 5418 be41 b263 1741 4b6f 6543
000000e0: cd03 d642 fb7b 5941 e4f4 5243 9fa7 bf42
000000f0: 48f4 1d42 d1ba fc43 0400 0000 3aed bd41
00000100: ad9b 1641 ac93 1a40 af18 c841 8c4b 0041
00000110: 08da 8942 3464 2441 e701 1641 ff03 8342
00000120: 2547 0642 b7b5 8c43 dffa b840 aa57 7243
00000130: 1f84 8241 73d7 8642 29cf 6f42 cca4 5340
00000140: 21d0 9f41 bf0c 8e42 0400 0000 af00 7e43
00000150: acbe 3b41 c9fe a23f 02ac 0544 8360 a943
00000160: 6b2b b541 bd5a 5f43 cb69 ad3d 9eab 263e
00000170: f926 4142 fe04 5b40 262f b542 6950 553e
00000180: c5a4 4140 4e22 8443 e228 9943 8ac8 9c43
00000190: 0e9f aa42 1890 4842 4e1a 4842 a780 7f43
000001a0: 6dbc 9c43 db27 e941 d1fc ef3f 9331 1a39
000001b0: 60db ad43 cb88 d442 18a8 5640 11ef 0142
000001c0: 80f7 b141 6631 9e41 9863 bc40 c840 3843
000001d0: 56ac 0f43 2486 7c43 450a 1c42 7c00 483f
000001e0: 810b ab41 5b00 8c43 1fa3 5d43 5843 9d41
000001f0: e3d3 b641 1465 6d42 7550 c243 7322 2640
24.383486 4.047674 2.9380023 207.25005 2.9303942 468.17776 2.9637725 14.839833
0.082280606 30.578943 37.77965 15.082976 181.66681 1.1022228 10.683175 6.3850174
0.019468416 380.27487 248.11407 1.1506853 72.61347 6e-45 27.72163 0.01307465
161.37593 1.6736015 7.7854056 6.8390703 167.52432 53.49794 17.718693 18.269169
66.140175 58.038723 60.2544 149.67953 33.258427 265.3847 12.606199 271.84705
460.16965 2.379554 198.46817 43.099163 0.2079076 0.009277998 22.831232 13.642098
296.19305 3.9692318 0.7456312 74.110886 158.93526 23.761879 9.46184 229.43474
107.00742 13.592769 210.9566 95.827385 39.488556 505.4595 6e-45 23.740833
9.413007 2.4152632 25.012053 8.018444 68.92584 10.274464 9.375464 65.507805
33.569477 281.41965 5.780624 242.34244 16.314512 67.4208 59.952305 3.3069334
19.976625 71.024895 6e-45 254.00267 11.734051 1.2734004 534.6876 338.754
22.6462 223.35445 0.08467444 0.16276404 48.28806 3.4221797 90.59209 0.20831455
3.0256817 264.268 306.3194 313.5667 85.31065 50.140717 50.02569 255.50255
313.47208 29.14446 1.8749028 0.00014705052 347.71387 106.26717 3.3540096 32.483463
22.24585 19.77412 5.8871574 184.25305 143.67319 252.52399 39.01003 0.7812574
21.380617 280.00278 221.63719 19.657883 22.85346 59.34871 388.62857 2.5958526

fc2.weight f4 [64, 128]
00000000: f772 9bbd 2cef c63e 7b06 df3e a19d f6bd
00000010: 7c41 88be 350a 413d bfb4 223e 59e8 053e
00000020: aeda df3d 8a1a dfbe 72ba bfbe fcde eb3e
00000030: 8836 20be 6b4c 24bd 28b5 c03b a4a0 f13e
00000040: be02 cf3e 2367 33bc b03b 87be 81b8 bbbe
00000050: e07a 24bf 8437 133e 9af2 20bf bb48 15bd
00000060: 0ffe 45bf 4887 e83e 17fb 103f 798f aabe
00000070: 1dd5 173e 1a7b 933d b782 47be d084 1bbe
00000080: 4686 f23e 8977 66bf 39a2 ce3c 69b0 ffbe
00000090: 805f cbbd 4681 71bf b3fb 2fbf c0d0 153d
000000a0: 5508 64be 8338 2abd 45c1 e03e ad0e 18bf
000000b0: dc7e 17be a63b d0be 5285 eb3d 5499 afbe
000000c0: f787 a4be 1afb bc3e a5a5 0f3f 3825 c4be
000000d0: 5e86 d3bb 4435 49be cf18 38bf b514 423e
000000e0: 63d9 613b 2502 b2bd 2f0e fcbe 5049 1fbf
000000f0: f579 7d3e 37cf 043e 0872 80bd 161a 9bbd
00000100: 8627 183f de23 03be c218 31be 86b2 01bf
00000110: ada5 fdbd ecba 6d3e c3a9 813f ea1a 9ebe
00000120: 13d1 1f3d 05b9 42bc bd07 66bf c64b 57be
00000130: 35d0 dcbe 779e 953e 61de 08bf 6397 653f
00000140: 6490 45bd cc46 e4be c473 d8be 8a13 afbe
00000150: c45e 61bf 93b0 edbd 5431 3b3e 7195 3e3e
00000160: 847d 9cbe 614b 0b3e 9458 b93e 155d ebbe
00000170: efa7 81bf f046 83be 50a1 bfbf 85f4 77be
00000180: f580 1bbd 2890 f83e 5cb9 46be 3d8c 35bf
00000190: d338 e2bf 07b8 9fbd 433f 06bf e6db b83d
000001a0: 79b5 af3c 8b16 38bf f40b 55bf c6ac d8be
000001b0: 5257 85be b87d 593e 21c6 cdbd 6684 9bbe
000001c0: 96c0 15bf 8987 17bf 04af 2bbf 1ec4 9fbe
000001d0: 348c 7abd 2f1d d5be 55c0 27bf d05d 94be
000001e0: e743 073f 279d 17be 3b52 b53e 6545 da3e
000001f0: 8d91 55be fb63 cebd cb64 85be 8036 acbe
00000200: 8ef0 533d fa31 4d3f 1f00 383f 2443 50bf
00000210: 314a f2be 12ff 943e 1c07 bebc 72ef 94be
00000220: 11cd b9be f6fe 233f 04aa 2abf 07a3 a4be
00000230: d253 f3be 09be 8abc 25d6 3e3e e007 9cbe
00000240: fc59 7f3e 75ce 763e 585b 2ebf 03b0 29be
00000250: ece5 043f 5414 ec3e 492d a83d 9e5b 2c3f
00000260: dc97 a03e 4669 e5be bc45 763e 71f5 133e
00000270: e5dd a23e b601 10bf 691a 153f f92a 803f
00000280: d17e 013e 613a 9e3e b4b9 c6bd 136b 9f3e
00000290: 298f 0a3f 6cad 83be 29c3 3abf 95b3 0f3f
000002a0: dd9c 98be 98fe fb3e 8371 293f e350 b33e
000002b0: b76d 9abd 973b 07be 2fe2 113c 8cec e23e
000002c0: c121 7cbf 33b9 1fbf 0ceb b4be f810 e8bd
000002d0: e60a 86bd 6a0b f4be f670 2d3e 8a5d 9ebe
000002e0: 0212 44bf 6ab3 823d 4f1c 79bf b2f4 7c3e
000002f0: c197 2fbe 16ba b5be 26ff f7be 8b84 023f
00000300: 8b24 bd3e d843 923e 05c2 edbe bdcd 6dbf
00000310: 79bf 1cbf 8e52 eebe 7cce 04bf d711 b73e
00000320: d38a c63e 418b 0a3f 1193 8a3e aa24 75be
00000330: 3ffe 9abf 807e ae3e a2c0 303e 3452 8d3d
00000340: ffd3 233f 5dd7 6ebe 05e2 84bf c767 37bf
00000350: e22f ce3e 067c c03e 5695 dd3e c091 303c
00000360: 8c40 2a3f 9c40 46bf ef52 ddbe 2e62 eebe
00000370: d302 cf3d e11f dfbe 6876 b03e 7f68 40be
00000380: 3f9f dc3e 3b29 e23e 451f 473f ce37 3fbf
00000390: 9c99 853e 1ce0 d93e e245 bc3e b1ad 813d
000003a0: 2505 f7be f498 183f 2823 803e ab24 75be
000003b0: 5ef1 06bf 2c50 aa3e 4131 44be 0f72 253f
000003c0: 7489 50bf ec30 aabe 7bc0 eabd c43b db3e
000003d0: f506 783e 3f0f 91bd 231c ec3e 886f 1b3f
000003e0: 7d25 6fbe d3bf 7dbe ec6a 593f e2a5 81be
000003f0: afa9 903e e3c8 bb3b a8db 5dbf 12b6 44bf
-0.07590287 0.3885435 0.43559632 -0.12041784 -0.2661246 0.047128875 0.15889262 0.13076915
0.10930382 -0.43574935 -0.37446934 0.4606856 -0.15645802 -0.04011194 0.0058809705 0.47192872
0.4043178 -0.010949883 -0.26412725 -0.36664203 -0.6424999 0.14376646 -0.6287018 -0.036446314
-0.7734079 0.4541571 0.5663313 -0.33312586 0.1482739 0.07201214 -0.19483458 -0.15187383
0.47368068 -0.90026146 0.025223838 -0.49939278 -0.099303246 -0.9433788 -0.6874344 0.036576033
-0.22268803 -0.0415578 0.43897453 -0.59397393 -0.14794487 -0.40670508 0.11500038 -0.34296668
-0.32134983 0.36910325 0.5611213 -0.38309646 -0.006455227 -0.19649225 -0.71912855 0.18953212
0.0034461848 -0.08691815 -0.4922957 -0.6222124 0.24753554 0.12969671 -0.0627175 -0.07573335
0.5943531 -0.12806651 -0.172946 -0.5066303 -0.12385116 0.23215836 1.0129932 -0.3087991
0.039017748 -0.011884932 -0.8985556 -0.21024999 -0.431276 0.29222462 -0.53464323 0.8968412
-0.048233405 -0.44585264 -0.42275822 -0.34194595 -0.88035226 -0.116059445 0.18280536 0.18611695
-0.3056451 0.13602974 0.36200392 -0.45969453 -1.0129374 -0.2564006 -1.4971104 -0.2421437
-0.03796478 0.48547482 -0.19406646 -0.7091711 -1.7673591 -0.07798772 -0.5244028 0.09026317
0.021448838 -0.719094 -0.83221364 -0.42319316 -0.26043183 0.21239364 -0.10047556 -0.3037445
-0.5849699 -0.59191185 -0.6706393 -0.31204313 -0.061168864 -0.41623828 -0.6552785 -0.28977823
0.52837986 -0.14806043 0.354143 0.4263107 -0.20856304 -0.100776635 -0.2605346 -0.3363533
0.051743083 0.80154383 0.71875185 -0.8135245 -0.4732223 0.29100853 -0.02319675 -0.29088932
-0.36289266 0.64060915 -0.66665673 -0.3215563 -0.47524887 -0.016936319 0.18636377 -0.30474758
0.2493667 0.24102195 -0.6810813 -0.1657105 0.5191333 0.4610926 0.082117625 0.67327297
0.3136586 -0.4480688 0.24050039 0.14449097 0.31809917 -0.5625261 0.58243424 1.0013114
0.12646033 0.30903915 -0.09703389 0.3113638 0.54124695 -0.25718248 -0.7295404 0.56133395
-0.29807177 0.49217677 0.6618883 0.3502265 -0.07540458 -0.13206325 0.008904024 0.44321096
-0.98489004 -0.62391967 -0.35335577 -0.113313615 -0.065450475 -0.47664958 0.16937622 -0.3093074
-0.7658998 0.06381877 -0.9730882 0.24702719 -0.17147733 -0.35493535 -0.4843685 0.50983495
0.36941943 0.28567386 -0.46437088 -0.92892057 -0.61229664 -0.4654736 -0.5187757 0.35755798
0.3877779 0.54118735 0.27065328 -0.23939767 -1.210884 0.34080887 0.17260984 0.069004446
0.63995355 -0.23324342 -1.0381476 -0.71642727 0.40270907 0.37594622 0.43277997 0.010776937
0.6650474 -0.77442336 -0.43227336 -0.4655928 0.101079606 -0.4357901 0.34465337 -0.18789862
0.43090245 0.4417208 0.7778209 -0.74694526 0.26093757 0.42553794 0.36772066 0.06331957
-0.48246112 0.5960839 0.25026822 -0.23939769 -0.5271205 0.3326429 -0.19159414 0.64627165
-0.81459737 -0.3324045 -0.11462494 0.42819035 0.24221404 -0.07082986 0.46115217 0.6071706
-0.23354144 -0.24780206 0.84928775 -0.2532187 0.28254458 0.0057307347 -0.86663294 -0.7684032

fc2.bias f4 [64]
00000000: 855e dcbd b829 42bf bd35 3bbf 8b00 90be
00000010: 3832 543d 2200 0abf 7808 f6be d11e 15be
00000020: b85a ddbd 893b ecbd a757 c9be c0d6 113e
00000030: 545d 9f3e 8a9d 6cbd 038e 3dbf ae90 b9bc
00000040: 1143 97bd ec7b 4fbf ded9 a3be 295e d6be
00000050: a0b5 7fbe b50c f9be 3c64 19be 3395 a83d
00000060: 154e 2bbf 754b 4bbf 3f21 e0bd 7f58 9fbe
00000070: c4e1 1fbf 1079 dbbe 5fba 26bf 1351 ccbe
00000080: e7c3 65be 5152 11bf 8cf5 2abf efe7 c5be
00000090: 6af3 69bf ae9e d9bc 75b0 34bf 12a8 403e
000000a0: 89b1 bebd 6130 e1be cc47 93be 3627 12bf
000000b0: f08d 37bc c6b5 23bd bf62 c3be 6feb a9be
000000c0: a0cc c7be 8846 aebb a405 8bbc 284d 0ebe
000000d0: 17fa 543d b9e9 d4be 845c 76bf 6327 c2be
000000e0: ee9d b7be 48e7 b2be 98f1 33be 51a4 05be
000000f0: fb94 08bf 6936 02bf c488 dcbe e650 aabe
-0.10760216 -0.7584491 -0.73128873 -0.28125414 0.051805705 -0.5390645 -0.48053336 -0.14562537
-0.10808319 -0.11534793 -0.39324686 0.14242077 0.3112589 -0.05776743 -0.7404482 -0.022651996
-0.07385839 -0.81048465 -0.32002157 -0.41868713 -0.24971628 -0.48642507 -0.14979643 0.082315825
-0.6691602 -0.79412013 -0.10943841 -0.31122205 -0.62453866 -0.428658 -0.6512813 -0.39905605
-0.22438012 -0.5676623 -0.66780925 -0.38653514 -0.91387045 -0.026564922 -0.7058175 0.18814114
-0.09311206 -0.43982223 -0.28765714 -0.5709108 -0.011203274 -0.039968275 -0.38161275 -0.33187434
-0.39023304 -0.0053184666 -0.016970463 -0.1389662 0.051996317 -0.41584566 -0.9623492 -0.37920675
-0.35862678 -0.3494208 -0.1757263 -0.13050963 -0.53352326 -0.50864273 -0.43073094 -0.33264846

fc3.weight f4 [2, 64]
00000000: 929f b53e 5eeb 873c 3925 153f 8392 43be
00000010: 52e5 4c3f 917b c93f 0c38 88bf 1e58 e03e
00000020: e362 f93d 5610 fbbd cabb d1bd 4fc6 eebd
00000030: d9a1 70bc aea8 5b3d cfd1 7abe 0b8d 593f
00000040: d667 1c3e 1c4c 643f 06e4 203f b050 52bf
00000050: 6341 a3be 7a00 333e 1771 8e3b daeb c2be
00000060: a88a 39bf 4295 4cbe 180c 0abf 3e55 8c3e
00000070: 315a 81be 9db3 8dbf 93a3 a43f 3c39 723e
00000080: 9146 19be 0c33 8ebf dfa6 883f 1e73 bcbe
00000090: 3b61 6fbf 0bfa 1fbf cc48 353e da8a 1c3f
000000a0: ac76 b83f fb6c 203f 2c42 493d 4e66 80be
000000b0: 8d0b 9cbf 2dca 1f3b 799d 053f 2625 c03d
000000c0: 178b 0dbf e450 11bf 7c45 3cbe 5113 f9bf
000000d0: bdc3 91bf 4ec0 09bf d8f0 6ebf 989e 65bf
000000e0: 2205 403f 7534 fdbe cc1e fe3e 8847 9c3f
000000f0: 5701 513f 9d61 2bbf 268d 69be 25ca 4b3f
00000100: a6bf 49bd ebc0 75bf f60c 60bf 02b2 993f
00000110: 587c a2be a0f1 f7be bc3e 283f 3e0b 193e
00000120: 551d bdbf 64a6 39bf 3a27 c3bf 237b 0c3f
00000130: 8910 88bf b72c 89bf 931b a9be 0b41 6cbf
00000140: fc6a 203f 43fe e13e 75d4 8a3e da64 bc3e
00000150: 6860 703f 70d4 c3bf 7bac d8bf 0e7c 0ebf
00000160: 6721 9b3d 2411 a13f fc6a 7f3e 6a02 63bf
00000170: 709a e4be f727 e8be 38ae 2fbf 1819 4dbf
00000180: 5f98 623f d6fd 1140 d2e4 0cbe e7a6 893f
00000190: 618d 0d40 cf5c bd3f f777 7abf 42d5 6fbe
000001a0: c9be a0bf d839 69be 6869 e63f 45d5 48bf
000001b0: 21ea a3bd 11e9 843f 40f2 363f ca44 de3f
000001c0: a1b3 093f 6aaf 913f 62fe 2fbf dcb8 96be
000001d0: e680 583f 67c5 283e 65b7 b43f 07bd 3f3f
000001e0: 416c 0c3f 2625 823f 5451 09bf 7ea9 99be
000001f0: aca4 adbe f665 36bf 34ce 99bd d6d0 fa3e
0.35473305 0.016591724 0.5825992 -0.19098859 0.80037415 1.5740834 -1.0642104 0.43817228
0.12177064 -0.12258975 -0.10240896 -0.11658918 -0.014687025 0.053627662 -0.24494098 0.8498084
0.15273985 0.89178634 0.62847936 -0.8215437 -0.31885824 0.1748065 0.0043469775 -0.38070565
-0.724772 -0.19978812 -0.53924704 0.27408785 -0.25264123 -1.1070439 1.2862419 0.23654646
-0.14968325 -1.1109328 1.0675925 -0.36806577 -0.93507737 -0.6249091 0.17703551 0.6114937
1.4411216 0.6266629 0.049135372 -0.25078052 -1.2191025 0.002438198 0.5219341 0.093820855
-0.5529036 -0.56764054 -0.18385881 -1.945902 -1.138786 -0.5380906 -0.9333625 -0.8969512
0.7500783 -0.49454084 0.4963287 1.220933 0.8164267 -0.6694582 -0.2280775 0.79605323
-0.049255036 -0.95997494 -0.87519777 1.2007449 -0.31735492 -0.48426533 0.65720725 0.14945695
-1.4774576 -0.72519517 -1.5246346 0.5487539 -1.0630046 -1.0716771 -0.3302885 -0.9228675
0.62663245 0.441393 0.27115217 0.36795694 0.93897104 -1.5299206 -1.6927637 -0.5565804
0.0757473 1.2583356 0.24943155 -0.8867556 -0.44649076 -0.4534299 -0.6862521 -0.80116415
0.8851375 2.281118 -0.13759163 1.075406 2.211754 1.4793948 -0.978393 -0.23421195
-1.2558223 -0.22775972 1.8000917 -0.78450423 -0.08003641 1.0383626 0.71463394 1.7364743
0.53789717 1.1381657 -0.6874753 -0.29437912 0.84571683 0.16481553 1.4118468 0.7489781
0.5485268 1.0167587 -0.5363972 -0.30012125 -0.33914697 -0.7124933 -0.07510033 0.48987454

fc3.bias f4 [2]
00000000: 4baa d53d 5b18 a6bd
0.104328714 -0.08110114
