agent0_local.pth (torch_old, 49813 bytes, 10 tensors)

fc1.weight f4 [128, 24]
-0.013537188 -0.29827806 -0.08312902 0.0033871722 0.9523664 0.5501403 0.009933143 -0.056219596
0.41112658 -0.23832494 0.014197768 0.053135883 -0.44292006 0.8168144 -0.036423773 0.12392512
0.8798866 -0.3068847 0.04576635 -0.3896864 -2.1478734 0.97195935 0.04120734 -0.37280527
0.15000097 0.9246285 -0.18909724 0.49492073 -0.18542716 -1.5100342 -0.33091232 0.44695708
0.3565139 1.2563484 -0.15729983 0.2351807 -0.24299064 -1.0989289 -0.14998497 0.20834641
0.6694981 1.1165063 0.3167914 -0.28231785 -0.0990238 -0.09257136 0.21679126 -0.38966125
0.62806267 0.8144151 0.07397684 0.028550386 -0.63810384 -0.5310435 0.0806314 0.058425892
0.7707625 1.0341165 -0.12880678 -0.20315509 -0.7253088 -0.43585327 -0.056609597 -0.23812905
0.8984195 1.3754525 0.063052624 0.9324237 -0.82228404 -0.056602556 0.14700215 0.8125199
0.5446507 -0.7528699 0.34188867 -0.44022065 0.8791157 0.7460587 0.29269978 -0.43723166
0.849189 -0.9318195 0.086009406 -0.5636896 0.26773578 0.9440179 0.02140307 -0.5819781
0.88435626 -0.99025416 -0.013160056 -0.22281107 -0.2559921 1.1298047 0.030854397 -0.06959779
0.22151639 -0.74120885 -0.078078486 -0.68270725 -0.39246783 -1.4319661 -0.019671155 -0.6997472
0.27771783 -0.7379018 0.19390894 0.088364184 -0.25589234 -1.518474 0.1628555 0.05247896
0.35312852 -0.2695152 0.17051291 0.47437 -0.25477904 -1.396662 0.15214017 0.5509745
-0.6444691 1.1514426 -0.052517798 -0.21708642 0.5564617 -0.5257577 -0.0006724385 -0.34793022
-0.7534169 0.40937698 0.5081402 -0.6906912 0.13704377 0.26685435 0.45675665 -0.8233009
-0.74144185 0.1386594 0.22160031 -1.005459 -0.16841567 0.5503589 0.32391793 -0.92988604
-0.27671552 -0.46204105 -0.1537537 0.06335685 0.29453024 -2.3492913 -0.2188951 0.10066284
0.0418082 -0.50498056 0.06512315 -0.6395881 0.3740494 -1.3214918 0.17674957 -0.6266154
0.23248118 -0.45498043 -0.030510416 0.12241384 0.3657298 -0.0047951 0.01286382 0.07852651
0.50229144 0.007445942 0.071677424 0.17796294 0.6129358 0.8083677 0.013143852 0.114171274
0.97159505 0.6320083 0.05059966 1.2078842 0.56618005 0.19719574 0.11895291 1.1279731
1.2747073 0.9052911 -0.046259824 0.62582576 0.2908523 -0.14052199 2.3265704e-05 0.76336217
1.1266369 1.2213833 -0.18875565 0.055355813 0.0633984 -1.9426467 -0.13547291 0.15461251
0.8968782 0.65074635 0.080500096 0.005722171 0.14879115 -1.1047592 0.032957833 -0.07326521
-0.45367882 -0.20381409 0.073257975 0.044000123 -0.009884432 0.45219314 -0.065195054 0.101523586
0.007144034 -0.07395045 -0.029177075 0.16599265 -0.12565011 -2.3370237 0.0057348264 0.0783456
-0.35476977 -0.013415615 -0.05127785 0.11061939 0.5072401 -1.9431024 -0.05820881 0.17315426
-0.68322337 -0.14499886 0.074150145 0.23043582 1.0346973 -0.8253757 0.15651923 0.3267355
0.46890622 -0.61975324 -0.39085516 -0.7471744 0.42154175 0.54850084 -0.41269645 -0.75955606
0.6432693 -0.45056602 -0.19164276 0.0686916 0.20689188 -0.43594694 -0.18364002 0.04407651
00000000: 15cb 5dbc e7b7 98be 8c3f aabd 52fb 5d3b
00000010: 49ce 733f ffd5 0c3f 9fbe 223c 8546 66bd
00000020: 2f7f d23e 740b 74be c19d 683c 03a5 593d
00000030: 6bc6 e2be c01a 513f 1831 15bd 74cc fd3d
00000040: 4040 613f fe1f 9dbe 7f75 3b3d fa84 c7be
00000050: c276 09c0 54d2 783f 07c9 283d 55e0 bebe
00000060: db99 193e 74b4 6c3f b5a2 41be 4066 fd3e
00000070: 9ee0 3dbe cd48 c1bf 576d a9be 8fd7 e43e
00000080: fd88 b63e 06d0 a03f 3513 21be 36d3 703e
00000090: 8ad2 78be b4a9 8cbf a995 19be c358 553e
000000a0: 3a64 2b3f aee9 8e3f 7b32 a23e f78b 90be
000000b0: fdcc cabd 0e96 bdbd 87fe 5d3e ae81 c7be
000000c0: b7c8 203f 827d 503f 2b81 973d 80e2 e93c
000000d0: c65a 23bf 78f2 07bf 1322 a53d fd4f 6f3d
000000e0: b150 453f ee5d 843f ede5 03be e307 50be
000000f0: d6ad 39bf 2928 dfbe 77df 67bd 1ad8 73be
00000100: d2fe 653f d40e b03f bc21 813d 52b3 6e3f
00000110: 3581 52bf 15d8 67bd bb87 163e 4e01 503f
00000120: 3a6e 0b3f 15bc 40bf 080c af3e 9a64 e1be
00000130: ba0d 613f b4fd 3e3f bfdc 953e d4dc dfbe
00000140: 7364 593f b98b 6ebf b325 b03d f64d 10bf
00000150: aa14 893e 28ab 713f 7e55 af3c 84fc 14bf
00000160: 2c65 623f 4c81 7dbf 479d 57bc 9628 64be
00000170: 6611 83be 719d 903f 5cc2 fc3c 4989 8ebd
00000180: 31d5 623e ddbf 3dbf 9de7 9fbd e7c5 2ebf
00000190: 8bf1 c8be aa4a b7bf 6725 a1bc a222 33bf
000001a0: 0831 8e3e 22e7 3cbf 1190 463e 48f8 b43d
000001b0: 5204 83be 5b5d c2bf 98c3 263e 2ef4 563d
000001c0: 43cd b43e e5fd 89be f09a 2e3e a0e0 f23e
000001d0: 6672 82be d2c5 b2bf a2ca 1b3e aa0c 0d3f
000001e0: edfb 24bf 7962 933f e71c 57bd e74b 5ebe
000001f0: 4674 0e3f 0e98 06bf 9546 30ba e923 b2be
00000200: eedf 40bf dc99 d13e 7a15 023f 23d1 30bf
00000210: 3455 0c3e 22a1 883e 02dc e93e d9c3 52bf
00000220: 22cf 3dbf bbfc 0d3e 31eb 623e e1b2 80bf
00000230: 2875 2cbe 52e4 0c3f 92d8 a53e 030d 6ebf
00000240: a8ad 8dbe a590 ecbe 9c71 1dbe 3cc1 813d
00000250: abcc 963e ca5a 16c0 0926 60be 5228 ce3d
00000260: 133f 2b3d 6846 01bf 495f 853d 0cbc 23bf
00000270: 6783 bf3e a526 a9bf d7fd 343e de69 20bf
00000280: 8c0f 6e3e 32f3 e8be fbf0 f9bc 1bb4 fa3d
00000290: f040 bb3e 3720 9dbb c6c2 523c 82d2 a03d
000002a0: 2c96 003f 17fd f33b 9dcb 923d eb3b 363e
000002b0: 5ce9 1c3f 30f1 4e3f 5059 573c a1d2 e93d
000002c0: 74ba 783f 4ccb 213f 9741 4f3d f39b 9a3f
000002d0: 2df1 103f aeed 493e 959d f33d 6c61 903f
000002e0: 9c29 a33f 28c1 673f f17a 3dbd 1e36 203f
000002f0: 98ea 943e ffe4 0fbe b82a c337 b46b 433f
00000300: a335 903f 4a56 9c3f 2949 41be c7bc 623d
00000310: 05d7 813d a6a8 f8bf 69b9 0abe be52 1e3e
00000320: cf99 653f 5097 263f 3cdd a43d 0d81 bb3b
00000330: b55c 183e c068 8dbf cbfe 063d 120c 96bd
00000340: 9748 e8be a4b4 50be 4708 963d 7939 343d
00000350: 50f2 21bc dc85 e73e fc84 85bd 99eb cf3d
00000360: 8018 ea3b 5573 97bd c304 efbc faf9 293e
00000370: 6caa 00be cc91 15c0 36eb bb3b a873 a03d
00000380: 62a4 b5be 2bcd 5bbc b908 52bd 6b8c e23d
00000390: 7dda 013f 94b7 f8bf 5c6c 6ebd 5a4f 313e
000003a0: bae7 2ebf 957a 14be 08dc 973d 5ef7 6b3e
000003b0: f670 843f d24b 53bf 9446 203e e049 a73e
000003c0: 7a14 f03e 26a8 1ebf 2b1e c8be d246 3fbf
000003d0: 52d4 d73e 8d6a 0c3f f34c d3be 4472 42bf
000003e0: 4cad 243f 97b0 e6be 003e 44be 2eae 8c3d
000003f0: 77db 533e 7034 dfbe 210c 3cbe 9289 343d

fc1.bias f4 [128]
-0.092472695 -0.5252973 -0.23421752 0.06606553 -0.7373587 0.5482924 0.004321715 -1.2680166
-0.13148938 -0.51749843 -1.0972608 -1.2154058 0.09855585 -1.6655841 -0.06346054 0.22594306
-1.437478 -0.14174215 -0.48338065 -0.4104153 -0.6818845 -0.8383588 -0.42146426 -1.0851545
0.9025766 0.1368031 -0.21138424 -0.32987154 -0.68117213 -0.34001476 -0.7804615 -1.2503254
-0.9470487 -0.9226641 -1.1409861 -0.44436437 -0.11189311 -0.8501189 -0.45385388 0.49273095
-0.97016037 -0.74622566 -0.16136146 0.5686896 -1.0057701 -0.6822969 -0.62154895 -1.5352834
-0.5316448 -0.68944496 -1.219294 -0.5519308 0.2541871 -0.26418507 -0.1626251 0.16964732
-0.66713536 -0.04120631 -0.48909158 -0.032094266 -0.40362373 0.123058565 -0.7747303 -1.1656771
-0.2777661 -0.5654249 -1.3285145 -0.47580025 -0.7046453 -0.70619 0.21484186 -0.65974486
0.32492664 0.29304808 -0.10599937 -0.33466402 -0.75159234 -0.51208586 0.092083395 -0.34454373
-0.5930428 -0.28674167 -1.2238208 -0.101458795 1.1786549 -1.272696 -1.0518388 0.0017007644
-0.58294266 1.1453545 -0.009470878 -0.33911276 -0.78551006 -0.23153548 -1.7146732 -1.18559
-1.5940351 0.23038968 -0.393396 -1.072145 -0.22887537 -0.5098268 -0.13422172 -0.05101267
0.22283709 -0.3084107 -0.15215826 0.012456231 -0.31203708 -0.77656955 -1.2138939 -1.7627804
-0.9865683 -0.40994513 -0.17051542 0.26526338 -0.23846251 -1.7210529 -0.7472594 -0.9388621
-0.5384651 -0.50778115 -0.07204094 0.19294363 -1.0303235 -0.68394506 -0.859824 -1.3186471
00000000: 5362 bdbd e279 06bf b8d6 6fbe 5d4d 873d
00000010: 8ac3 3cbf e45c 0c3f 2c9d 8d3b 5e4e a2bf
00000020: 27a5 06be c77a 04bf 0b73 8cbf 6b92 9bbf
00000030: a6d7 c93d dc31 d5bf 99f7 81bd 9e5d 673e
00000040: 47ff b7bf db24 11be ab7d f7be f421 d2be
00000050: fc8f 2ebf af9e 56bf 2aca d7be 58e6 8abf
00000060: 430f 673f 1d16 0c3e 1c75 58be ece4 a8be
00000070: 4c61 2ebf 6a16 aebe 53cc 47bf aa0a a0bf
00000080: c971 72bf b733 6cbf d50b 92bf ba83 e3be
00000090: 3728 e5bd 64a1 59bf 895f e8be 3b47 fc3e
000000a0: 6e5c 78bf a508 3fbf f03b 25be a495 113f
000000b0: 13bd 80bf 02ab 2ebf d51d 1fbf 2b84 c4bf
000000c0: e019 08bf 777f 30bf d311 9cbf 564b 0dbf
000000d0: d024 823e 4443 87be 3287 26be 07b8 2d3e
000000e0: 62c9 2abf f3c7 28bd 366a fabe 4775 03bd
000000f0: c5a7 cebe 2106 fc3d ba54 46bf e834 95bf
00000100: 5c37 8ebe b0bf 10bf c30c aabf 179c f3be
00000110: a263 34bf dec8 34bf 81ff 5b3e 0ae5 28bf
00000120: c95c a63e 660a 963e 3316 d9bd 1559 abbe
00000130: 5b68 40bf 0f18 03bf 3896 bc3d 0968 b0be
00000140: a7d1 17bf cecf 92be 29a6 9cbf a1c9 cfbd
00000150: 2ade 963f b4e7 a2bf a7a2 86bf 2fec de3a
00000160: bb3b 15bf fa9a 923f be2b 1bbc 30a0 adbe
00000170: 3017 49bf a317 6dbe 697a dbbf 6ac1 97bf
00000180: 5809 ccbf 46eb 6b3e 336b c9be 0c3c 89bf
00000190: 4e5e 6abe 0284 02bf 6b71 09be a9f2 50bd
000001a0: 682f 643e 02e8 9dbe 60cf 1bbe 3815 4c3c
000001b0: 53c3 9fbe 43cd 46bf e060 9bbf caa2 e1bf
000001c0: bd8f 7cbf 54e4 d1be 989b 2ebe 9ad0 873e
000001d0: 842f 74be 764b dcbf 644c 3fbf 4459 70bf
000001e0: d9d8 09bf f2fd 01bf 338a 93bd 0493 453e
000001f0: a4e1 83bf 0617 2fbf 6d1d 5cbf 6ec9 a8bf

bn1.weight f4 [128]
1.1582314 0.38922867 0.56294674 0.80040663 0.6980392 0.6204766 0.69818854 0.7080449
1.0655826 1.1783017 0.39371225 0.61764807 0.697861 0.77798814 2.0490482 1.4457725
0.9164889 -0.13966742 0.61963165 0.8077736 0.4807693 0.42624044 1.0273751 0.6161001
1.1227049 0.684566 0.91482574 -0.020751232 0.44912037 0.7354097 0.6987557 2.2753975
0.56923854 1.6393185 0.16197702 0.58011705 0.32109472 0.7582113 0.99328285 0.38117087
0.20954968 0.98241514 0.84547573 1.1491569 0.34399375 0.44022858 0.51845944 0.6041746
0.34058768 0.5168023 0.7675065 0.9794625 0.99012 0.5404295 0.9271649 0.52855647
0.2620053 1.0683084 0.5262362 1.4195514 0.40352294 0.42617434 0.45714444 0.31591463
0.91714674 1.2335057 0.4866586 1.3079026 0.76317424 0.54253846 1.4641718 0.90840775
1.1610705 0.49098498 0.86405146 0.04761411 0.78141534 0.92886555 1.0013852 1.3490882
0.52918845 0.47215444 0.9597249 1.0069485 2.6669436 0.16551895 0.39578536 0.6551351
0.43547434 0.48888427 0.9543068 0.4286363 0.36576268 0.65958834 1.4079347 0.31596595
0.5849315 0.6941215 0.13483809 0.64847535 1.3572434 0.22017471 0.96282744 0.31204328
0.3113203 0.75754905 0.73927456 0.6748527 -0.2647876 1.6197278 0.39247265 0.73352265
0.7847918 0.4103623 0.75949293 1.2831672 0.28705406 0.2112845 1.6732014 0.46940657
0.3874847 0.71203256 -0.20434874 1.0720371 0.8291182 0.7557291 0.44340587 0.5139275
00000000: ed40 943f fb48 c73e 471d 103f 73e7 4c3f
00000010: b2b2 323f 8ed7 1e3f 7cbc 323f 6e42 353f
00000020: 0365 883f 97d2 963f a794 c93e 2f1e 1e3f
00000030: 05a7 323f 3b2a 473f 9b23 0340 130f b93f
00000040: 049f 6a3f fa04 0fbe 2ea0 1e3f 40ca 4e3f
00000050: 6527 f63e 303c da3e 0781 833f bcb8 1d3f
00000060: cbb4 8f3f b83f 2f3f 0532 6a3f 7dfe a9bc
00000070: 1bf3 e53e cf43 3c3f a7e1 323f 1da0 1140
00000080: 9eb9 113f 30d5 d13f 4edd 253e 8d82 143f
00000090: 8766 a43e 231a 423f c947 7e3f d428 c33e
000000a0: 3194 563e 8f7f 7b3f 1971 583f 9317 933f
000000b0: f31f b03e a465 e13e c2b9 043f 30ab 1a3f
000000c0: 8261 ae3e 284d 043f 4e7b 443f 0ebe 7a3f
000000d0: 8178 7d3f 9659 0a3f ae5a 6d3f 7a4f 073f
000000e0: 8f25 863e 54be 883f 6ab7 063f dcb3 b53f
000000f0: 8f9a ce3e 8633 da3e d60e ea3e 90bf a13e
00000100: 21ca 6a3f 84e3 9d3f 512b f93e 5a69 a73f
00000110: 635f 433f cde3 0a3f fb69 bb3f 698d 683f
00000120: f59d 943f 6262 fb3e 7a32 5d3f 0307 433d
00000130: d60a 483f 22ca 6d3f 642d 803f ecae ac3f
00000140: e578 073f 3abe f13e 88b0 753f b0e3 803f
00000150: 34af 2a40 cd7d 293e 61a4 ca3e efb6 273f
00000160: 7ef6 de3e 0a4f fa3e 734d 743f 3876 db3e
00000170: 3f45 bb3e c8da 283f 3437 b43f 4ac6 a13e
00000180: 12be 153f f2b1 313f ff12 0a3e 7b02 263f
00000190: 27ba ad3f 7b75 613e dc7b 763f 23c4 9f3e
000001a0: 6065 9f3e bcee 413f 1941 3d3f 26c3 2c3f
000001b0: 3e92 87be 3e53 cf3f 2df2 c83e 24c8 3b3f
000001c0: 1ee8 483f 021b d23e 216e 423f d33e a43f
000001d0: c0f8 923e f75a 583e 772b d63f 0f56 f03e
000001e0: 6564 c63e c447 363f cc40 51be 8338 893f
000001f0: 1741 543f 7677 413f 1806 e33e c190 033f

bn1.bias f4 [128]
0.3934642 -0.09942439 -0.15987207 0.86525935 0.58551526 0.0071104397 -0.1574235 0.34613967
0.14843103 0.16524047 1.7760086 0.49365526 0.5645173 -0.060578957 0.46405298 0.63678825
-0.30884552 0.014064046 1.1685066 0.10644714 0.10944089 -0.05243178 -0.121834256 -0.28124642
0.55461663 1.0396268 -0.59334296 -0.12861994 0.25394645 0.6605626 -0.066431396 0.008222255
0.5813946 0.47200397 -0.46777722 -0.07514488 -0.16537884 0.52791804 0.043043226 -0.27318752
-0.022275556 0.40751082 -0.1979255 0.2595415 0.37478587 0.7958168 0.25550464 -0.3631678
2.0256534 0.10632483 0.18645471 0.5114082 0.6883303 0.8362983 0.1657252 0.30255228
0.5520504 -0.049500637 1.2962252 -0.026775233 0.24047397 0.39355642 0.015816817 -0.2160192
-0.09088831 0.07853545 0.6759717 0.973278 0.7969101 0.46634436 0.46142474 0.054009877
0.038849976 -0.77730423 -0.12238687 -0.048648793 0.14902773 -0.13338716 0.021669386 -0.01990745
0.20323806 -0.064809225 0.3424676 0.8456941 -0.33171833 -0.13123493 -0.33050424 0.018379336
-0.24757388 0.6246684 0.3922657 0.8678305 0.01756099 0.49977127 0.53208524 0.24501511
0.025371583 -0.013816866 -0.16939138 0.9410513 0.98204577 -0.11600006 -0.20738909 -0.10562488
1.4254566 0.15675947 0.024897741 0.08070146 0.61356336 -0.25623828 0.47427145 -0.060026813
0.76481843 0.17974567 0.8643996 0.37697896 0.034421578 0.11143358 0.24282254 0.2791653
0.011757373 0.50079256 -0.74051785 1.0251588 -0.06184321 -0.47689041 0.5404914 0.17302276
00000000: 2474 c93e 049f cbbd 81b5 23be a381 5d3f
00000010: 54e4 153f b1fe e83b a033 21be 3839 b13e
00000020: 4efe 173e cc34 293e 4054 e33f 62c0 fc3e
00000030: 3584 103f a421 78bd 5a98 ed3e 8e04 233f
00000040: 0021 9ebe e26c 663c a091 953f f500 da3d
00000050: 8c22 e03d b5c2 56bd 3d84 f9bd 88ff 8fbe
00000060: 5bfb 0d3f 7e12 853f 53e5 17bf f2b4 03be
00000070: 4505 823e a11a 293f 2f0d 88bd a3b6 063c
00000080: 47d6 143f 81aa f13e 7f80 efbe 8fe5 99bd
00000090: 1259 29be a325 073f 184e 303d 3cdf 8bbe
000000a0: 3a7b b6bc 42a5 d03e fbac 4abe a0e2 843e
000000b0: efe3 bf3e a6ba 4b3f 81d1 823e 21f1 b9be
000000c0: 4ea4 0140 d5c0 d93d fced 3e3e a6eb 023f
000000d0: 6a36 303f a517 563f deb3 293e 22e8 9a3e
000000e0: 2d53 0d3f 2ec1 4abd b5ea a53f bc57 dbbc
000000f0: cf3e 763e 3a80 c93e 4592 813c 2334 5dbe
00000100: a623 babd 32d7 a03d 7b0c 2d3f bf28 793f
00000110: 4d02 4c3f b0c4 ee3e dd3f ec3e 7639 5d3d
00000120: 2721 1f3d 69fd 46bf f8a5 fabd f543 47bd
00000130: ba9a 183e a596 08be ff83 b13c f314 a3bc
00000140: a31d 503e b3ba 84bd ea57 af3e 697f 583f
00000150: fcd6 a9be 7362 06be da37 a9be 4390 963c
00000160: 0284 7dbe 45ea 1f3f 0dd7 c83e 242a 5e3f
00000170: 11dc 8f3c 05e2 ff3e bd36 083f 3ee5 7a3e
00000180: 11d8 cf3c 2360 62bc ef74 2dbe bde8 703f
00000190: 5a67 7b3f 7191 edbd ce5d 54be db51 d8bd
000001a0: 5d75 b63f 8e85 203e 59f6 cb3c cf46 a53d
000001b0: 7d12 1d3f aa31 83be b5d3 f23e adde 75bd
000001c0: 24cb 433f 400f 383e 4b49 5d3f 6303 c13e
000001d0: a4fd 0c3d 4a37 e43d 79a6 783e c1ee 8e3e
000001e0: ffa1 403c f133 003f 9492 3dbf 6738 833f
000001f0: 4e4f 7dbd fb2a f4be a55d 0a3f e12c 313e

bn1.running_mean f4 [128]
5.0018396 0.6426779 0.2628839 9.6968565 0.3315671 24.030361 0.46979892 1.8567274
0.026655473 1.6660911 2.2357635 1.3032833 8.503154 0.27743155 2.4805248 0.64264864
0.0012949546 15.140291 11.680989 0.2480625 5.3644094 6e-45 1.6925774 0.007922124
33.33262 0.08355285 0.5636999 0.83044934 8.747073 4.3621182 1.2276417 2.482389
4.0205827 9.314567 3.0399458 7.2528534 2.3906803 30.022552 0.7875834 18.326458
21.8017 0.32823312 11.75511 5.485788 0.11007018 0.00071690435 1.8341448 1.0017647
15.017661 0.3564159 0.18740161 6.6976705 8.026896 1.53852 0.9264732 12.193055
6.21411 1.5709022 17.804567 8.886664 3.1656227 16.613634 6e-45 1.0371637
0.624593 0.44019896 1.6551745 1.0822783 4.894464 0.7133254 0.86608577 5.1290503
6.344233 17.831732 0.44375575 21.680622 1.3839742 6.435212 4.345156 0.3719817
1.4933918 3.6647067 6e-45 12.373598 5.409631 0.11678721 16.83821 10.595284
1.9322451 16.385345 0.016815161 0.01682155 2.6037922 0.44197035 18.545933 0.034521013
0.4880785 14.851242 12.991233 14.96507 10.573802 3.7122228 3.8256319 11.959677
15.372901 3.289559 0.26629007 0.0016234305 11.631699 13.663047 0.1925247 1.9845604
1.7943162 1.2290088 1.0567199 14.238286 5.9089594 8.742472 3.971369 0.14795716
1.9278791 11.10734 10.836556 1.6439601 1.6938063 2.9665413 18.122583 0.44867542
00000000: 120f a040 8a86 243f b898 863e 5326 1b41
00000010: 2ac3 a93e 2e3e c041 7c89 f03e 3ea9 ed3f
00000020: 945c da3c 7942 d53f c016 0f40 fdd1 a63f
00000030: eb0c 0841 820b 8e3e ebc0 1e40 9f84 243f
00000040: 77bb a93a a23e 7241 55e5 3a41 1904 7e3e
00000050: 3ea9 ab40 0400 0000 60a6 d83f cccb 013c
00000060: 9a54 0542 c21d ab3d a34e 103f 5498 543f
00000070: 03f4 0b41 7996 8b40 5d23 9d3f 76df 1e40
00000080: 9da8 8040 7708 1541 798e 4240 6017 e840
00000090: e800 1940 302e f041 119f 493f 969c 9241
000000a0: e269 ae41 2c0e a83e ee14 3c41 938b af40
000000b0: 796c e13d a3ee 3b3a 42c5 ea3f d339 803f
000000c0: 5748 7041 257c b63e 35e6 3f3e 5153 d640
000000d0: 2b6e 0041 39ee c43f 592d 6d3f c116 4341
000000e0: fdd9 c640 5313 c93f c16f 8e41 c72f 0e41
000000f0: 9099 4a40 b9e8 8441 0400 0000 c8c1 843f
00000100: 54e5 1f3f c261 e13e c2dc d33f 1888 8a3f
00000110: 739f 9c40 7e9c 363f ccb7 5d3f 2e21 a440
00000120: f503 cb40 63a7 8e41 f433 e33e ea71 ad41
00000130: 1126 b13f 42ed cd40 850b 8b40 6374 be3e
00000140: 7627 bf3f 8e8a 6a40 0400 0000 42fa 4541
00000150: b21b ad40 222e ef3d a7b4 8641 4986 2941
00000160: cf53 f73f 3015 8341 f3bf 893c 59cd 893c
00000170: 88a4 2640 f049 e23e 125e 9441 e865 0d3d
00000180: 6de5 f93e b09e 6d41 17dc 4f41 ed70 6f41
00000190: 4b2e 2941 0f95 6d40 27d7 7440 d65a 3f41
000001a0: 67f7 7541 2288 5240 2c57 883e 4ac9 d43a
000001b0: 701b 3a41 d79b 5a41 3225 453e 1306 fe3f
000001c0: 27ac e53f 2950 9d3f 9942 873f 05d0 6341
000001d0: 3216 bd40 2ae1 0b41 e92a 7e40 1582 173e
000001e0: bec4 f63f aab7 3141 8962 2d41 496d d23f
000001f0: a5ce d83f d0db 3d40 0dfb 9041 c9b8 e53e

bn1.running_var f4 [128]
25.1934 7.3139825 2.5142126 193.20482 3.5152998 457.84946 3.5364628 19.535698
0.15890057 21.738142 36.551888 16.89106 194.92256 1.853004 10.815425 5.2800646
0.0040997984 409.60202 244.09074 1.7439848 90.73184 6e-45 24.859129 0.026699431
173.48938 0.7286848 6.417683 9.332484 182.51805 55.142628 15.827726 17.794752
60.288383 56.226334 72.048164 167.05486 49.15869 294.12585 13.805818 266.81284
444.7127 2.0334444 195.58466 45.09433 0.872757 0.002034653 22.268507 10.776433
307.1221 3.6877427 1.3353653 80.61494 145.8301 22.748089 10.448193 214.884
112.431015 25.216894 218.33733 106.86405 51.074577 543.5733 6e-45 16.25265
7.753691 3.4308703 27.175488 8.085786 72.70912 9.13071 9.230752 82.81425
34.37111 284.97684 4.5039473 247.78989 21.590061 66.6022 57.98537 2.4080994
20.16064 65.9486 6e-45 239.90363 14.220499 0.9654952 491.25476 363.38446
25.348602 219.11938 0.13132022 0.14538576 55.647472 3.2209687 95.99529 0.21683984
4.090661 246.74615 294.0278 317.87708 87.23549 60.78997 49.40308 283.97314
312.10336 38.872852 1.7215664 0.0057894443 364.6582 102.34423 1.2738047 38.753803
13.377921 16.060247 9.53402 181.17381 130.30283 231.45857 36.4751 0.90335685
23.434496 293.6786 228.86404 15.909793 21.966335 51.554382 397.02573 3.8183942
00000000: 158c c941 250c ea40 dce8 2040 6f34 4143
00000010: acfa 6040 bbec e443 6855 6240 1c49 9c41
00000020: d5b6 223e b7e7 ad41 2235 1242 e420 8741
00000030: 2dec 4243 3c2f ed3f fb0b 2d41 4af6 a840
00000040: 9a57 863b 0fcd cc43 3b17 7443 e53a df3f
00000050: b476 b542 0400 0000 7fdf c641 c4b8 da3c
00000060: 487d 2d43 168b 3a3f a95d cd40 db51 1541
00000070: 9f84 3643 0d92 5c42 5e3e 7d41 a75b 8e41
00000080: 4e27 7142 c4e7 6042 a918 9042 0b0e 2743
00000090: 80a2 4442 1c10 9343 a1e4 5c41 0b68 8543
000000a0: 3a5b de43 f423 0240 ac95 4343 9860 3442
000000b0: 016d 5f3f d057 053b e725 b241 456c 2c41
000000c0: a18f 9943 fa03 6c40 40ed aa3f d93a a142
000000d0: 81d4 1143 16fc b541 cc2b 2741 4ee2 5643
000000e0: aedc e042 33bc c941 5b56 5a43 65ba d542
000000f0: 5e4c 4c42 b1e4 0744 0400 0000 6d05 8241
00000100: 3d1e f840 6193 5b40 6667 d941 615f 0141
00000110: 126b 9142 6317 1241 29b1 1341 e5a0 a542
00000120: 047c 0942 097d 8e43 5620 9040 36ca 7743
00000130: 72b8 ac41 5434 8542 05f1 6742 4d1e 1a40
00000140: fe48 a141 afe5 8342 0400 0000 54e7 6f43
00000150: 2a87 6341 b22a 773f 9ca0 f543 36b1 b543
00000160: f0c9 ca41 901e 5b43 cf78 063e 01e0 143e
00000170: 0397 5e42 5a24 4e40 97fd bf42 430b 5e3e
00000180: b2e6 8240 04bf 7643 8f03 9343 44f0 9e43
00000190: 9278 ae42 ee28 7342 c19c 4542 90fc 8d43
000001a0: 3b0d 9c43 cd7d 1b42 4a5c dc3f 61b5 bd3b
000001b0: 4054 b643 3fb0 cc42 080c a33f e503 1b42
000001c0: f70b 5641 637b 8041 598b 1841 7f2c 3543
000001d0: 864d 0243 6575 6743 81e6 1142 6542 673f
000001e0: d979 bb41 dcd6 9243 32dd 6443 838e 7e41
000001f0: 0ebb af41 b037 4e42 4b83 c643 9260 7440

fc2.weight f4 [64, 128]
-0.08398212 0.40405887 0.41604203 -0.11570338 -0.2761938 0.03160794 0.1489575 0.12941985
0.10699009 -0.45404184 -0.37093675 0.4585721 -0.17280395 -0.045409862 0.016200352 0.47577003
0.3824698 -0.036009908 -0.26482084 -0.3716132 -0.6463082 0.13971376 -0.62345904 -0.04175328
-0.76769567 0.45298287 0.55187994 -0.3352559 0.12742452 0.079898395 -0.21462806 -0.1547736
0.48682755 -0.9101277 0.021146247 -0.5006684 -0.11073443 -0.9476602 -0.69214296 0.022025876
-0.2358048 -0.057169713 0.4683187 -0.59921837 -0.1520387 -0.400436 0.10713992 -0.348509
-0.3206899 0.38726494 0.5611264 -0.38903308 -0.02407373 -0.18606448 -0.73286104 0.16359732
0.0067627393 -0.09593764 -0.48009092 -0.62405264 0.2340361 0.1127362 -0.05661514 -0.08786195
0.5637838 -0.14310257 -0.17073922 -0.5043542 -0.11696101 0.21707655 1.0011281 -0.30425283
0.03821608 -0.01727333 -0.9123413 -0.21014538 -0.4471273 0.31708437 -0.5370723 0.89896625
-0.050212044 -0.47648248 -0.41716245 -0.3551737 -0.89182544 -0.12706481 0.1622386 0.19940521
-0.3117231 0.12521747 0.36325917 -0.45895812 -0.9915655 -0.25282532 -1.5010034 -0.24099523
-0.03557251 0.5082489 -0.20054907 -0.6934703 -1.7445627 -0.082879655 -0.554791 0.08204203
0.0216202 -0.7247599 -0.8377844 -0.45124063 -0.2546404 0.20708193 -0.09596081 -0.31732216
-0.6029465 -0.5939517 -0.66441435 -0.3021571 -0.0785434 -0.4059187 -0.6404725 -0.29638734
0.54861397 -0.17727806 0.35301235 0.43738845 -0.22157654 -0.10725543 -0.24452834 -0.33116534
0.051739074 0.8015436 0.7187106 -0.81353116 -0.47323945 0.29102993 -0.023195617 -0.29090664
-0.36291584 0.64058715 -0.6666531 -0.32155418 -0.47525606 -0.016935416 0.18635628 -0.30475906
0.24936843 0.24102816 -0.6810874 -0.16570395 0.51906985 0.46110788 0.082115166 0.6732853
0.31368393 -0.44808006 0.24050818 0.14450343 0.3180855 -0.5625659 0.5824177 1.0013851
0.1264568 0.30903003 -0.097032756 0.31136355 0.54127616 -0.2572002 -0.72948474 0.5612829
-0.29809272 0.49215722 0.6618816 0.3502093 -0.07540972 -0.13206168 0.008903079 0.44320914
-0.9849241 -0.62394613 -0.35334226 -0.11331864 -0.06545676 -0.4766703 0.16936941 -0.30931482
-0.76591504 0.06381769 -0.9730775 0.24702765 -0.17148747 -0.35494873 -0.48438603 0.50988144
0.36940444 0.2856856 -0.46438143 -0.9289164 -0.61234736 -0.46549723 -0.5187209 0.3575546
0.3877617 0.5412218 0.27066877 -0.23938894 -1.2109839 0.340826 0.17261636 0.06900642
0.64000034 -0.23322713 -1.0381557 -0.71644074 0.40272793 0.37593502 0.43276474 0.010776662
0.66505104 -0.77443326 -0.43227327 -0.4655872 0.10108103 -0.43578506 0.34464103 -0.18790829
0.43090966 0.4417265 0.7778643 -0.746943 0.26092714 0.4255497 0.36771148 0.06331148
-0.48247057 0.5960293 0.25026032 -0.23939651 -0.527147 0.33265176 -0.19157732 0.6462317
-0.81462055 -0.33240864 -0.11462435 0.42817745 0.2422052 -0.0708316 0.46113858 0.6071796
-0.23352487 -0.24781203 0.8492863 -0.25321645 0.28256467 0.0057307617 -0.8666538 -0.7684217
00000000: d1fe abbd cee0 ce3e 7603 d53e e5f5 ecbd
00000010: 4669 8dbe 5477 013d 5188 183e a386 043e
00000020: 9f1d db3d 2c78 e8be 6ceb bdbe f6c9 ea3e
00000030: 85f3 30be b1ff 39bd 9ab6 843c 2198 f33e
00000040: 15d3 c33e 207f 13bd 9996 87be 1644 bebe
00000050: 7474 25bf 2011 0f3e 039b 1fbf 7d05 2bbd
00000060: b487 44bf 5fed e73e 0148 0d3f a9a6 abbe
00000070: 937b 023e c5a1 a33d 75c7 5bbe f87c 1ebe
00000080: 7641 f93e 21fe 68bf e53a ad3c ce2b 00bf
00000090: bcc8 e2bd dc99 72bf 4830 31bf 9c6f b43c
000000a0: d076 71be ca2a 6abd 78c7 ef3e 6066 19bf
000000b0: 08b0 1bbe f305 cdbe 2d6c db3d c66f b2be
000000c0: 7731 a4be 9747 c63e fba5 0f3f 582f c7be
000000d0: 4536 c5bc b087 3ebe c89c 3bbf 0e86 273e
000000e0: f899 dd3b f47a c4bd 7ace f5be eac1 1fbf
000000f0: 29a7 6f3e 3de2 e63d 47e5 67bd f7f0 b3bd
00000100: 2354 103f 7b89 12be 43d6 2ebe 5b1d 01bf
00000110: 4189 efbd 5149 5e3e f724 803f 07c7 9bbe
00000120: 7788 1c3d cc80 8dbc 338f 69bf 5a30 57be
00000130: dfed e4be e258 a23e 927d 09bf a722 663f
00000140: 25ab 4dbd 83f5 f3be 5196 d5be 54d9 b5be
00000150: ac4e 64bf 471d 02be e021 263e e130 4c3e
00000160: 2c9a 9fbe 0239 003e 1bfd b93e 8ffc eabe
00000170: 3dd7 7dbf 5272 81be e120 c0bf 74c7 76be
00000180: 7bb4 11bd 9a1c 023f bc5c 4dbe 4587 31bf
00000190: d54d dfbf cfbc a9bd c806 0ebf a705 a83d
000001a0: d81c b13c dd89 39bf 0a79 56bf 0309 e7be
000001b0: 3a60 82be 490d 543e 1a87 c4bd 0d78 a2be
000001c0: b45a 1abf 380d 18bf 0f17 2abf 56b4 9abe
000001d0: 5ddb a0bd 93d4 cfbe 01f6 23bf 15c0 97be
000001e0: f771 0c3f 6188 35be 09be b43e 61f1 df3e
000001f0: f6e4 62be bca8 dbbd a365 7abe 818e a9be
00000200: 5aec 533d f631 4d3f 6bfd 373f 9443 50bf
00000210: 714c f2be e001 953e bc04 bebc b7f1 94be
00000220: 1bd0 b9be 85fd 233f c7a9 2abf c0a2 a4be
00000230: c354 f3be 24bc 8abc 2ed4 3e3e 6109 9cbe
00000240: 705a 7f3e 16d0 763e be5b 2ebf 4cae 29be
00000250: c3e1 043f 5516 ec3e ff2b a83d 6d5c 2c3f
00000260: 2e9b a03e c06a e5be c747 763e b5f8 133e
00000270: 1adc a23e 5204 10bf 5419 153f 632d 803f
00000280: e47d 013e 2f39 9e3e 1cb9 c6bd 0b6b 9f3e
00000290: 1391 0a3f bfaf 83be 83bf 3abf 3cb0 0f3f
000002a0: 9c9f 98be 08fc fb3e 1371 293f a24e b33e
000002b0: 6970 9abd 2d3b 07be 38de 113c 4fec e23e
000002c0: fc23 7cbf efba 1fbf 47e9 b4be 9a13 e8bd
000002d0: 320e 86bd 210e f4be 2d6f 2d3e 835e 9ebe
000002e0: 0213 44bf d9b2 823d 9b1b 79bf d1f4 7c3e
000002f0: 699a 2fbe d7bb b5be 7201 f8be 9787 023f
00000300: 9422 bd3e 6245 923e 67c3 edbe 77cd 6dbf
00000310: ccc2 1cbf a755 eebe e5ca 04bf 6611 b73e
00000320: b488 c63e 838d 0a3f 1995 8a3e 6022 75be
00000330: 8501 9bbf bf80 ae3e 58c2 303e 3d53 8d3d
00000340: 10d7 233f 18d3 6ebe 49e2 84bf a968 37bf
00000350: 5b32 ce3e 8e7a c03e 5793 dd3e 9990 303c
00000360: c940 2a3f 4241 46bf ec52 ddbe 7261 eebe
00000370: 9203 cf3d 381f dfbe ca74 b03e 086b 40be
00000380: 31a0 dc3e fa29 e23e 1d22 473f a837 3fbf
00000390: 3e98 853e a6e1 d93e ae44 bc3e 73a9 813d
000003a0: 6206 f7be 6095 183f 1f22 803e 5c24 75be
000003b0: 1bf3 06bf 5551 aa3e d82c 44be 716f 253f
000003c0: f98a 50bf 7731 aabe 2cc0 eabd 133a db3e
000003d0: a404 783e 2810 91bd 5b1a ec3e 1f70 1b3f
000003e0: 2521 6fbe 70c2 7dbe d46a 593f 96a5 81be
000003f0: 51ac 903e 1dc9 bb3b 06dd 5dbf 49b7 44bf

fc2.bias f4 [64]
-0.10207444 -0.7584651 -0.6929117 -0.26357853 0.056973077 -0.5689356 -0.43609008 -0.11155672
-0.085037544 -0.12583517 -0.40209785 0.12621076 0.31438076 -0.054418053 -0.7404324 -0.024575127
-0.06468283 -0.8105132 -0.31619963 -0.41446117 -0.24207228 -0.46607378 -0.1544393 0.089866705
-0.669156 -0.80776227 -0.09405217 -0.32429647 -0.62527746 -0.43107668 -0.6530462 -0.3961695
-0.2332402 -0.55206317 -0.6678885 -0.3574763 -0.9445064 -0.029870395 -0.70584977 0.20031369
-0.11983891 -0.44006956 -0.29130125 -0.5697134 -0.026222387 -0.050597765 -0.36742568 -0.32951385
-0.3636374 -0.010695463 -0.028969016 -0.14809635 0.04990628 -0.42773086 -0.9597892 -0.3876512
-0.37163135 -0.3499367 -0.17510366 -0.129781 -0.5392429 -0.50863117 -0.4307133 -0.342893
00000000: 670c d1bd c52a 42bf a962 31bf c4f3 86be
00000010: 9a5c 693d c3a5 11bf 3347 dfbe da77 e4bd
00000020: 2a28 aebd efda 00be c5df cdbe 653d 013e
00000030: 84f6 a03e 77e5 5ebd fa8c 3dbf c751 c9bc
00000040: 6e78 84bd cb7d 4fbf ebe4 a1be 4134 d4be
00000050: cce1 77be 39a1 eebe 5625 1ebe 090c b83d
00000060: cf4d 2bbf 82c9 4ebf 6d9e c0bd 300a a6be
00000070: 2f12 20bf 15b6 dcbe 092e 27bf bbd6 cabe
00000080: 85d6 6ebe 0354 0dbf befa 2abf 2207 b7be
00000090: 2ccb 71bf c2b2 f4bc 92b2 34bf 081f 4d3e
000000a0: 1a6e f5bd cc50 e1be 7025 95be bdd8 11bf
000000b0: 55d0 d6bc 9a3f 4fbd 381f bcbe 0ab6 a8be
000000c0: ae2e babe 063c 2fbc 6e50 edbc 92a6 17be
000000d0: 876a 4c3d 8aff dabe bfb4 75bf 387a c6be
000000e0: 7746 bebe e72a b3be 604e 33be 4fe5 04be
000000f0: d30b 0abf a735 02bf 7486 dcbe ac8f afbe

fc3.weight f4 [2, 64]
0.35548654 0.016590087 0.60678315 -0.26811954 0.7989719 1.559276 -1.0871538 0.44762072
0.13981326 -0.052579757 -0.104518056 -0.103068456 -0.013587884 0.055294793 -0.24493761 0.85186994
0.1495839 0.89176697 0.6298545 -0.82924485 -0.32215592 0.17604318 0.0034044601 -0.39843976
-0.72474396 -0.18969408 -0.5312835 0.2538242 -0.2518804 -1.1058658 1.276317 0.23197377
-0.122058846 -1.1169738 1.0675622 -0.4084244 -0.90463775 -0.60615134 0.1770329 0.6306894
1.4419752 0.62638414 0.06513254 -0.23315133 -1.1866022 0.004414833 0.5359293 0.09949043
-0.60648173 -0.55768174 -0.16817759 -1.9339967 -1.1791412 -0.5379023 -0.93838996 -0.91833675
0.7155714 -0.49859023 0.47490737 1.2010732 0.8341663 -0.6694786 -0.22810711 0.79831886
0.014866083 -0.95992655 -0.8729446 1.2090894 -0.31641296 -0.48996437 0.6646235 0.18304783
-1.4868063 -0.7223206 -1.5514848 0.55064297 -1.0661193 -1.0508841 -0.33030722 -0.9415229
0.6309011 0.44140944 0.24980417 0.3738509 0.8823931 -1.5437292 -1.7119416 -0.57013243
0.07575075 1.2438977 0.2472927 -0.88170415 -0.44635984 -0.40963873 -0.7163883 -0.8286611
0.91775876 2.2683485 -0.1375827 1.141493 2.201687 1.4217713 -0.978351 -0.16606957
-1.257402 -0.22774892 1.7932991 -0.807016 -0.11761427 1.0288627 0.7304881 1.7419869
0.54348356 1.1471305 -0.69053644 -0.31885558 0.82734984 0.21552826 1.422802 0.7395663
0.5651285 1.0396111 -0.5738507 -0.29641807 -0.33104217 -0.71251905 -0.07507196 0.50239843
00000000: 5502 b63e efe7 873c 2456 1b3f f746 89be
00000010: 6c89 4c3f 5b96 c73f db27 8bbf 8b2e e53e
00000020: 352b 0f3e df5d 57bd 900d d6bd 8e15 d3bd
00000030: b79f 5ebc cb7c 623d edd0 7abe 2614 5a3f
00000040: 862c 193e d74a 643f 253e 213f 6449 54bf
00000050: 9ff1 a4be aa44 343e 5d1d 5f3b 4c00 ccbe
00000060: d288 39bf 2a3f 42be 3202 08bf 3ff5 813e
00000070: 78f6 80be 038d 8dbf 5b5e a33f 888a 6d3e
00000080: fdf9 f9bd fff8 8ebf e1a5 883f 011d d1be
00000090: 5796 67bf bc2c 1bbf 1d48 353e dc74 213f
000000a0: a592 b83f b65a 203f 3664 853d 39bf 6ebe
000000b0: 95e2 97bf 4eaa 903b aa32 093f a3c1 cb3d
000000c0: 6342 1bbf 3bc4 0ebf bf36 2cbe 348d f7bf
000000d0: 19ee 96bf f7b3 09bf 533a 70bf 1e18 6bbf
000000e0: b02f 373f 3847 ffbe 0f27 f33e c4bc 993f
000000f0: ec8b 553f f362 2bbf e994 69be a05e 4c3f
00000100: df90 733c bfbd 75bf 4c79 5fbf 71c3 9a3f
00000110: e100 a2be 9cdc fabe c424 2a3f e470 3b3e
00000120: ab4f bebf 01ea 38bf 0e97 c6bf f0f6 0c3f
00000130: 9976 88bf 5f83 86bf 071e a9be a507 71bf
00000140: bc82 213f 6b00 e23e aacc 7f3e 6369 bf3e
00000150: 84e4 613f eb98 c5bf e720 dbbf 33f4 11bf
00000160: 3623 9b3d 0a38 9f3f 4c3a 7d3e 5db7 61bf
00000170: 4789 e4be 2bbc d1be 3965 37bf 2223 54bf
00000180: 3df2 6a3f 9f2c 1140 7be2 0cbe 711c 923f
00000190: 71e8 0c40 9afc b53f 3675 7abf 240e 2abe
000001a0: 8cf2 a0bf 0337 69be d38a e53f 9a98 4ebf
000001b0: c0df f0bd c6b1 833f 4501 3b3f 6df9 de3f
000001c0: bd21 0b3f 2cd5 923f ffc6 30bf 0a41 a3be
000001d0: 33cd 533f 71b3 5c3e 601e b63f 3854 3d3f
000001e0: 43ac 103f fa11 853f e1e7 12bf 1cc4 97be
000001f0: 5c7e a9be a667 36bf 54bf 99bd 2f9d 003f

fc3.bias f4 [2]
0.117569074 -0.09853933
00000000: 0ec8 f03d fdce c9bd
