critic_target.pth (torch_old, 63926 bytes, 9 tensors)

fcs1.weight f4 [128, 52]
00000000: fa8e 1dbe ae0a 57bd 1698 553c 5190 95bc
00000010: 9c29 41be d8b7 29c0 394a 77bc a06e 823a
00000020: 993d 96bd ba85 b93e 74a0 10bd c8f9 8dbd
00000030: 639c 073e 5d30 32bf 4908 823c fdaf d03d
00000040: 2d97 bc3e 71a8 213f 4f2e 353d 7240 a93d
00000050: eb56 663f 106a 5b40 7870 b2bd 6722 00bc
00000060: 2212 71be 13f9 b0be a5e6 40bd 6cd8 8ebd
00000070: bf1a db3d 7071 26c0 8ca5 443d b180 a23b
00000080: dd2a d33d 52bf df3d 164c c53c ea35 72bc
00000090: be04 a7bd d918 15bf 9f3f 43bb c255 79bd
000000a0: 91f3 4c3e 9c69 123f 966a fb3b cd54 d7bc
000000b0: d112 49bf c6bb 5740 e303 2dbb 59f2 c13c
000000c0: 7e89 b93e 8b7a 86be ffe6 0dbf 16f2 fb3d
000000d0: 42f0 b5be eb39 fc3f 4a9f 543d 2d48 a23e
000000e0: d45e e9bc 9d98 643f 6310 bd3c a1a2 a03e
000000f0: ab0c 9c3d 2b14 5340 b02c ec3e 15d5 313f
00000100: 04fa 443e 272f 97bf 93a1 163f 67ca 463f
00000110: 7752 593e 17bf 8340 8b09 5abe 7160 af3f
00000120: 1f08 af3e 211a 12c0 ecc1 16be 099a a93f
00000130: c26d 813d fc8e bb3d 1ffd 73be 351b 8b3e
00000140: fa23 d83d 5f80 543f 173e 75be b7c5 3b3e
00000150: 3073 043f 6e06 613f b723 febd 4e89 f13e
00000160: 1704 97be 8b36 9bbf 66ff a4bd 9373 e03e
00000170: 4199 783f 9a70 c43f 4f24 31be 7ca0 e43f
00000180: 23c9 a1be e56f 12c0 28f3 02be 6562 e93f
00000190: 3a1c 653e 9572 a93f ec74 47c0 f41a d43f
000001a0: 0e72 303f 7b40 dfbf e54e a5bc 38e3 cdbc
000001b0: 7342 4fbe 6ccb 5040 0970 81bd 98d9 a83d
000001c0: ece0 ab3f 25f6 84bf 2730 8bbd bf04 fc3c
000001d0: ce15 50bc 624b c33f c06e 9ebd 9e14 5bbd
000001e0: 5acc dc3f c319 38bf 7965 a43c 8642 373e
000001f0: 9397 5c3e 818c 61bf bd20 893d e364 643e
00000200: 599b 0abf c78a d33e 3ee2 0739 c9d4 1bbe
00000210: aafa 3c3e 0b3e 5140 f567 44bd eec2 93bd
00000220: 7dd5 f7bd 01ec 953f b65b 6abd 9ac8 453e
00000230: 2286 6a3d 3b79 c13f f56b 5bbd 1783 6f3e
00000240: 5fc6 643f 8a05 c43f 9065 313c 32b3 de3e
00000250: bed6 bfbe c1ff 4dbf b3f5 3db9 33b9 ab3e
00000260: f625 26c0 475b 533f a776 1540 eed6 463e
00000270: f831 063f dab6 093f a40e 98bd a4fa 873e
00000280: 0577 1b3e 346a afbf 24ea e3bc 52be 023e
00000290: 3d5f 443f 3b50 6f3f f206 6fbd 41d1 f83d
000002a0: 0ade a23e 8b7b 4cbf 3913 52be e834 d33d
000002b0: f085 8d3f 45c0 863f 7776 22be 3948 a53d
000002c0: 407a 183c a70d 25c0 ace7 9cbd 96f7 763d
000002d0: beed 82bf 5cf7 8740 f59f 61bd 1d19 9b3f
000002e0: 8806 8abe a16f a7bf 27fc 563c 2ad7 9d3f
000002f0: 1aeb 5bbf 986f 8640 e6b5 94bd e3fb ad3d
00000300: 04f3 a5be d565 4dbf 67c7 0dbe d999 1a3d
00000310: 2e22 87bf e1de 7b40 0ddb 453d fa20 5cbf
00000320: 93f0 2bbe 11e7 28c0 f4fd 103c 60d0 60bf
00000330: 8c94 f93e 2b7b a8be 9a9b 98be c96d ac3f
00000340: e954 573f d25c 19bf 84ae ac3d d2a5 c4be
00000350: e036 083f f334 bbbe 3ef4 f43d b2e2 95be
00000360: fdad b53f 3237 69bf 1066 2f3b 7463 45bd
00000370: 103c bcbd 546c c4be eba7 223e cbd2 8bbd
00000380: 3d7f f03f e859 9bbf 11e3 b2bc 028b cb3e
00000390: 0591 c8bf 69a8 b5bf a3ba 3cbc 654e 963e
000003a0: a1a3 353e 22c2 c93e 2ee6 953e 675f a33d
000003b0: 072a 18bf 74dc bfbe 9001 a43e bede 403e
000003c0: 8e78 0b3e 6d6b 1e3f 6ac2 9cbd 5ebf 8c3c
000003d0: fa6f c33d 1dcd a9be 9baa 44be 2291 11bd
000003e0: 2bd9 6c3e 0e9c 803e 2aa5 1a3e 747e 0dbe
000003f0: 7517 c03f 39de a8bf c417 053e bc95 38bd
-0.15386572 -0.05250042 0.013036748 -0.018257292 -0.18863529 -2.651846 -0.01509338 0.0009951182
-0.073359676 0.36234838 -0.03530927 -0.069324076 0.1324325 -0.69605047 0.015873091 0.10189817
0.36834088 0.63147646 0.044233616 0.08264245 0.89976376 3.4283485 -0.08712858 -0.007820702
-0.23542073 -0.3456503 -0.04709496 -0.06974873 0.10698461 -2.6006737 0.04800944 0.004959189
0.1031091 0.10925163 0.024084132 -0.014783362 -0.081552014 -0.5824104 -0.002979256 -0.0608728
0.20014788 0.571924 0.007672618 -0.026285553 -0.78544337 3.3708358 -0.0026400022 0.02367513
0.3623771 -0.26265368 -0.554306 0.123020336 -0.35534865 1.9705175 0.051909722 0.3169569
-0.0284876 0.8929537 0.023079103 0.31374076 0.07619604 3.298106 0.46127844 0.6946576
0.19235998 -1.1811265 0.5884029 0.7765259 0.21222864 4.1170764 -0.21292703 1.3701307
0.34185883 -2.2828448 -0.14722413 1.3250133 0.06319763 0.091581315 -0.23827027 0.27169195
0.10553737 0.8300838 -0.23949467 0.18337141 0.5173826 0.87900436 -0.12409156 0.47175068
-0.29495308 -1.212602 -0.08056526 0.43838176 0.97108847 1.5346863 -0.17299007 1.7861476
-0.31598768 -2.2880795 -0.12788069 1.8233153 0.22374049 1.3238093 -3.1165113 1.6570725
0.68924034 -1.7441553 -0.020179221 -0.02513276 -0.20240192 3.262416 -0.06320197 0.08244628
1.3428016 -1.0387617 -0.06796294 0.030763982 -0.012700511 1.525738 -0.07735968 -0.05348646
1.7249863 -0.7191431 0.020067917 0.1789647 0.21542196 -0.88105017 0.066956975 0.2230411
-0.5414329 0.41316816 0.00012958885 -0.1521789 0.18454996 3.2694118 -0.047950704 -0.07214914
-0.121012665 1.1712648 -0.05721637 0.19314805 0.057256825 1.5115122 -0.053569753 0.2338985
0.8936519 1.531419 0.010827437 0.4349609 -0.37468523 -0.80468374 -0.00018115975 0.33539733
-2.596067 0.82561153 2.335367 0.19417927 0.52419996 0.53794634 -0.074246675 0.2655841
0.15182121 -1.3704286 -0.027821608 0.12767914 0.7670782 0.93481797 -0.058356233 0.12149287
0.31810027 -0.7987601 -0.20515145 0.103128254 1.10565 1.0527426 -0.15865503 0.08070416
0.00930649 -2.5789583 -0.076613754 0.06029471 -1.0228803 4.248945 -0.055084188 1.2117039
-0.26958108 -1.3080941 0.013121641 1.2331288 -0.8590561 4.2011223 -0.07261257 0.08495309
-0.3241197 -0.8023351 -0.13845597 0.037744377 -1.0557306 3.9354784 0.048304606 -0.8598782
-0.1679099 -2.6391032 0.00884961 -0.87817955 0.48746145 -0.3290647 -0.29806215 1.3471004
0.8411394 -0.5990726 0.08431724 -0.3840776 0.5320873 -0.36563835 0.11960648 -0.29274517
1.4193722 -0.91099846 0.0026763715 -0.04819055 -0.091911435 -0.38363898 0.15884368 -0.06827315
1.878883 -1.2136812 -0.02183679 0.39754492 -1.5669256 -1.419202 -0.011519107 0.29356685
0.177382 0.39405924 0.29277176 0.07977181 -0.5943913 -0.3747288 0.32032442 0.1883497
0.13620207 0.6188267 -0.07654269 0.017181095 0.09542842 -0.33164302 -0.19205706 -0.0355388
0.23129718 0.2511906 0.15102068 -0.1381777 1.5007159 -1.3192817 0.12997347 -0.045064673

fcs1.bias f4 [128]
00000000: a586 7cc0 4018 a6bf 20ca 90bf 712c a2bf
00000010: d62f 04c0 878a 33be 2847 423f 3d3d 87bf
00000020: 10c9 b03e ddef 18c0 fb4d 82bf 5cc5 673f
00000030: d975 b0bd f6b6 99c0 b289 373f 8b60 1cc0
00000040: 67fb ddbf cf83 0bbf 30cb 65c0 d723 6b3d
00000050: fbe1 d03f fe26 80c0 f428 b3be 1339 8d3e
00000060: 2d1b 7dbe 1c52 bcbe a476 b8bf ba58 a13d
00000070: 8316 71bf db68 183f 0de6 e1be 5b26 ffbe
00000080: 0098 643f 5090 8fbf 8136 0dbf 1ad7 7ac0
00000090: 4947 70c0 df87 b7bf ea36 a13e f16b 7d3e
000000a0: 48d5 a6bf 368c 40c0 4e33 643f ad12 a4bf
000000b0: a3f1 0fc0 7602 acc0 085a 94c0 4f65 7fc0
000000c0: 2a99 e6bd 8080 9540 e930 ae3f 996a d2bf
000000d0: d287 67bf 9be6 90bf f834 02c0 312a 503e
000000e0: bc66 a73e fadd abc0 40d5 37c0 3a30 1a3e
000000f0: 87a9 a1bf de9d 4ac0 837c 3dc0 d716 55bf
00000100: 4cd0 22c0 f255 36c0 4709 8abf 9b2d 4bc0
00000110: 24bb a7bf fb04 05c0 ac43 05c0 2407 97be
00000120: 95f2 113d b047 b0bf 97c7 e2bf 2c88 f7bf
00000130: 9283 a2bf ed8c 0fbf d396 b2bb 0c0e efbf
00000140: add2 3ac0 b6fb 29c0 0fea 40c0 8454 c3bf
00000150: 874a 5f3f 7d50 09bf 5cbf da3e a824 1c3f
00000160: fccb 96bf e511 143f 7f81 4bbf 3d4f bfbf
00000170: e376 b0c0 bff3 07be 377a 1f3f 7fb2 02c0
00000180: daf7 cdbe 077c 353f 9376 d83e 0e83 d6bd
00000190: ec77 46bf d1bf f43f 9f73 a83f f9cf ccbe
000001a0: c993 cf3e 1c36 dabe f2c2 033f 90c1 9bbf
000001b0: 50c9 ccbd f610 e0bf 8491 9cbe 3c85 adc0
000001c0: f97b 9bc0 8f69 92bf 23f9 4ebf cf91 55be
000001d0: 960a 74c0 75d7 84bf 5c81 12bf 9a62 3abf
000001e0: 39d9 07c0 f724 0440 8f3d f0be 2454 0ebf
000001f0: 4e2f 54bf fcc0 593e bdbd 25bf 7225 7ec0
-3.945718 -1.297615 -1.1311684 -1.2669812 -2.0654197 -0.17533313 0.75889826 -1.0565563
0.345284 -2.38964 -1.0180048 0.9053552 -0.08616228 -4.803584 0.7169448 -2.4433925
-1.7342347 -0.54498 -3.5905266 0.057407226 1.6318964 -4.00476 -0.34992182 0.27582607
-0.24717398 -0.36781394 -1.4411206 0.078782514 -0.94174975 0.59534997 -0.44120827 -0.4983395
0.89294434 -1.1215916 -0.5516129 -3.9193788 -3.754351 -1.433834 0.3148721 0.24748208
-1.3033838 -3.0085578 0.89140785 -1.2818199 -2.2491233 -5.3753004 -4.63599 -3.9905584
-0.112596825 4.671936 1.3608676 -1.6438781 -0.9044162 -1.1320375 -2.034483 0.20328595
0.32695568 -5.3708467 -2.8723907 0.1505746 -1.2629861 -3.1658854 -2.9607246 -0.83237976
-2.5439634 -2.8489957 -1.0784081 -3.1746585 -1.3103986 -2.078429 -2.0822554 -0.29497635
0.035631735 -1.3771877 -1.771716 -1.9338431 -1.2696402 -0.5607441 -0.0054501086 -1.8676162
-2.9191086 -2.6559882 -3.0142858 -1.5260167 0.87223095 -0.5363844 0.4272412 0.60993433
-1.1781001 0.57839805 -0.7949447 -1.4946057 -5.5145125 -0.13276576 0.6229586 -2.0421445
-0.40228158 0.70892376 0.42277965 -0.104742154 -0.77526736 1.9121038 1.3160285 -0.4000242
0.4054244 -0.42619407 0.5146934 -1.2168446 -0.09999335 -1.7505176 -0.3057977 -5.422514
-4.8588834 -1.1438464 -0.808489 -0.20856403 -3.813146 -1.0378252 -0.57228637 -0.72806704
-2.1226332 2.0647562 -0.46921965 -0.5559714 -0.8288468 0.21265024 -0.6474264 -3.9710355

fc2.weight f4 [64, 128]
00000000: 8b4f f93d 45d4 113d 7fee 1cbf 99ba 70be
00000010: ad3a 47be a248 413c 1427 5f3e aec8 89be
00000020: 423c 76be 44f6 0b3c 7e7f 6d3d 38bb dc3e
00000030: 9e9d 6f3e b702 f33d 8be1 643e e06f f8bb
00000040: 9971 633e 6cdc 663e 464e ca3d 40f2 bb3d
00000050: 600b 7ebe 2ee6 053f 5e11 8e3e 3389 29be
00000060: deb5 7c3e f8e9 31be d6ba 653e e649 b43d
00000070: 7d1a 133e 08c1 9f3e fd73 5cbd 9406 923c
00000080: 6bea 9bbd 99af bbbd 6b5d 153c 5f12 d43b
00000090: d308 6c3e 1423 b3be 163f 29bd 295d e33d
000000a0: 642c 43be ab73 093f b616 4a3f f841 b9be
000000b0: 4e67 b3bc 9980 ea3d 31b5 533f a4e3 703e
000000c0: 3bbd c63e fb92 98bf 0fa2 33bc 9690 0e3e
000000d0: d4be 0e3e 6409 31bd 6a44 593c 13be 93bd
000000e0: 676b 3c3f 0d76 a6ba 2d94 1e3e 15fc 423c
000000f0: c6c4 493f ac8e 01bf 0a5f 143e e77d ad3a
00000100: 4022 053e 7a3e d63d 64ed 69bd 7fd8 4b3f
00000110: 84e0 fc3e a92c c7be 13e8 39bd f09d 1f3d
00000120: de3c a83e e36e ad3c e184 333e d128 35bf
00000130: c595 a9be 1465 2d3d 7dd6 66bd e48c 243f
00000140: cc08 c1bf c9ca 09bd 8de3 853e 8955 f3bf
00000150: f8f3 f13e 6bdf 8a3d 73a6 a23e d86f fb3e
00000160: 09a5 13bd 7120 323e a356 45be ae51 143d
00000170: 253a 0abc ee6e 24bd 18aa 2b3e 5b6e c23d
00000180: 1325 b73b 352c 24bf b5c8 86bf c548 213e
00000190: aa9d b73d 43d1 cc3e 7572 51bd 17f5 233d
000001a0: 2cad 1d3e 1eb2 a33e 773d 35bf ea29 43bb
000001b0: b404 db3e ad69 70bd 9912 46be 20c1 d53e
000001c0: d078 253f ada6 7d3e a2ef 37be f065 943e
000001d0: 839b 49bd 144c 0abc 4a25 04ba 842f 6b3c
000001e0: 39ec 453f 3e60 0e3e da9f 2d3e a53a 6f3e
000001f0: 4a0f 7fbe f92c a2be d94a ae3d 2056 0cbe
00000200: 3059 7cbf 5f36 4a3e 617f d43c 3b8e 143c
00000210: 4a39 943d ca83 c8bb 6a50 333e 4993 abbd
00000220: 5a81 fd3d f663 5ebd cd7c edbd 8bcf 24be
00000230: fe50 3e3f 421b 92be f8d4 a43c ca75 f13e
00000240: 52d5 d43e fc65 65bd f19d 54be 82eb 0c3e
00000250: 3d06 613e 2073 75bc 4016 793e 2daf 603e
00000260: 31b1 50be a829 b63d 1b35 debe 9b96 1b3f
00000270: 9a60 8a3e c175 dc3e 8e36 cfbc 0d99 33be
00000280: 6a51 06be a3b5 13bf 62a8 c4bd cbfa bfbc
00000290: e58c 063e 32d8 85bf 93f2 88be 383a 02bf
000002a0: a8ab 11bf d667 1f3e 7534 16be 0eb6 94be
000002b0: a6b8 9e3e 1395 e4be 69e5 483c 2d9d e9bd
000002c0: 6406 07bf ca5f 50be 5c09 3ebe 82eb 4f3e
000002d0: 2409 dcbe d4e2 ec3d b9b7 a2bd 739a 66bf
000002e0: 87ba b63d 3a65 24bd 5d9b aabd 2b1a 49be
000002f0: c559 2cbf 6bc3 39be a5f2 0bbd 50eb 1d3f
00000300: 78e7 07be 1c59 cdbe 3c2f aa3e 5bed b3be
00000310: 02d3 8abe c855 463d 3710 37bc 193b 5c3e
00000320: 3ced d3bc 0c8a 823e 3990 433e 9b6b aa3e
00000330: 86c0 05bf 8233 513e d64b bebe 7854 d9bd
00000340: 31d1 d6be e5f7 02be e202 26bf 1701 50be
00000350: 00de a1be 0ba8 5c3e 6f8a 5a3f cf77 abbc
00000360: c9d1 8d3e 5e28 f03d d752 61be 02a7 60bd
00000370: 85b3 803e 7189 a13e d090 d0be 1b1c b23e
00000380: 45ad 4c3d f03c 893e 3e60 b5be 3c69 c6bd
00000390: 8f01 a8be 74a7 a83e 5eee 5cbe d9ac 7c3d
000003a0: 5a8a 44be 72d1 bc3e 8940 6f3c a205 143d
000003b0: 62d1 fdbd 6119 8ebe d9d7 27bf 1a3e 983e
000003c0: 7670 59bf 9719 9cbd 7d9e 27bb 7f17 2abf
000003d0: 6cc9 84be b16c 41bd dc25 c23d bd70 f03e
000003e0: af02 273f 00c4 20c0 a929 0f3b 3e95 1d3e
000003f0: 3576 50bf 443d 84be 2be1 71be d19a e1be
0.12173375 0.035602827 -0.61301416 -0.23508681 -0.19455977 0.011797102 0.21792251 -0.2691092
-0.24046424 0.008542601 0.057982914 0.43111587 0.2339997 0.11865752 0.22351663 -0.007581696
0.22211303 0.22545022 0.09878211 0.09177065 -0.24809027 0.5230435 0.27747625 -0.16556244
0.24678752 -0.17374408 0.22434554 0.088031575 0.14365573 0.3120196 -0.053821553 0.017825402
-0.07613071 -0.09164352 0.009116511 0.0064719166 0.23050241 -0.349877 -0.04131993 0.11101753
-0.19059902 0.5369212 0.78940904 -0.36183143 -0.021899845 0.11450309 0.8269835 0.23524338
0.38816246 -1.1919855 -0.010963931 0.13922343 0.13939983 -0.043221846 0.01326094 -0.07213988
0.7360138 -0.0012699977 0.15486212 0.011900921 0.7881588 -0.50608325 0.1448938 0.0013236374
0.13001347 0.10461135 -0.05711116 0.7962722 0.49390042 -0.3890126 -0.04538734 0.03896898
0.32858938 0.021171039 0.17531158 -0.70765406 -0.33122078 0.042332724 -0.056356896 0.6427748
-1.508081 -0.033640657 0.2615017 -1.9010478 0.47256446 0.06780895 0.31767616 0.49108768
-0.03604606 0.17395188 -0.1927133 0.03621071 -0.008436714 -0.040144853 0.16764104 0.09493705
0.0055891364 -0.64129955 -1.0530001 0.15750416 0.08965619 0.40003404 -0.051134545 0.040028658
0.15398091 0.3197183 -0.7079691 -0.0029779621 0.42777026 -0.05869453 -0.19343032 0.41748905
0.6463747 0.24770613 -0.17962506 0.28984022 -0.049220573 -0.00844099 -0.0005040957 0.01435459
0.7731357 0.13903901 0.1695551 0.23362215 -0.24908176 -0.31674936 0.0851037 -0.13704729
-0.9857359 0.19747303 0.025939645 0.0090671135 0.072374895 -0.006119226 0.17511144 -0.08377702
0.123781875 -0.05429455 -0.115960695 -0.16094796 0.74342334 -0.2853642 0.020121083 0.47160178
0.41569 -0.056005463 -0.20763375 0.13761714 0.21975036 -0.014981061 0.24324894 0.21941824
-0.20380093 0.08894664 -0.4339989 0.6077668 0.27026826 0.4305859 -0.025294568 -0.17538853
-0.13116995 -0.5769903 -0.09602429 -0.023435017 0.13139684 -1.0456603 -0.2674757 -0.50870085
-0.5690255 0.15566954 -0.14668448 -0.29045147 0.3100025 -0.44644985 0.012261727 -0.11406932
-0.52744126 -0.2034904 -0.18558258 0.20304683 -0.42975724 0.115667015 -0.079451986 -0.9007942
0.08922296 -0.0401356 -0.083304144 -0.19638889 -0.6732448 -0.18140952 -0.03416695 0.61687183
-0.13271892 -0.40107048 0.33239162 -0.35142025 -0.2711411 0.04842165 -0.0111732995 0.21506919
-0.025869958 0.25495946 0.19097985 0.3328522 -0.5224689 0.20429805 -0.37167233 -0.10611814
-0.41956475 -0.12789877 -0.6484815 -0.20312916 -0.31614685 0.21548478 0.8536748 -0.020931153
0.27699116 0.117264494 -0.22004257 -0.05484677 0.25136963 0.31550172 -0.40735483 0.34787068
0.04996993 0.26804304 -0.3542499 -0.096880406 -0.3281369 0.32940257 -0.21575305 0.061688278
-0.19193402 0.36878544 0.014602789 0.036138184 -0.12393452 -0.27753738 -0.6556373 0.2973488
-0.84937227 -0.076220684 -0.0025576644 -0.664421 -0.25934923 -0.047222797 0.09479877 0.46961012
0.6523847 -2.511963 0.00218449 0.15388963 -0.8143037 -0.25827992 -0.23621051 -0.44063428

fc2.bias f4 [64]
00000000: d7d0 0ebf 716e 64be bc19 b8be f815 12bf
00000010: d541 95be 6cfd 05bf 5707 e7be b4b5 f4be
00000020: f6f9 b23e 769c c0bd 321b 3abf 70c3 38bf
00000030: e7f3 10bf da02 0ebe daf8 13bf 5339 29be
00000040: 6a0e b7bf 65b2 22bf f401 c13d 92d6 8abf
00000050: 22ce 95be 8697 51bf eddc 5bbf 2b15 26bf
00000060: db41 5cbf 71e1 433e e590 38bf e02c f6be
00000070: 85bb 39be 1468 1ebe 5d9e 19bf 0534 f7be
00000080: 2d83 c53e 016c 0abf 04d6 88bf a0e1 4cbf
00000090: 2d01 32bf 7880 0cbf fc8d b2be 8305 9fbe
000000a0: 7c4d 53bf 2f1b 0e38 fc68 00bf 339b 31bf
000000b0: 6256 4bbf 8572 f7be 22a4 23bf 2409 21bf
000000c0: 5729 53bf eb71 25bf ff2b a8bf 8caa 153c
000000d0: f4a2 26bf 11e9 26bf 52c2 bbbe e2bf 08bf
000000e0: c005 e9be 52e6 3abf 8d08 36bf 3795 b9be
000000f0: c9d0 37be c039 62bf 36d3 03bf c9d8 39bf
-0.55787414 -0.22307755 -0.35957134 -0.5706477 -0.29151788 -0.52339816 -0.45122787 -0.47794878
0.3495633 -0.094048426 -0.72697747 -0.72173214 -0.56622165 -0.13868275 -0.5780159 -0.16525774
-1.4301274 -0.6355346 0.09424201 -1.0846732 -0.2925883 -0.8187183 -0.8588398 -0.6487605
-0.8603799 0.19128968 -0.7209609 -0.48081112 -0.1813794 -0.1546939 -0.6000727 -0.48281875
0.38576642 -0.5407105 -1.0690312 -0.80031776 -0.69533044 -0.5488353 -0.3487395 -0.31058893
-0.82540107 3.3880755e-05 -0.50160193 -0.6937744 -0.79428685 -0.4832956 -0.6392232 -0.6290457
-0.82484955 -0.6462695 -1.3138427 0.0091349 -0.65092397 -0.6519938 -0.36671692 -0.5341779
-0.455122 -0.7300769 -0.711068 -0.36246654 -0.17950739 -0.8836937 -0.5149416 -0.7259641

bn1.weight f4 [128]
00000000: 83a1 b63e 7aa4 2a3d 7faf 303e b3cb 403e
00000010: b1a7 863c 54c6 c13d fc09 023e 4807 e63d
00000020: 8edc 193e fb77 883e 0827 4e3d 2793 223e
00000030: 579a 7c3d 2197 923e b54d 4c3d 6490 143e
00000040: 4a02 0c3e eee9 083e e611 a93e fef0 c23d
00000050: aae2 a73d 4eb3 c83e 58de 073e 8b82 a23d
00000060: 1d60 0e3e a46c cf3d dfaf 363d e19f e23e
00000070: 4da8 423d 75e2 1b3e 1c70 6f3e 8c5f ab3d
00000080: 4672 053d bc6b 8f3e 1f41 b83d ad5a 353e
00000090: cb3d 9c3d 2053 5a3e 6a61 a7bd 8b6d a23d
000000a0: e3ff 5f3e 48e2 7d3d e1f6 983e f9b3 333e
000000b0: daf6 b63e 60d1 693e 3bd7 8c3e f06a 8f3d
000000c0: fd2e 833f 89ad 263f f8d5 f13d 5ad7 0e3e
000000d0: ddf8 823d d3a7 873e 5d11 d93d 88b5 0b3e
000000e0: f904 3d3e 00df 0d3e eb1e 143e 5e7a 13bd
000000f0: e327 113f 3106 263e cb97 913e d69f 763f
00000100: 62f7 503e 6a6b 903d 1c77 123e f922 9c3e
00000110: d858 bfbd 211f e43d 5b27 453e 748b bf3d
00000120: b035 5d3e b835 0c3d ce46 64bd b036 c93e
00000130: 1314 023e aeaf f1bd 66a3 cc3c 934f 293f
00000140: a4f2 213f 6755 8e3d 76ff 843e 260e ff3e
00000150: d419 273d 025b 1c3e ffd3 893d d2d7 b13d
00000160: 2207 f63d 14f7 903d ee06 3a3e fab3 45be
00000170: 36ed fd3e 3ea5 253e 9941 e53d ee5d 693d
00000180: 23f2 413f a7a9 9c3e 453c f33e ba34 6abd
00000190: f85d da3d 7c0f f13d d594 543e 20a6 113e
000001a0: 92f1 823d 0aac 403d 43d1 853e 4446 ab3d
000001b0: 3ce5 d93d 5441 a53e 4a31 233e 2dbe 153e
000001c0: 2e43 463e cef1 0e3e 006d 1d3e 3797 9d3d
000001d0: 6110 b53c 1359 a03d c8ab 053e f922 ef3d
000001e0: ac94 403f e212 4f3e 0fcd 723d b2af 853d
000001f0: 2be1 f13e 777f fd3d 1935 5e3e 7be8 4f3e
0.356701 0.041660763 0.17254446 0.18827705 0.016437383 0.09461656 0.12699121 0.112318575
0.15025541 0.26654038 0.05033019 0.15876447 0.061670627 0.28630927 0.049878795 0.14508206
0.13672748 0.13370487 0.33021468 0.09518622 0.081975296 0.391993 0.13268411 0.07935055
0.13903852 0.101281434 0.044601317 0.44262603 0.047523785 0.15223105 0.2338261 0.083678335
0.032579683 0.28011882 0.08996796 0.17710371 0.076289736 0.21320772 -0.08172877 0.0793105
0.21874957 0.061983377 0.29875854 0.17549123 0.35735208 0.22833776 0.27507958 0.070028186
1.0248715 0.65108544 0.118083894 0.13949338 0.06395123 0.26495227 0.10599015 0.13643467
0.18458928 0.13854599 0.1446492 -0.03600537 0.5670149 0.162133 0.2843612 0.9633764
0.20406869 0.070517376 0.14303249 0.30495432 -0.093431175 0.1113875 0.19253294 0.093527704
0.21602511 0.034230918 -0.055731587 0.39299536 0.1270297 -0.11801086 0.024980258 0.66137046
0.63260865 0.06949883 0.2597615 0.49815482 0.040796116 0.15269092 0.06729888 0.086837426
0.12013079 0.070783764 0.18166706 -0.19306937 0.4959504 0.16176316 0.111941524 0.056974344
0.75760096 0.30598184 0.4750692 -0.05717919 0.10662454 0.117705315 0.207599 0.14223528
0.06393732 0.04703907 0.26136217 0.083630115 0.10639426 0.32276404 0.15936771 0.14623328
0.19361565 0.13959429 0.15373611 0.076948576 0.022102537 0.078294896 0.1305381 0.116765924
0.75226855 0.20222047 0.05927759 0.06527652 0.47242102 0.123778276 0.21699943 0.20303528

bn1.bias f4 [128]
00000000: 529e cf3d ef4b 883c 7d0e fc3d a089 0b3d
00000010: 20f7 6a3a e0c1 683d c3e4 4e3c 5da2 2c3d
00000020: 545c b33d 9f1a 633d e3ab dd3c a4fd 313c
00000030: 4da8 bfbc b763 d03d ca59 333c 13f9 e23d
00000040: 13a8 fabb a619 f6bc c73e 2f3e 498c 963c
00000050: bf7a c93c 1ada 463e 47d3 043c ec9d 8d3c
00000060: 345a 4b37 0b59 b33c 45b3 b2ba f3f4 e83d
00000070: 6e80 943b af35 5d3c 3055 983d 6a2b b1ba
00000080: 6c8a 83bb 89d5 c43d f40a 003c 6dd6 783d
00000090: dfaf 8c3c b4d1 4fb9 ac3d 6ebc 7a10 fbba
000000a0: 60eb 903d 33f8 80bd 68a1 16be 81d5 fa3c
000000b0: 167b 4b3d f73f e13d fa95 123d 85c3 4cbb
000000c0: 7397 5a3e e4f4 21bd 0c1b a23b 65e5 2e3d
000000d0: 4542 9abb 5e70 b13d fcc2 a9bc 658f 093d
000000e0: 758a 1fbd 7a6f 043d da3e 8c3d a6fa 69bc
000000f0: 1815 793e 37ca e4bb 9cdb 013e 4e48 a53e
00000100: ed7d b23c 06d7 d03b 8f32 813b 29cf 2a3d
00000110: 3334 f3bc eaaf a5bc 8466 6a3a c7ba 113c
00000120: b272 b6bd cc2e 213d f809 13bd 7361 e03d
00000130: e8f4 963d 54b9 3abd 926f d7ba 4e06 783e
00000140: bca2 823e 34b6 ff3d b284 303d 2209 0f3e
00000150: bf6b 7fbc a92f 253d 2170 34bc 9fde 0c3c
00000160: 8081 db3d 551e ca3c e3bd 893a 720a 863a
00000170: a3d0 e83d df9c 943d 17a2 bc3b 69b1 a43c
00000180: 50ea de3c be3d be3d f12b 003e dfeb afb9
00000190: 3b66 2fbb 6345 5abd 53b2 af3c 7bb8 be3a
000001a0: 5e20 94bc c8bd 033d 5096 983d ac23 87b7
000001b0: 7d94 10bc bbf6 033e 2560 39bb 8c5a 1a3c
000001c0: cf40 eb3d 13ed 4e3c 4b1b 2d3c 31a5 8b3c
000001d0: a9a8 cf3b 2cf5 cb3b 7eaa 5a3d cdbf 093c
000001e0: e271 8d3e 867f e3bc dbe3 0f3b ad51 023b
000001f0: 549a f03d 227f 8a3d ba04 753c 7838 553e
0.10137619 0.01663777 0.12307451 0.034066796 0.0008963216 0.05682552 0.012627783 0.04214703
0.087578446 0.05544531 0.027059501 0.010863695 -0.023395682 0.10175269 0.0109467 0.110826634
-0.0076494305 -0.030041527 0.17113791 0.01837744 0.024594663 0.19419137 0.008107013 0.017287217
1.2120745e-05 0.021893045 -0.0013633749 0.11374845 0.0045319116 0.013501569 0.07438123 -0.0013516967
-0.004014304 0.09611041 0.007815111 0.060751367 0.017173706 -0.00019819179 -0.014541071 -0.0019154691
0.07076144 -0.0629734 -0.14710009 0.030619385 0.04967793 0.109985285 0.03578756 -0.0031244468
0.21346836 -0.039540187 0.004947072 0.042699236 -0.004707607 0.086640105 -0.020722859 0.033584017
-0.038950402 0.032332875 0.068479255 -0.014280951 0.24324453 -0.0069821137 0.1268143 0.32281727
0.021788562 0.006373289 0.0039427946 0.04170147 -0.029687976 -0.020225484 0.00089416676 0.008894629
-0.08908595 0.03935127 -0.03589818 0.10956087 0.07370931 -0.0455869 -0.0016436449 0.24221155
0.2551478 0.12485924 0.043095298 0.13968328 -0.0155896535 0.040328655 -0.011013062 0.008597999
0.107180595 0.024672667 0.0010508861 0.0010226502 0.11367919 0.07256483 0.0057566273 0.020104127
0.027211338 0.0928912 0.12516762 -0.0003355434 -0.0026763815 -0.05328883 0.021447336 0.0014550829
-0.01808184 0.03216341 0.07450545 -1.6109865e-05 -0.008824465 0.12887089 -0.0028286066 0.009421002
0.11486971 0.012629765 0.010565589 0.017046543 0.0063372445 0.006224295 0.05338525 0.008407545
0.27625948 -0.027770769 0.002195588 0.0019885108 0.11748186 0.0676253 0.01495474 0.20822322

bn1.running_mean f4 [128]
00000000: 0c17 0440 faac 0f40 f973 2841 0b9f 9d3f
00000010: 2f64 043e f23c f840 5f95 6440 a68e 8940
00000020: fbe4 a540 8757 bf3f a007 0440 c76a 323f
00000030: ca3c 7e40 ea9e 1542 4a8a c73f 4b8a 0542
00000040: 5bcd 0940 7357 1c41 4992 5641 2a45 573f
00000050: 65d5 9f3f 816c 0140 3960 d13a cb5b 863f
00000060: d960 c33f 189e 5b41 a39e 913d 2491 9442
00000070: f6a3 983b 2356 d73f 5262 0f40 0008 a836
00000080: 3512 1c3c cd9e 803f f6be 2c3e 9ae3 9641
00000090: 6ee2 493f 1863 8f40 d5e3 f33e 6146 b93f
000000a0: c076 5e40 b869 e03f efa2 e341 0b4a 753f
000000b0: dce0 1c3f ee1b a841 29fd a040 42d8 4941
000000c0: 3718 8a42 d6b3 1f41 a7c6 2040 59d2 8240
000000d0: dd89 1e3f 2299 6740 f64b 5340 de8b 7e41
000000e0: 8a36 9941 c59a f93e 0cf7 5e40 780e 8140
000000f0: 1cca 7c42 affc 1340 d681 4a40 9466 9a42
00000100: 0f12 1b40 94f6 c53f a6e6 253f 1e7c 0441
00000110: 3a38 0040 c43e b23e 0400 0000 b627 413f
00000120: 2cc9 be40 7869 3341 baf0 d040 7be9 3940
00000130: 418a 9d40 bbce 0642 ede5 383f 51d8 8940
00000140: 21d5 5c40 698c 1542 a1f4 7240 95f4 ed3d
00000150: 0b83 743f 3bf9 5240 d21f 803f 46be e93e
00000160: 542c ae41 454e 2241 a7f6 5f3f 0400 0000
00000170: 9ff7 c43f 442f 3741 cad7 8b3f 91ab 9d40
00000180: ee9b f93d e2d1 5540 f764 3841 1f89 633f
00000190: efb4 ec39 cee3 5340 f6c3 273e fd66 2e40
000001a0: a0df b73f d798 5d41 7de6 3540 0400 0000
000001b0: 789f 5e3f e91b 8f3e 501f 2740 05de 0f41
000001c0: dcef 1942 7ab2 2240 bc3a 3240 8b1f 2e41
000001d0: 6ac4 a63e 65b9 6541 2e51 4541 6031 d03f
000001e0: 5e79 8940 4271 133f bf2e 143e 49ce cc3c
000001f0: a9b9 ae3f 5a84 0740 f688 8d3f 5207 6c42
2.0639067 2.2449327 10.528314 1.2314161 0.12928842 7.7574396 3.571617 4.298663
5.1842017 1.4948586 2.0629654 0.6969418 3.9724603 37.40519 1.5589077 33.38505
2.153159 9.77135 13.410714 0.8408991 1.2486998 2.0222476 0.0015974111 1.0496763
1.526393 13.726097 0.07110336 74.28348 0.0046582175 1.6823162 2.240376 5.0077215e-06
0.009525825 1.0048462 0.16869721 18.861134 0.7886113 4.4808464 0.4763476 1.4474603
3.475998 1.7532263 28.454557 0.95816106 0.6128061 21.013638 5.0309033 12.615297
69.047295 9.981405 2.5121248 4.088177 0.6192911 3.6187215 3.3015113 15.909147
19.15163 0.48750892 3.4838285 4.033016 63.197372 2.3122976 3.1641746 77.20035
2.4229772 1.5465875 0.64805067 8.280302 2.0034318 0.3481351 6e-45 0.7545122
5.962057 11.213249 6.5293856 2.9048755 4.9231267 33.701885 0.7222584 4.307656
3.4505084 37.38712 3.796181 0.11618916 0.95512456 3.2964618 1.0009711 0.4565298
21.771645 10.144109 0.87485737 6e-45 1.5388068 11.449039 1.0925229 4.927193
0.12187944 3.3409352 11.52465 0.88881105 0.00045148234 3.310779 0.16383347 2.725036
1.436512 13.849814 2.842193 6e-45 0.8696208 0.2795098 2.6112862 8.991704
38.484238 2.5421433 2.7848349 10.882701 0.32571727 14.357762 12.332319 1.6265068
4.2960653 0.5759469 0.14470957 0.025000708 1.3650409 2.117453 1.1057422 59.00715

bn1.running_var f4 [128]
00000000: 799e bf41 8c13 3242 73db 1d43 9b86 c141
00000010: fd07 2040 1809 3e43 170f c642 b101 a242
00000020: deae ab42 62d0 2342 bb2e 4b42 498f e940
00000030: d19a d742 9dba b943 2db5 0f42 ac6e 4144
00000040: 6918 5242 f089 5943 18a6 e442 12d4 4d41
00000050: 27b9 b341 1c8b a741 dfb6 e53b e917 bf41
00000060: 9138 b141 76d0 1644 613b 7f3f 8d87 1246
00000070: 23be 613d 9d3d 3a42 5cff 8242 d062 1b36
00000080: 75f0 d33d dbf9 8e41 99b3 2d40 4a5d 5a43
00000090: e0f7 d440 25ce 0743 e8ed 0941 455b 1e42
000000a0: 14a1 b042 4b3e e841 b591 1844 d772 4e41
000000b0: 8c85 0e41 0422 d943 7a8c 1c42 447a b543
000000c0: 4329 fb45 0730 0f42 cce9 a442 6bca 0243
000000d0: 0054 5741 b76f 1342 557a 0243 4fbc ff43
000000e0: 2a06 b443 82a5 8240 2a47 9042 e88b fb42
000000f0: 9c28 d945 ba10 c341 4afa 9d42 375d 1e46
00000100: 358a 3d42 3249 2a42 340f 0441 f2cf 9d42
00000110: de38 2e42 d268 a440 0400 0000 c12a a641
00000120: 0b58 ff42 4aa0 b743 b84b 5f43 d146 7642
00000130: 7650 1543 3827 c544 3072 5a41 a5b1 da41
00000140: 0243 3842 fd8d 0844 fd46 9542 644b 0c40
00000150: 6129 8c41 2898 3f42 6596 a541 2b5f 1541
00000160: 66da c443 08e2 e143 0419 4c41 0400 0000
00000170: f3f4 0142 c4fa 4743 db8f bc41 6523 0643
00000180: 5776 3440 9f4f 0742 4731 8743 aeb5 9041
00000190: bf7f 4e3b 8b43 5542 c399 1c40 9740 2442
000001a0: 0315 0f42 05af f343 5c39 0542 0400 0000
000001b0: 9256 8241 f48a 8240 a3c2 4a42 de69 d942
000001c0: b0a7 1943 bb45 4042 3ace 7342 285c b743
000001d0: 99bd a740 02bf ad43 ee37 0444 a4d4 c641
000001e0: 0cfd cd41 38f7 c640 a1d1 1440 7a10 df3e
000001f0: 0267 b941 7b91 7d42 6662 b841 6f0d 2544
23.95238 44.51909 157.85722 24.190725 2.5004876 190.03552 99.02947 81.0033
85.84154 40.9535 50.795635 7.298741 107.802376 371.45792 35.92693 773.72925
52.523838 217.53882 114.3244 12.864275 22.465406 20.942924 0.0070103253 23.886675
22.15262 603.2572 0.9969998 9377.888 0.05511297 46.56017 65.49875 2.3154316e-06
0.10348598 17.872 2.7140868 218.36441 6.655258 135.80525 8.620583 39.58913
88.314606 29.030416 610.2767 12.903037 8.907604 434.26575 39.137184 362.9552
8037.1577 35.7969 82.456635 130.7907 13.458008 36.859097 130.47786 511.47116
360.04816 4.0827036 72.13899 125.773254 6949.076 24.383167 78.988846 10135.304
47.384968 42.57148 8.253712 78.90614 43.555534 5.1377954 6e-45 20.770876
127.67196 367.25226 223.29578 61.569157 149.3143 1577.2256 13.652878 27.33674
46.065437 546.21857 74.63865 2.1921015 17.520205 47.89859 20.698435 9.335734
393.70624 451.76587 12.756107 6e-45 32.48921 199.97955 23.570242 134.13826
2.819723 33.827755 270.38498 18.08871 0.0031509248 53.31596 2.4468849 41.063076
35.77052 487.36734 33.306015 6e-45 16.29227 4.079462 50.690075 108.70677
153.65503 48.068096 60.951393 366.71997 5.2418942 347.49225 528.8739 24.853828
25.748558 6.217678 2.3252947 0.43567258 23.175297 63.39207 23.048046 660.2099

fc3.weight f4 [1, 64]
00000000: 4566 febd 5eee a53c b76f b33c 8b1c 8fbd
00000010: 6d99 1bbd 8f27 02be e573 6dbc f06d 543c
00000020: 26d7 47bd 022d 643c 204a d6bc 0932 69bc
00000030: b2d0 bb3c 4f35 483d f25a 24be 6618 a23c
00000040: cb2f 433d 5641 1e3d 3ef7 4e3d 0f1b 233e
00000050: aaae 5cbd c075 4f3d 3dea 37be 3d76 163d
00000060: de03 c9bc 828b 903c 3ab6 0c3d 80b0 3dbd
00000070: 868f 303d 97bd 943c 4c18 27bd 103a 4b3c
00000080: 1f40 233d 641d 2a3c bbc6 7dbb 240a 72bd
00000090: 8cd4 a33d ad0b c9bd 97bf 1b3c 2fd1 1b3c
000000a0: cff8 3cbc a46e 203d d9d1 28bc a72a b4bc
000000b0: d3ab c4bc 3884 2f3a 047d aa3c 88bf b8bc
000000c0: e97a 813b 47c1 dfbd 41e4 eb3d 1df0 29bd
000000d0: 2717 b7bc 0952 80bc c76e dcbd 01a4 e0bc
000000e0: d34e d4bc 6535 edbc d399 03bd abd5 7d3a
000000f0: f358 1dbd add5 d73d efba 203d 72e9 953c
-0.1242185 0.020255264 0.021903856 -0.06987866 -0.037988115 -0.12710403 -0.014492963 0.012965664
-0.048789166 0.013926746 -0.026158392 -0.014233121 0.022926662 0.048878964 -0.16050318 0.019787025
0.047653 0.038636528 0.050528757 0.15928291 -0.05387751 0.050649405 -0.17960449 0.036733855
-0.024537977 0.017644648 0.034353472 -0.0463109 0.043105625 0.01815681 -0.040794656 0.01240398
0.039856073 0.010382984 -0.003872319 -0.059091702 0.079995245 -0.0981668 0.009506128 0.0095103225
-0.01153393 0.039168015 -0.010303938 -0.021992994 -0.024007713 0.00066954223 0.020811565 -0.022552267
0.0039514196 -0.109255366 0.11518145 -0.041488755 -0.022349907 -0.015664117 -0.107633166 -0.027421953
-0.025916493 -0.028956125 -0.03212912 0.0009683023 -0.038414907 0.10538802 0.039240774 0.018299792
