critic_local.pth (torch_old, 63926 bytes, 9 tensors)

fcs1.weight f4 [128, 52]
00000000: c17e 24be 9fcf 89bd eeb2 583c 8d13 00bc
00000010: d23f 38be 5004 2ac0 ee2d 74bc ca59 3b3c
00000020: 7d9d a2bd 931c b53e 2f04 20bd 6b63 4bbd
00000030: 1989 0e3e e14c 33bf d37e 463c d9f6 f83d
00000040: b1fa b73e 336d 193f ac1b 543d 39da 8a3d
00000050: 8cca 673f dc90 5b40 f6f8 a2bd 89a7 b9bc
00000060: 746c 74be 925c b0be a651 57bd b495 9fbd
00000070: aa47 c93d 48be 26c0 4a39 2e3d c4b7 52bb
00000080: d16c cd3d 6278 d53d ec9b 9f3c 230c 1abc
00000090: 5bde b4bd b635 16bf 6a5d f8bb a74a 63bd
000000a0: 94bd 4a3e 1827 103f c9fb 443c 556b 0cbd
000000b0: 8d86 4abf a2e2 5740 9230 e03a 286f 803c
000000c0: 19e4 bb3e 35fc 7fbe 1b9a 09bf d903 0d3e
000000d0: 59e7 c2be 49ee f73f 0a92 ff3c ec34 ab3e
000000e0: c01a 41bd b07e 703f 7b23 1b3b 518f a93e
000000f0: 15ee 343d 202b 5140 11aa cc3e bc6f 3d3f
00000100: 542c 313e 4446 92bf 20e0 063f 0665 523f
00000110: 6231 393e 6852 8340 60df 5bbe cde7 b43f
00000120: d346 a43e e58c 10c0 ec97 18be 6d21 af3f
00000130: c257 473d 59f8 b93d 0667 7bbe 197b 873e
00000140: 2159 fe3d 8e66 603f eca7 7cbe cc85 343e
00000150: bc43 013f 6ae0 5f3f e9e3 f2bd a6e8 f23e
00000160: 131d 8dbe a94d 96bf e2bf 99bd f8d2 e13e
00000170: 1e39 753f bf18 c53f 5d8b 3cbe 69aa ec3f
00000180: df07 97be ace2 10c0 545a 0ebe 4e6c f13f
00000190: 20a2 613e f9b1 af3f 9348 4ac0 67ad df3f
000001a0: 155a 323f 13b5 dbbf 3897 b1bc ae28 8ebb
000001b0: bd81 55be 8d33 5140 dc81 84bd 256f d33d
000001c0: 7c27 ad3f 10d1 81bf 5b75 8dbd 93f4 583c
000001d0: 3326 a9bc 6df5 c23f dfb3 a0bd 456c 91bd
000001e0: 2720 de3f 685b 34bf 5131 6f3c 1118 163e
000001f0: 4588 523e e6af 64bf 81da 7b3d 5a3a 433e
00000200: fd3c 06bf d31e d03e ef86 423c 8d0a 1cbe
00000210: 033a 433e 68a6 5140 804d 14bd 2f2f 94bd
00000220: 7c20 cebd 7123 943f e158 26bd 5d93 273e
00000230: 8f89 853d 6223 c13f 2569 17bd d64d 513e
00000240: a2b2 693f 9ace c03f 0714 8b3a add3 d83e
00000250: c5ce babe 3a23 51bf 55fa 22bc d4d9 a53e
00000260: 870f 26c0 d706 523f 7f37 1840 d700 5b3e
00000270: b3af 053f 2d9a 063f 1f0e b0bd 2722 8a3e
00000280: 2a41 2d3e de00 b1bf bcf4 21bd c40d 073e
00000290: c6ba 443f 4f8c 6f3f 255c 37bd d2d7 113e
000002a0: 44e5 aa3e fe6b 4fbf 0528 44be 7013 fe3d
000002b0: 45af 8d3f 3e5f 873f 898c 26be 00cc 743d
000002c0: 19c4 a33c 87a4 24c0 4214 a5bd 7833 213d
000002d0: 1b79 81bf 0078 8840 da15 21bd 2ad4 9c3f
000002e0: 5deb 92be 5606 a9bf 7190 ec3c 1892 9f3f
000002f0: c67a 57bf 1ef0 8640 0a67 42bd 5b58 ae3d
00000300: 35fa adbe 4d56 50bf 040c e8bd 5a53 1b3d
00000310: 19b4 84bf 6e3a 7c40 6d1e 653d 5a2e 61bf
00000320: e8e0 36be c27d 28c0 c206 873c badd 65bf
00000330: e588 f73e 7360 aebe 42ce 9abe e122 ae3f
00000340: 6e98 533f 9e5b 19bf 0028 b43d 700e c1be
00000350: 0c6e 063f 243e b6be 746d fc3d 584b 92be
00000360: db2f b43f 944a 69bf a0ea e33b 734c 4bbd
00000370: 90cb cdbd 3fed bfbe 2609 273e 27c7 8ebd
00000380: b189 f03f bb6f 9bbf dc7e 89bc 6d36 c93e
00000390: 40bd c9bf 7daf b4bf c1e5 d3bb 00fa 933e
000003a0: 0736 2d3e 54a1 c53e a262 9a3e 076c b63d
000003b0: 1d61 16bf 9ce5 babe 187e a83e df64 4a3e
000003c0: 5ebb fc3d fc13 1d3f de52 98bd 6c96 c83c
000003d0: 76ff d43d 074e a5be 6372 42be e949 e7bc
000003e0: 19ff 583e 922e 7d3e 980f 203e 727f 09be
000003f0: ae43 c13f 53e5 a7bf 2b82 0a3e fe9a 28bd
-0.16063978 -0.06729054 0.013226254 -0.007817161 -0.17993096 -2.6565132 -0.014903529 0.011434982
-0.07940195 0.35373363 -0.03906649 -0.04965536 0.13919486 -0.7003918 0.012115198 0.121564575
0.3593345 0.5993225 0.051784202 0.06779904 0.90543437 3.4307165 -0.07957642 -0.022662895
-0.23869497 -0.34445626 -0.0525681 -0.077922255 0.09828122 -2.6053638 0.042535104 -0.003215299
0.10030521 0.10423352 0.019483529 -0.009402308 -0.088314734 -0.58675706 -0.007579495 -0.055491116
0.19798881 0.5630965 0.012022921 -0.034282047 -0.7911156 3.3732076 0.0017104319 0.015678003
0.36697462 -0.24998553 -0.5375077 0.13770999 -0.3806713 1.9369594 0.031197567 0.33438814
-0.04714465 0.9394331 0.002367227 0.33117154 0.044172365 3.2682571 0.399735 0.7399862
0.17302066 -1.1427693 0.5268574 0.821854 0.18085244 4.1038094 -0.2147193 1.413324
0.32085285 -2.2585995 -0.14901704 1.3682076 0.048667677 0.09080572 -0.24551019 0.26461104
0.12419344 0.87656486 -0.24673432 0.17629164 0.5049398 0.87451804 -0.11859877 0.47443122
-0.27561244 -1.174245 -0.07507302 0.4410627 0.9579028 1.5398177 -0.18412538 1.8489505
-0.29498193 -2.263835 -0.13901645 1.8861177 0.22034502 1.3726188 -3.1606796 1.7474793
0.69668704 -1.7164634 -0.021678552 -0.0043383455 -0.20850272 3.2687714 -0.06470081 0.103239335
1.3527675 -1.0141926 -0.069071494 0.013241905 -0.020648098 1.5231148 -0.07846808 -0.07100729
1.7353562 -0.70451975 0.01459916 0.14657618 0.20559795 -0.893309 0.06148768 0.19065228
-0.5243681 0.40648517 0.011872991 -0.152384 0.19065098 3.2757816 -0.036206722 -0.07235562
-0.1006479 1.1573316 -0.040612105 0.16364808 0.06520378 1.5088923 -0.036965508 0.20439848
0.912882 1.506305 0.0010610827 0.42348996 -0.36485878 -0.81694376 -0.009947379 0.32392752
-2.5946977 0.82041687 2.3783872 0.21387039 0.5222122 0.52579004 -0.085964434 0.2697918
0.1691939 -1.382839 -0.039540038 0.13188845 0.76847494 0.9357347 -0.04476561 0.14242485
0.3337804 -0.8102416 -0.19155891 0.12406051 1.1069113 1.0575941 -0.16264547 0.059764862
0.019990968 -2.572542 -0.080605045 0.039355725 -1.0115083 4.2646484 -0.03932748 1.2252247
-0.28695193 -1.3205059 0.028877469 1.2466459 -0.8417171 4.216811 -0.047461547 0.08512946
-0.33979955 -0.81381685 -0.11330417 0.037921287 -1.0367461 3.9410663 0.05593722 -0.8796135
-0.17859232 -2.6326756 0.016482715 -0.8979145 0.4834663 -0.3405796 -0.30235487 1.3604394
0.82654464 -0.5990542 0.08796692 -0.37706327 0.5251167 -0.35594285 0.12325564 -0.28573108
1.4077104 -0.9112942 0.0069554597 -0.049633455 -0.10048592 -0.37485692 0.16312084 -0.06971579
1.879202 -1.2143472 -0.016784124 0.39299336 -1.576088 -1.4116055 -0.006466598 0.28901672
0.16915141 0.38599646 0.30153376 0.08907323 -0.58741933 -0.36503303 0.32908702 0.19765042
0.12340425 0.6135862 -0.07437681 0.02448579 0.10400288 -0.32286093 -0.18988948 -0.028233485
0.21191062 0.24724796 0.15630949 -0.13427523 1.5098779 -1.3116859 0.13526218 -0.041163437

fcs1.bias f4 [128]
00000000: 51a4 7cc0 18f0 a3bf 8acd 8fbf f548 a4bf
00000010: a1aa 03c0 341b 1ebe 18f8 423f c944 86bf
00000020: 5ab5 ac3e 06b5 19c0 01ee 81bf 1231 6b3f
00000030: 786d a2bd 232e 99c0 4b95 323f 1dfb 1bc0
00000040: 4b62 debf cc14 06bf a3c2 65c0 107b 893d
00000050: c311 d03f ab5e 80c0 460a a6be 984d 853e
00000060: ef09 83be f279 c4be eb06 b9bf ae7b 983d
00000070: ed64 72bf 4ece 143f b781 d9be 7e13 00bf
00000080: 0876 643f e00f 8fbf 93d1 09bf 843e 7ac0
00000090: b159 71c0 afc2 b4bf 6f36 a03e b548 6b3e
000000a0: 7df6 a5bf a17f 41c0 35ce 5e3f 93d4 a3bf
000000b0: b2fa 10c0 87b1 abc0 9e25 95c0 a479 7ec0
000000c0: 6d8f e9bd 1b9a 9640 b9a8 af3f c64d d4bf
000000d0: f42d 65bf 0fd5 90bf e672 02c0 90aa 473e
000000e0: ae36 9b3e be46 acc0 b5ed 38c0 82e5 0e3e
000000f0: d7af a3bf 29d9 4ac0 21e5 3dc0 ca5d 52bf
00000100: 9844 23c0 1871 35c0 888d 8fbf 08b7 4bc0
00000110: 96e0 a8bf b4bf 06c0 5a41 05c0 86b2 8bbe
00000120: dc25 4b3d fff4 afbf 4405 e5bf 5656 f9bf
00000130: cecc a3bf eabe 0ebf 78b6 6cbc ffa0 edbf
00000140: 89e9 3ac0 b9e3 29c0 bddb 41c0 e4bd c2bf
00000150: a361 5e3f 577a 07bf abe1 d23e cef2 123f
00000160: 3920 9dbf 01a1 153f 9fc2 4abf 2f4b bfbf
00000170: 0509 b1c0 fd8d ebbd fb36 1c3f 21c8 03c0
00000180: b431 d0be bb5f 383f 7667 d13e 78e5 b5bd
00000190: 5481 46bf 6be9 f23f 7534 a83f d488 c5be
000001a0: e1d0 c63e 5b72 d2be f6f1 043f 37c2 9bbf
000001b0: 5830 c5bd c5f0 e0bf 7a26 adbe 0dd2 adc0
000001c0: 8c01 9cc0 8928 92bf 571d 4fbf 1461 58be
000001d0: 901c 73c0 2912 88bf dab5 18bf 7981 34bf
000001e0: 564f 08c0 0640 0440 97ce febe c66b 0bbf
000001f0: 4c66 55bf cb0a 453e f7df 2abf 41ba 7ec0
-3.947529 -1.2807646 -1.12346 -1.2834765 -2.0572894 -0.15440065 0.7615981 -1.0489742
0.3373211 -2.4016738 -1.0150758 0.9187175 -0.07931036 -4.786882 0.69759053 -2.4372017
-1.7373747 -0.52375484 -3.5900047 0.067129254 1.625542 -4.011556 -0.32429713 0.26035762
-0.25593516 -0.38374287 -1.4455236 0.07445465 -0.9468525 0.58127296 -0.42481777 -0.5002974
0.892426 -1.117672 -0.5383541 -3.9100657 -3.7710993 -1.4121913 0.3129153 0.22976954
-1.2965847 -3.0234149 0.87033397 -1.2799248 -2.2653012 -5.365421 -4.660842 -3.9761744
-0.114043094 4.7063117 1.3723365 -1.6586235 -0.89523244 -1.131502 -2.0382628 0.19498658
0.30315155 -5.3836355 -2.8895085 0.13954738 -1.2788037 -3.1695044 -2.96711 -0.8217436
-2.5510616 -2.8350277 -1.1215067 -3.1830463 -1.3193538 -2.1054506 -2.0821137 -0.2728464
0.049596652 -1.3746642 -1.7892232 -1.9479473 -1.2796876 -0.5576006 -0.014447801 -1.8564757
-2.9205039 -2.654524 -3.0290368 -1.52142 0.8686773 -0.5292105 0.41187796 0.5740174
-1.2275459 0.584488 -0.7920322 -1.4944819 -5.532351 -0.115016915 0.61021394 -2.05909
-0.4066292 0.72021073 0.40899247 -0.08881658 -0.7754109 1.8977484 1.3141009 -0.38580954
0.38831237 -0.4110287 0.51931703 -1.2168645 -0.096283615 -1.7573477 -0.33818418 -5.431891
-4.875189 -1.141862 -0.80904144 -0.21130782 -3.7986183 -1.0630542 -0.59652483 -0.7051006
-2.1298423 2.0664077 -0.4976699 -0.54461324 -0.8335922 0.19242398 -0.66747993 -3.980118

fc2.weight f4 [64, 128]
00000000: 3468 143e 01a2 913d ebf4 1bbf acac 68be
00000010: 33f8 45be eed9 823c 7224 623e 3f37 82be
00000020: c639 74be cc94 063d 4b6a 913d 97d0 d83e
00000030: f991 753e e27c dc3d 2672 673e 2a9f 2dbc
00000040: 7c2c 6e3e a7c6 763e f7cf d53d 7975 a83d
00000050: de33 78be c050 053f 2e0c 8a3e 04ba 22be
00000060: 7552 763e 0849 26be 6d6b 4a3e 75c0 b93d
00000070: 7f57 103e 140f 9f3e e80c 2dbd fd5c d83c
00000080: 616d 87bd ddd0 a5bd 8c76 b03c 243e 54bb
00000090: 7bf6 793e 2efe abbe 1fad 53bd 182f fb3d
000000a0: 661e 45be 6b4a 083f 936c 4a3f 3a79 c2be
000000b0: 571c eebc 545d c93d bd1c 533f da22 683e
000000c0: d745 ca3e 86e7 99bf 31b0 eebb 5482 253e
000000d0: 0f06 1b3e aade 3bbd 2c9b 483c b3b3 7cbd
000000e0: 78e0 3b3f 469a b7bc d368 183e d598 fd3c
000000f0: cb74 4b3f 4ab1 f4be 2020 083e 8dd7 c03b
00000100: 161a d73d 93dd b03d 5b82 99bd 13be 4b3f
00000110: 5b7b fc3e ce53 c8be 86bd 06bd 8cd6 ea3c
00000120: 7380 a83e 3825 533d 21de 363e c47a 32bf
00000130: c0f7 a3be 5165 2f3d 89be 69bd 1b1b 253f
00000140: 258f c1bf 9e5d 09bd d2eb 893e 2465 f1bf
00000150: 4b8b eb3e 2f7f 703d 718b a63e 6abe f93e
00000160: 7c3d fcbc 6029 2c3e 8d09 4ebe 6439 103d
00000170: 5898 283a 625f 49bd 19c2 193e 9c2b 903d
00000180: 008d 0ebc a291 22bf 03aa 86bf 89f3 2d3e
00000190: 5b04 b63d bfd3 d03e 3ead 50bd ad87 0e3d
000001a0: de71 1f3e 6076 ab3e d97d 36bf 851e 25bb
000001b0: ec54 d63e 9b8c 5bbd f2e8 3ebe 38ee dc3e
000001c0: 65f5 243f f362 7d3e f2ab 4cbe 05f9 9c3e
000001d0: 422c 40bd e69c 19bc 74d2 8b3b df94 563a
000001e0: c7dd 463f dd35 073e f140 2b3e 940d 6b3e
000001f0: e8ef 76be 0c5c a0be c175 c43d 11f5 12be
00000200: 0439 7dbf 2eea 2d3e 2716 033d 72a2 a4bc
00000210: 2a2d db3d a637 4f3c b07d 213e e68a 3abd
00000220: c455 e23d 9d21 76bd 4d03 e7bd b76d 09be
00000230: a63b 3d3f d580 90be 8e3c 463d 36ba f03e
00000240: 63eb d23e 66cc 61bd 0202 4fbe 686e fc3d
00000250: 65f8 743e b3af 52bb 6e1e 863e 55ff 813e
00000260: e926 60be 5946 9d3d 336c e0be 88a2 1d3f
00000270: 8a74 8f3e f11a db3e 1cf1 84bd 7048 26be
00000280: 13d7 ddbd 9d5d 16bf e096 ddbd 2226 51bd
00000290: fe1e f73d 3076 86bf 7125 88be 716c f0be
000002a0: 982a 0cbf ba43 293e 0544 22be 3c88 a1be
000002b0: d311 a73e 1416 e5be bf20 383b 1b22 d4bd
000002c0: b55a 0abf 22f8 47be da3f 2fbe e367 623e
000002d0: eee0 dcbe 77bc a93d 7b3e c6bd f7b4 6abf
000002e0: 3dcf 9a3d c28b 0fbd 9543 04be 533a 55be
000002f0: 4cec 2abf 904a 1ebe 1b34 49bd 9203 1c3f
00000300: a51d 12be 0405 d2be fbe5 9f3e bd11 b0be
00000310: d18e 9abe 6720 843d c45d db3b e6f9 303e
00000320: 1d12 28bd 67d7 813e 22ec 393e 612f a23e
00000330: c07d 07bf 7895 3f3e e6a7 bebe d058 d1bd
00000340: f66a d4be 82ec 0bbe ff98 1bbf e516 3dbe
00000350: fc17 a8be a156 683e c37d 573f f515 ffbb
00000360: 1a08 933e a61a 013e 6581 66be 5ae4 62bd
00000370: ab80 793e 4ff2 a03e a801 d6be 990c b23e
00000380: 0d7c 983d b9cc 873e 384c bbbe 37bd bebd
00000390: 5aff aebe ca30 ab3e 973a 6dbe 05a2 973d
000003a0: 3385 31be ae8c bc3e 683d 1f3d 40fa 5d3d
000003b0: 130c fbbd b117 92be e056 24bf 6062 9d3e
000003c0: cdda 53bf 0fbf 96bd 4bc0 973b 02e1 2abf
000003d0: 0351 8dbe 9bc4 38bd ed28 e23d eca1 ee3e
000003e0: 12e0 273f f4fd 20c0 bf76 3ebc 5822 243e
000003f0: d9f0 50bf d492 83be a0ab 6ebe 8c27 d8be
0.14492875 0.07110978 -0.6092059 -0.22722119 -0.19332962 0.015973058 0.22084215 -0.25432774
-0.23850164 0.032856748 0.07100352 0.4234664 0.23981465 0.10766007 0.22602138 -0.01059703
0.23259157 0.24099217 0.10440057 0.08225531 -0.24238536 0.5207634 0.26962417 -0.15891272
0.24054892 -0.16238797 0.19767542 0.090699114 0.14095877 0.3106619 -0.042248636 0.026411528
-0.06612659 -0.08096478 0.021540903 -0.0032385672 0.24410431 -0.3359236 -0.051678773 0.12264842
-0.19249877 0.5323855 0.7907192 -0.37983114 -0.029066248 0.09832254 0.82465726 0.22669545
0.3950641 -1.202378 -0.0072841872 0.16162997 0.1513903 -0.045866646 0.012244027 -0.061694812
0.7338939 -0.02241243 0.14883737 0.030956665 0.79475087 -0.4779151 0.13293505 0.0058850707
0.105030224 0.08636012 -0.074955665 0.79586905 0.49312863 -0.39126438 -0.032895587 0.028666757
0.329105 0.051549166 0.17858173 -0.69718575 -0.32024956 0.042821232 -0.057066474 0.64494485
-1.5121809 -0.033536546 0.2693773 -1.8858991 0.4600471 0.05871504 0.3252826 0.48778087
-0.030791037 0.16812658 -0.20120831 0.035210982 0.00064313924 -0.04916323 0.15015449 0.07039568
-0.008700609 -0.6350347 -1.0520633 0.16987433 0.088875495 0.4078655 -0.050946467 0.03479736
0.1557078 0.3348875 -0.7128578 -0.0025195193 0.41861665 -0.05360089 -0.18643549 0.43150496
0.6443694 0.24744777 -0.19987467 0.30658737 -0.046917208 -0.009375786 0.0042670313 0.00081856357
0.77682155 0.13204141 0.16723992 0.22954398 -0.24114954 -0.31320226 0.09592772 -0.14351298
-0.98915124 0.16983864 0.032003548 -0.020096991 0.10701974 0.012647545 0.15770602 -0.04554262
0.11051515 -0.06009065 -0.112799264 -0.13420759 0.7391914 -0.2822329 0.048397593 0.47017068
0.4119521 -0.05512657 -0.2021561 0.12325746 0.2392288 -0.0032148182 0.2619509 0.25390115
-0.21889843 0.076794334 -0.4383255 0.6157613 0.280186 0.42793992 -0.064913005 -0.1623857
-0.10832038 -0.5873659 -0.10819793 -0.051061757 0.12066458 -1.0504818 -0.26591066 -0.46957734
-0.5475249 0.16529742 -0.1584626 -0.3154925 0.32630786 -0.44743407 0.002809569 -0.103580676
-0.5404466 -0.19528249 -0.17114201 0.22109942 -0.43140358 0.082879 -0.09679886 -0.9168238
0.07559059 -0.035045393 -0.12916405 -0.2082303 -0.6676681 -0.15458131 -0.049121957 0.6094295
-0.14269121 -0.41019452 0.3123015 -0.34388533 -0.30187085 0.06451493 0.0066945273 0.17282829
-0.0410329 0.2535965 0.18156484 0.31676772 -0.52926254 0.18709362 -0.3723747 -0.10222018
-0.41487855 -0.1366444 -0.6078033 -0.18465765 -0.328308 0.22689296 0.8417627 -0.0077846
0.28717119 0.12607822 -0.22510298 -0.055393554 0.24365489 0.31434867 -0.4179814 0.34775236
0.07445536 0.26523378 -0.36581588 -0.093134336 -0.34179193 0.3343566 -0.23166882 0.0740395
-0.17335968 0.3682608 0.03887692 0.054193735 -0.12258162 -0.285337 -0.6419506 0.30739117
-0.8275574 -0.0736066 0.0046310774 -0.66749585 -0.2760087 -0.045109373 0.11042962 0.46607912
0.6557628 -2.5155 -0.011624991 0.16028726 -0.81617504 -0.25697958 -0.23307657 -0.42217672

fc2.bias f4 [64]
00000000: ad96 0ebf e6a7 60be 84a1 b8be a2e2 10bf
00000010: fcad 92be 9bb2 05bf 9606 e7be 4a61 f2be
00000020: fcce b43e 7246 aebd c41c 3abf c8c4 38bf
00000030: 89f5 10bf 77c9 0ebe 7502 16bf 419a 32be
00000040: 367c b9bf 42be 1ebf ff42 c23d ee53 8abf
00000050: caaf 94be 5187 55bf f4cd 5cbf aecf 24bf
00000060: 2a64 5fbf 0b85 3c3e d361 36bf 5008 f3be
00000070: 5755 39be 25cb 1fbe b6da 1ebf 4a36 f7be
00000080: 8435 c53e cb6b 0abf ffc9 89bf 6b8b 50bf
00000090: 721d 30bf 7e7d 0cbf c223 b9be 0e08 9fbe
000000a0: b1be 55bf 77d5 39ba 0c8e 00bf 4d8b 30bf
000000b0: 8649 4bbf dc74 f7be c79e 25bf 420a 21bf
000000c0: b02b 53bf b456 22bf 0074 a8bf 510d a13b
000000d0: 3eb1 26bf bfe9 26bf 94ca bcbe 28b4 09bf
000000e0: a0da eabe 02e7 3abf 1f21 34bf 8305 babe
000000f0: 8b37 35be e45a 61bf 6945 03bf c4db 39bf
-0.55698663 -0.21939048 -0.36060727 -0.56595814 -0.28648365 -0.52225655 -0.45122212 -0.4733985
0.35314167 -0.0850953 -0.7270014 -0.72175264 -0.56624657 -0.1394404 -0.585975 -0.17441656
-1.4491031 -0.6200906 0.09485435 -1.0806863 -0.29040366 -0.834096 -0.8625176 -0.64379394
-0.87262213 0.18410127 -0.7124302 -0.4746728 -0.18098961 -0.15604837 -0.62052476 -0.48283607
0.38517392 -0.5407073 -1.0764769 -0.81462735 -0.6879493 -0.54878986 -0.36160094 -0.31060833
-0.83494097 -0.00070889987 -0.50216746 -0.68962556 -0.7940906 -0.48331344 -0.646954 -0.6290628
-0.82488537 -0.6341355 -1.31604 0.0049149175 -0.651142 -0.6520042 -0.36873305 -0.5379052
-0.45869923 -0.7300874 -0.7036304 -0.3633233 -0.17696969 -0.88029313 -0.51277786 -0.7260096

bn1.weight f4 [128]
00000000: f607 bb3e 602c f83c 2fc0 323e 6493 373e
00000010: f188 083c d7f0 a33d b184 ff3d 6ec7 ea3d
00000020: 9c3b 213e c215 893e d3e0 063d 154d 253e
00000030: 6484 743d aa80 9c3e dade 873d 5891 153e
00000040: 5067 0c3e 033b 063e 15bb ab3e bdf2 b83d
00000050: e6b9 983d a7d6 cc3e 7f1e 103e 6d15 b53d
00000060: 7d2e 183e 19cd e13d 3911 293d 6da0 e13e
00000070: 4c11 7b3d d6b4 1e3e abe4 6a3e 2e72 c53d
00000080: 5898 093d 70c3 953e 4338 b03d 0fc3 3b3e
00000090: 5121 9f3d d45a 5c3e 1c2e a8bd b9fb 803d
000000a0: fcdd 5f3e 7e40 6b3d 2ab6 9a3e 6649 2e3e
000000b0: 3ccc be3e 6b4b 6e3e 04dc 8b3e bb4f 893d
000000c0: 9a5b 833f 7270 253f 5d7d f53d e8f7 193e
000000d0: 3b4b b03d 4c1e 813e a9be dc3d a225 073e
000000e0: 402a 383e 0bf5 143e e047 023e a64d 2ebd
000000f0: dbb7 103f 46a5 1e3e 5978 933e 7f90 773f
00000100: 70f3 503e f164 863d 6981 263e b7d0 9c3e
00000110: 7dae dabd 52cf a53d 3a2a 453e f907 e83d
00000120: 5677 5c3e 99f5 f53c 4261 4ebd f3f5 c53e
00000130: 6744 083e 07f5 fdbd 49a9 1c3d a178 283f
00000140: a178 223f b37f 983d 016d 853e bd43 fb3e
00000150: 44a5 cf3c 8fcb 153e 5a1d 733d 53b2 c63d
00000160: 3e9a 053e d9af 8d3d 0c02 453e 9aaf 45be
00000170: 5486 fe3e 0477 263e f75d f23d 5603 653d
00000180: 8721 453f 2992 9a3e b828 ef3e d92c 55bd
00000190: b3ca fc3d b57d f63d a95b 543e eadb 0e3e
000001a0: b392 923d 5c0b 5d3d ab2c 853e 9442 ab3d
000001b0: babd d13d b75d ad3e 9b55 353e 05e2 183e
000001c0: ac08 4a3e 571b 063e 599e 263e 1db7 743d
000001d0: bdda e83b 9245 a03d db93 003e ff35 e33d
000001e0: 1d9e 3f3f a5e0 4f3e b18a 503d f2de 963d
000001f0: a604 f23e cacb f43d c264 6a3e 4987 4e3e
0.3652951 0.030294597 0.17456125 0.17927319 0.008333431 0.08004921 0.12476481 0.114638194
0.15745395 0.26774412 0.032929253 0.16142686 0.05969657 0.30566913 0.066343024 0.14606225
0.13711286 0.13108449 0.3354117 0.09030674 0.07457332 0.40007517 0.14074133 0.08841977
0.14861484 0.110254474 0.04127619 0.44067708 0.061295792 0.15498671 0.22938792 0.09640919
0.033592552 0.2925067 0.08604481 0.18336128 0.077700265 0.21519023 -0.0821192 0.06298012
0.21862024 0.05743455 0.30217105 0.17020187 0.37265193 0.23270957 0.27316296 0.067046605
1.026233 0.646247 0.11986802 0.15035975 0.08608099 0.25218427 0.10778553 0.1319795
0.17984867 0.14546601 0.1272273 -0.04255452 0.5653054 0.15492734 0.28802755 0.9670486
0.20405364 0.06562222 0.16260304 0.30627987 -0.10677812 0.08096184 0.1925439 0.11329646
0.21529898 0.030024337 -0.05038572 0.38664207 0.13307343 -0.12400251 0.03824738 0.65809065
0.63465315 0.07446232 0.26059726 0.49075118 0.02534736 0.14628433 0.059354164 0.097019814
0.1304712 0.06918306 0.19239062 -0.19305268 0.4971186 0.16256338 0.118343286 0.055911385
0.77004284 0.30189636 0.46710753 -0.052044723 0.12343349 0.120356955 0.2073809 0.13951078
0.07156887 0.05396591 0.2601064 0.08362308 0.102412656 0.3386056 0.17708437 0.1492997
0.1972987 0.13096367 0.16271342 0.059744943 0.0071061538 0.078257695 0.12556402 0.11094283
0.74850637 0.20300539 0.050913516 0.07366742 0.4726917 0.11952932 0.22889999 0.20168795

bn1.bias f4 [128]
00000000: 9364 c43d 7ec5 713c f44a fe3d b4ce fe3c
00000010: a77e 06bb 63b9 453d 3e63 823c e025 213d
00000020: 08fc ac3d 06b5 603d 6da5 df3c 375e 6b3c
00000030: bca3 a9bc b42a d53d 0e35 663b 2601 ea3d
00000040: 1998 f8bb 3092 ffbc afe8 313e 5f3d 883c
00000050: 925b c93c 36a7 473e 37d5 f63b bf15 643c
00000060: 2ad8 bbbb 1209 a73c af16 3c3a 4d9b e53d
00000070: 6062 6a3b b630 943c c24d 9a3d 1bc2 883a
00000080: 42c3 a2bb e268 b43d 8ed5 3e3c fd2c 7f3d
00000090: 676f 943c 3d8e 593b 087e f6bb 17d7 2bbb
000000a0: 18de 943d 780c 82bd 5fd0 13be 2db0 e43c
000000b0: 3b5d 413d e495 d53d f729 173d 8140 7bbb
000000c0: c5fb 5a3e 7626 27bd 22c6 8b3b 7c1f 2f3d
000000d0: c14c ffba dd6c b53d 07d9 cdbc 8f17 d43c
000000e0: 471e 14bd 60d4 ec3c a587 903d bc11 4abc
000000f0: 893b 783e 9109 d9bb 935c 013e 51d4 a43e
00000100: a2ac ba3c f363 183b 4530 aa3b 9bf2 113d
00000110: 7f90 d4bc 32f7 b8bc 7678 113b 61a9 003c
00000120: c4d0 b8bd cbe0 263d 30d4 0bbd 6a07 e13d
00000130: aaa0 893d 06d1 24bd 4ebc f5bb 681d 743e
00000140: e41b 823e 624d f23d d747 343d 52f5 0c3e
00000150: 278b 89bc dae5 2e3d ce2d 20bc 9e5e be3b
00000160: 063a d53d 9bde b33c d388 fb3b 1d9d ec39
00000170: 3782 e53d a5b6 8a3d b0f1 ed3b 7072 a33c
00000180: 6f97 e83c 0a70 b23d 86cc 003e 08d1 523a
00000190: 7e55 b5bb ff29 50bd cc43 a93c b1cc 1abb
000001a0: bcc8 67bc 30fd 003d 105b 983d a516 8bbb
000001b0: 4fbe f6bb e928 043e 6cbe 30bc b3f2 5a3c
000001c0: e1fb e23d d01c 463c 7b85 253c d524 873c
000001d0: da0f 543b cd29 9a3b ddbb 5b3d 58b6 3c3c
000001e0: c45b 8c3e 17cf cabc e552 473b 2daf b03b
000001f0: 0b5b ed3d 42d3 883d 3c27 873c 6d55 543e
0.095894955 0.014756558 0.1241664 0.031104423 -0.0020522268 0.0482725 0.015916463 0.03934276
0.08446509 0.054860137 0.02730056 0.014365724 -0.020707957 0.104085356 0.0035126838 0.11426
-0.007586491 -0.031197637 0.17373918 0.016630827 0.024579797 0.1949738 0.0075327414 0.0139212
-0.005732556 0.020390067 0.0007175011 0.11211262 0.0035764202 0.018089633 0.075343624 0.0010433825
-0.004967124 0.08809067 0.011647595 0.062298764 0.018119527 0.0033196353 -0.0075223483 -0.0026220733
0.072689235 -0.063500345 -0.14434956 0.027916038 0.047208052 0.1042898 0.036905255 -0.0038338008
0.21385105 -0.040808164 0.0042655626 0.042754635 -0.001947783 0.08858655 -0.0251279 0.02589014
-0.036161687 0.028909862 0.07057122 -0.01233333 0.24241461 -0.006623455 0.1263297 0.32193235
0.022787396 0.0023252934 0.0051937425 0.035631757 -0.025947807 -0.02257881 0.0022197044 0.007852883
-0.09024194 0.040741723 -0.034137905 0.10987742 0.06720097 -0.040238403 -0.0074992543 0.23839343
0.25411904 0.11831166 0.044013824 0.13765457 -0.016789986 0.042699672 -0.009776546 0.005809619
0.10411458 0.021956732 0.007676223 0.00045130486 0.11206477 0.06773118 0.0072614774 0.019952029
0.028392522 0.08712776 0.1257802 0.00080420123 -0.005533873 -0.0508213 0.02066221 -0.002362054
-0.01414698 0.03149146 0.07439244 -0.004244643 -0.007530011 0.12906231 -0.010787588 0.013363528
0.11083198 0.01209183 0.010102625 0.016497055 0.003235808 0.00470469 0.053645957 0.0115180835
0.27413762 -0.024756951 0.00304144 0.0053919763 0.11589631 0.06680919 0.0164982 0.20735712

bn1.running_mean f4 [128]
00000000: edfb 1040 7504 1940 e830 2041 9583 903f
00000010: f4e3 fb3d ea0b 0241 d664 6040 6c59 8840
00000020: ec11 a540 6451 cc3f b52d 0c40 56cb 583f
00000030: 1f17 7740 02ba 1842 5a5b bc3f be88 0b42
00000040: 168a 0e40 01d5 2741 b590 5741 19fb 503f
00000050: 90b3 b03f 5317 0840 cec4 763a 70cf 633f
00000060: 4114 b13f f8f6 5941 77ce c73d 92af 9442
00000070: fed1 2838 01af d23f 6b03 1540 1c3e f038
00000080: ef92 4a3c 1468 7d3f 0ea5 933e d555 9a41
00000090: ab11 583f bb53 8d40 253d dd3e 40fe c93f
000000a0: 0921 4440 1e7f dd3f 5a8a e641 0be6 823f
000000b0: 401e fb3e 0318 af41 e0e1 9c40 d54a 4841
000000c0: b360 8942 0f13 2241 0620 2040 1330 8340
000000d0: 35b8 2a3f 31bc 7f40 499e 5a40 7139 7141
000000e0: c823 9a41 355b 293f 2530 6d40 4ef2 7840
000000f0: b5a3 7f42 a11c 1140 5a0f 4740 c974 9942
00000100: a710 2340 96eb cb3f 1312 003f 531b 0c41
00000110: 7f1c da3f e3ec a93e 0400 0000 9dea 643f
00000120: 089a bd40 d72f 3941 697c d840 5e03 3840
00000130: 7bc7 9b40 2fcf 0842 7a2c 543f dfb6 8940
00000140: e3f1 6740 ef79 1b42 6b27 8340 3a15 0d3e
00000150: 081f 5e3f 2f95 6940 6d33 813f 79e7 ab3e
00000160: d32d a441 13dc 2f41 c668 593f 0400 0000
00000170: 31f1 b43f 046e 3941 e324 6e3f cf2b 8c40
00000180: 43e9 8d3d 3869 5940 ccf9 2f41 d02b 843f
00000190: 035d 7f3a 57a9 5a40 aeb3 1f3e 8a74 3d40
000001a0: 098d a13f 0325 5d41 b794 2640 0400 0000
000001b0: c51e 503f 3c9e 833e 0e93 0940 7452 1341
000001c0: 0be5 1642 bd07 2a40 087e 2e40 3a33 3141
000001d0: 0db5 103f 11b1 6141 5d4a 3c41 a06a f23f
000001e0: 4108 9540 1b41 233f c481 963e ac89 a53d
000001f0: 062c bf3f b2e8 ee3f 5f07 7a3f cfc3 6c42
2.2653763 2.390897 10.01194 1.1290156 0.12299338 8.127909 3.5061545 4.2609158
5.1584377 1.5962338 2.1902897 0.84685266 3.8607862 38.18165 1.4715378 34.883537
2.227178 10.489503 13.472829 0.81633145 1.3804798 2.1264236 0.00094134815 0.889884
1.3834306 13.622795 0.09756177 74.34291 4.024989e-05 1.6459657 2.3283336 0.000114556606
0.012364133 0.98986936 0.28836864 19.29191 0.8440196 4.416471 0.43210712 1.5780716
3.0645163 1.7304418 28.817554 1.0226454 0.49046516 21.886724 4.9025726 12.51827
68.688866 10.129653 2.5019546 4.0996184 0.6668733 3.9958613 3.415911 15.076524
19.267471 0.66154796 3.7060635 3.889789 63.90987 2.2673724 3.110312 76.728096
2.5478914 1.593127 0.5002758 8.756671 1.7039946 0.33188543 6e-45 0.8942049
5.9250526 11.57418 6.765187 2.8752055 4.8681006 34.202328 0.82880366 4.303573
3.6241386 38.869076 4.098562 0.13777629 0.867661 3.6497304 1.0093819 0.33575037
20.522375 10.991229 0.84925497 6e-45 1.4136106 11.589359 0.93025035 4.3803477
0.06929257 3.397047 10.998486 1.032587 0.0009741338 3.4165857 0.15595886 2.960238
1.2621166 13.821536 2.6028268 6e-45 0.8129695 0.2570666 2.1496005 9.20763
37.723675 2.6567223 2.7264423 11.0750065 0.5652626 14.105729 11.768155 1.8938789
4.6572576 0.6377122 0.29395878 0.080828995 1.493531 1.8664763 0.976675 59.19122

bn1.running_var f4 [128]
00000000: c11d ec41 e55e 4742 231d 1a43 762f a441
00000010: 52b2 e23f 36fe 3943 d9e5 cd42 2e36 9142
00000020: 5e49 ae42 81fa 4942 a930 5842 b2b0 0a41
00000030: 9ced d042 d270 b243 a324 1642 cd70 4744
00000040: 4d5a 5d42 c56d 6943 0eb3 f142 e97d 4841
00000050: a73f d841 4fb8 b241 51a2 493b 07af af41
00000060: 7c53 a741 6e87 1244 7093 f43f 2de2 1246
00000070: 220c 8b39 1f24 3542 13a0 9642 6262 9639
00000080: d501 143e c88e 8f41 0a43 8940 289b 6343
00000090: 1b9e f740 16d5 ef42 2197 d740 95f7 2942
000000a0: f4f3 8342 fe97 d541 ff99 1944 3c60 6841
000000b0: 6d0a e640 50ff f143 dac4 1d42 5f0d b643
000000c0: 17be fa45 8f0c 1542 c77b a042 4825 f042
000000d0: bccb 8741 4225 3042 9d7f 0643 84b5 f443
000000e0: d008 b943 3631 cd40 8371 ae42 efbc e242
000000f0: a97d db45 3fb9 bf41 3c6b 8d42 2468 1d46
00000100: 8ec5 4f42 3206 2342 8658 c140 f323 ae42
00000110: 37de 1342 c6d1 7740 0400 0000 af15 dc41
00000120: 84fe f542 e80e be43 f46c 6d43 d867 7342
00000130: 4652 0d43 7c06 c144 abeb 9c41 ab04 e341
00000140: 98ff 4542 8095 0944 0c05 a342 c450 1e40
00000150: 077f 8c41 785e 5342 1e2b b241 f923 af40
00000160: 78ed bc43 a3fd f643 b844 5a41 0400 0000
00000170: ce82 dd41 2f1e 4243 3cd3 6d41 f9e2 ea42
00000180: 168e ad3f e634 0f42 afcf 8243 0332 bd41
00000190: d49b c53b 50d9 5f42 fda1 f53f 3f08 3242
000001a0: 93e7 e741 ff0a 0544 d033 e441 0400 0000
000001b0: 1fd4 5241 4f5c 7a40 d6a7 1842 c812 e642
000001c0: 61f7 1d43 3082 4242 512c 6b42 ce3a b343
000001d0: 4d24 1741 5aee ac43 2818 eb43 262b fa41
000001e0: 7256 ea41 b0fe e340 e144 b340 4bf3 0440
000001f0: d23f cf41 08bd 5442 f7a6 b041 8a9f 2a44
29.514528 49.84267 154.11382 20.523174 1.7710669 185.99301 102.94892 72.60582
87.143295 50.494633 54.04752 8.6681385 104.46408 356.8814 37.535778 797.7625
55.338184 233.42879 120.84972 12.53074 27.03108 22.339994 0.0030766914 21.960463
20.915764 586.1161 1.9107494 9400.544 0.00026521186 45.285275 75.312645 0.0002868353
0.14453824 17.944717 4.2894335 227.60608 7.73805 119.91618 6.7371984 42.49178
65.97647 26.699215 614.4062 14.523495 7.1887727 483.99463 39.442238 364.10446
8023.761 37.262264 80.24175 120.072815 16.97448 44.036385 134.49849 489.4181
370.06885 6.412257 87.2217 113.36901 7023.7075 23.965452 70.70944 10074.035
51.942924 40.75605 6.042056 87.07021 36.967007 3.8721786 6e-45 27.510588
122.9971 380.11646 237.4256 60.85141 141.32138 1544.2026 19.615072 28.37728
49.499603 550.33594 81.50986 2.4736795 17.562025 52.842255 22.271053 5.473141
377.85522 493.98154 13.641777 6e-45 27.68887 194.1179 14.864071 117.443306
1.3558986 35.80166 261.62253 23.64942 0.006030539 55.96222 1.919006 44.508053
28.988073 532.1718 28.5253 6e-45 13.176787 3.911884 38.163902 115.03668
157.96632 48.627136 58.793278 358.4594 9.4463625 345.86212 470.18872 31.271069
29.29221 7.12484 5.602158 2.0773494 25.906162 53.1846 22.081526 682.4928

fc3.weight f4 [1, 64]
00000000: 7b2a fabd fa39 a53c 497c ca3c 2e47 82bd
00000010: 71ae 42bd e316 04be ac76 6dbc 3448 5d3c
00000020: e742 50bd 9871 743c 6348 d6bc 6a34 69bc
00000030: c1cf bb3c f4b9 503d a4d2 1dbe ce73 a33c
00000040: 210c 5b3d b703 133d 4cd9 533d d224 273e
00000050: c5cb 5fbd 5b19 613d afa6 3abe 7508 103d
00000060: f22e b7bc 29ca 963c 3f21 c93c 2cb5 28bd
00000070: 2364 2f3d e530 8c3c 82d0 30bd 983c 4b3c
00000080: 53aa 233d ba1f 2a3c d0cc 89bc 3fc6 39bd
00000090: 5a48 aa3d e303 c6bd 313d 3d3c 80cd 1b3c
000000a0: 582d 22bc b161 1a3d c668 31bc cd54 b9bc
000000b0: e3f0 abbc 4081 2f3a ce7a bc3c a9c1 b8bc
000000c0: 0977 813b a4fb efbd 33a0 fa3d 4524 42bd
000000d0: 1e6d b8bc ba54 80bc 86f3 d1bd 5023 f4bc
000000e0: 5b9e cabc 2238 edbc d25b 1abd b1ef 9c3a
000000f0: 91c9 1ebd ff76 dd3d ce76 283d 60e5 953c
-0.12215134 0.020169247 0.024717467 -0.06361233 -0.04752964 -0.12899356 -0.014493626 0.013505984
-0.050845053 0.014919661 -0.026157564 -0.014233688 0.022926213 0.05095859 -0.15412384 0.01995268
0.053478364 0.035892215 0.051720902 0.1632264 -0.05463769 0.05495582 -0.18227647 0.035164315
-0.022361252 0.018406944 0.024551986 -0.041188404 0.042820107 0.017113158 -0.0431676 0.012404583
0.039957356 0.010383541 -0.016821295 -0.045355078 0.08314581 -0.0966871 0.011550234 0.009509444
-0.009898506 0.037690822 -0.010828203 -0.022623444 -0.020988887 0.000669498 0.023007777 -0.022553282
0.0039509577 -0.117179185 0.12237587 -0.04739787 -0.022512969 -0.0156654 -0.102515265 -0.029801995
-0.024733713 -0.02895743 -0.037685223 0.0011973289 -0.038766447 0.10813712 0.041128926 0.018297851
